{"weightsManifest": [{"paths": ["group1-shard1of54.bin", "group1-shard2of54.bin", "group1-shard3of54.bin", "group1-shard4of54.bin", "group1-shard5of54.bin", "group1-shard6of54.bin", "group1-shard7of54.bin", "group1-shard8of54.bin", "group1-shard9of54.bin", "group1-shard10of54.bin", "group1-shard11of54.bin", "group1-shard12of54.bin", "group1-shard13of54.bin", "group1-shard14of54.bin", "group1-shard15of54.bin", "group1-shard16of54.bin", "group1-shard17of54.bin", "group1-shard18of54.bin", "group1-shard19of54.bin", "group1-shard20of54.bin", "group1-shard21of54.bin", "group1-shard22of54.bin", "group1-shard23of54.bin", "group1-shard24of54.bin", "group1-shard25of54.bin", "group1-shard26of54.bin", "group1-shard27of54.bin", "group1-shard28of54.bin", "group1-shard29of54.bin", "group1-shard30of54.bin", "group1-shard31of54.bin", "group1-shard32of54.bin", "group1-shard33of54.bin", "group1-shard34of54.bin", "group1-shard35of54.bin", "group1-shard36of54.bin", "group1-shard37of54.bin", "group1-shard38of54.bin", "group1-shard39of54.bin", "group1-shard40of54.bin", "group1-shard41of54.bin", "group1-shard42of54.bin", "group1-shard43of54.bin", "group1-shard44of54.bin", "group1-shard45of54.bin", "group1-shard46of54.bin", "group1-shard47of54.bin", "group1-shard48of54.bin", "group1-shard49of54.bin", "group1-shard50of54.bin", "group1-shard51of54.bin", "group1-shard52of54.bin", "group1-shard53of54.bin", "group1-shard54of54.bin"], "weights": [{"dtype": "float32", "shape": [1, 1, 448, 2080], "name": "module/InceptionResnetV2/Block8/Conv2d_1x1/weights"}, {"dtype": "float32", "shape": [2080], "name": "module/InceptionResnetV2/Block8/Conv2d_1x1/biases"}, {"dtype": "float32", "shape": [1, 1, 384, 1088], "name": "module/InceptionResnetV2/Repeat_1/block17_10/Conv2d_1x1/weights"}, {"dtype": "float32", "shape": [1088], "name": "module/InceptionResnetV2/Repeat_1/block17_10/Conv2d_1x1/biases"}, {"dtype": "float32", "shape": [1, 1, 128, 320], "name": "module/InceptionResnetV2/Repeat/block35_10/Conv2d_1x1/weights"}, {"dtype": "float32", "shape": [320], "name": "module/InceptionResnetV2/Repeat/block35_10/Conv2d_1x1/biases"}, {"dtype": "float32", "shape": [], "name": "module_apply_default/hub_input/Mul/y"}, {"dtype": "float32", "shape": [], "name": "module_apply_default/hub_input/Sub/y"}, {"dtype": "float32", "shape": [1, 1, 128, 320], "name": "module/InceptionResnetV2/Repeat/block35_1/Conv2d_1x1/weights"}, {"dtype": "float32", "shape": [320], "name": "module/InceptionResnetV2/Repeat/block35_1/Conv2d_1x1/biases"}, {"dtype": "float32", "shape": [], "name": "module_apply_default/InceptionResnetV2/InceptionResnetV2/Repeat/block35_1/mul/y"}, {"dtype": "float32", "shape": [1, 1, 128, 320], "name": "module/InceptionResnetV2/Repeat/block35_2/Conv2d_1x1/weights"}, {"dtype": "float32", "shape": [320], "name": "module/InceptionResnetV2/Repeat/block35_2/Conv2d_1x1/biases"}, {"dtype": "float32", "shape": [1, 1, 128, 320], "name": "module/InceptionResnetV2/Repeat/block35_3/Conv2d_1x1/weights"}, {"dtype": "float32", "shape": [320], "name": "module/InceptionResnetV2/Repeat/block35_3/Conv2d_1x1/biases"}, {"dtype": "float32", "shape": [1, 1, 128, 320], "name": "module/InceptionResnetV2/Repeat/block35_4/Conv2d_1x1/weights"}, {"dtype": "float32", "shape": [320], "name": "module/InceptionResnetV2/Repeat/block35_4/Conv2d_1x1/biases"}, {"dtype": "float32", "shape": [1, 1, 128, 320], "name": "module/InceptionResnetV2/Repeat/block35_5/Conv2d_1x1/weights"}, {"dtype": "float32", "shape": [320], "name": "module/InceptionResnetV2/Repeat/block35_5/Conv2d_1x1/biases"}, {"dtype": "float32", "shape": [1, 1, 128, 320], "name": "module/InceptionResnetV2/Repeat/block35_6/Conv2d_1x1/weights"}, {"dtype": "float32", "shape": [320], "name": "module/InceptionResnetV2/Repeat/block35_6/Conv2d_1x1/biases"}, {"dtype": "float32", "shape": [1, 1, 128, 320], "name": "module/InceptionResnetV2/Repeat/block35_7/Conv2d_1x1/weights"}, {"dtype": "float32", "shape": [320], "name": "module/InceptionResnetV2/Repeat/block35_7/Conv2d_1x1/biases"}, {"dtype": "float32", "shape": [1, 1, 128, 320], "name": "module/InceptionResnetV2/Repeat/block35_8/Conv2d_1x1/weights"}, {"dtype": "float32", "shape": [320], "name": "module/InceptionResnetV2/Repeat/block35_8/Conv2d_1x1/biases"}, {"dtype": "float32", "shape": [1, 1, 128, 320], "name": "module/InceptionResnetV2/Repeat/block35_9/Conv2d_1x1/weights"}, {"dtype": "float32", "shape": [320], "name": "module/InceptionResnetV2/Repeat/block35_9/Conv2d_1x1/biases"}, {"dtype": "float32", "shape": [1, 1, 384, 1088], "name": "module/InceptionResnetV2/Repeat_1/block17_1/Conv2d_1x1/weights"}, {"dtype": "float32", "shape": [1088], "name": "module/InceptionResnetV2/Repeat_1/block17_1/Conv2d_1x1/biases"}, {"dtype": "float32", "shape": [], "name": "module_apply_default/InceptionResnetV2/InceptionResnetV2/Repeat_1/block17_1/mul/y"}, {"dtype": "float32", "shape": [1, 1, 384, 1088], "name": "module/InceptionResnetV2/Repeat_1/block17_2/Conv2d_1x1/weights"}, {"dtype": "float32", "shape": [1088], "name": "module/InceptionResnetV2/Repeat_1/block17_2/Conv2d_1x1/biases"}, {"dtype": "float32", "shape": [1, 1, 384, 1088], "name": "module/InceptionResnetV2/Repeat_1/block17_3/Conv2d_1x1/weights"}, {"dtype": "float32", "shape": [1088], "name": "module/InceptionResnetV2/Repeat_1/block17_3/Conv2d_1x1/biases"}, {"dtype": "float32", "shape": [1, 1, 384, 1088], "name": "module/InceptionResnetV2/Repeat_1/block17_4/Conv2d_1x1/weights"}, {"dtype": "float32", "shape": [1088], "name": "module/InceptionResnetV2/Repeat_1/block17_4/Conv2d_1x1/biases"}, {"dtype": "float32", "shape": [1, 1, 384, 1088], "name": "module/InceptionResnetV2/Repeat_1/block17_5/Conv2d_1x1/weights"}, {"dtype": "float32", "shape": [1088], "name": "module/InceptionResnetV2/Repeat_1/block17_5/Conv2d_1x1/biases"}, {"dtype": "float32", "shape": [1, 1, 384, 1088], "name": "module/InceptionResnetV2/Repeat_1/block17_6/Conv2d_1x1/weights"}, {"dtype": "float32", "shape": [1088], "name": "module/InceptionResnetV2/Repeat_1/block17_6/Conv2d_1x1/biases"}, {"dtype": "float32", "shape": [1, 1, 384, 1088], "name": "module/InceptionResnetV2/Repeat_1/block17_7/Conv2d_1x1/weights"}, {"dtype": "float32", "shape": [1088], "name": "module/InceptionResnetV2/Repeat_1/block17_7/Conv2d_1x1/biases"}, {"dtype": "float32", "shape": [1, 1, 384, 1088], "name": "module/InceptionResnetV2/Repeat_1/block17_8/Conv2d_1x1/weights"}, {"dtype": "float32", "shape": [1088], "name": "module/InceptionResnetV2/Repeat_1/block17_8/Conv2d_1x1/biases"}, {"dtype": "float32", "shape": [1, 1, 384, 1088], "name": "module/InceptionResnetV2/Repeat_1/block17_9/Conv2d_1x1/weights"}, {"dtype": "float32", "shape": [1088], "name": "module/InceptionResnetV2/Repeat_1/block17_9/Conv2d_1x1/biases"}, {"dtype": "float32", "shape": [1, 1, 384, 1088], "name": "module/InceptionResnetV2/Repeat_1/block17_11/Conv2d_1x1/weights"}, {"dtype": "float32", "shape": [1088], "name": "module/InceptionResnetV2/Repeat_1/block17_11/Conv2d_1x1/biases"}, {"dtype": "float32", "shape": [1, 1, 384, 1088], "name": "module/InceptionResnetV2/Repeat_1/block17_12/Conv2d_1x1/weights"}, {"dtype": "float32", "shape": [1088], "name": "module/InceptionResnetV2/Repeat_1/block17_12/Conv2d_1x1/biases"}, {"dtype": "float32", "shape": [1, 1, 384, 1088], "name": "module/InceptionResnetV2/Repeat_1/block17_13/Conv2d_1x1/weights"}, {"dtype": "float32", "shape": [1088], "name": "module/InceptionResnetV2/Repeat_1/block17_13/Conv2d_1x1/biases"}, {"dtype": "float32", "shape": [1, 1, 384, 1088], "name": "module/InceptionResnetV2/Repeat_1/block17_14/Conv2d_1x1/weights"}, {"dtype": "float32", "shape": [1088], "name": "module/InceptionResnetV2/Repeat_1/block17_14/Conv2d_1x1/biases"}, {"dtype": "float32", "shape": [1, 1, 384, 1088], "name": "module/InceptionResnetV2/Repeat_1/block17_15/Conv2d_1x1/weights"}, {"dtype": "float32", "shape": [1088], "name": "module/InceptionResnetV2/Repeat_1/block17_15/Conv2d_1x1/biases"}, {"dtype": "float32", "shape": [1, 1, 384, 1088], "name": "module/InceptionResnetV2/Repeat_1/block17_16/Conv2d_1x1/weights"}, {"dtype": "float32", "shape": [1088], "name": "module/InceptionResnetV2/Repeat_1/block17_16/Conv2d_1x1/biases"}, {"dtype": "float32", "shape": [1, 1, 384, 1088], "name": "module/InceptionResnetV2/Repeat_1/block17_17/Conv2d_1x1/weights"}, {"dtype": "float32", "shape": [1088], "name": "module/InceptionResnetV2/Repeat_1/block17_17/Conv2d_1x1/biases"}, {"dtype": "float32", "shape": [1, 1, 384, 1088], "name": "module/InceptionResnetV2/Repeat_1/block17_18/Conv2d_1x1/weights"}, {"dtype": "float32", "shape": [1088], "name": "module/InceptionResnetV2/Repeat_1/block17_18/Conv2d_1x1/biases"}, {"dtype": "float32", "shape": [1, 1, 384, 1088], "name": "module/InceptionResnetV2/Repeat_1/block17_19/Conv2d_1x1/weights"}, {"dtype": "float32", "shape": [1088], "name": "module/InceptionResnetV2/Repeat_1/block17_19/Conv2d_1x1/biases"}, {"dtype": "float32", "shape": [1, 1, 384, 1088], "name": "module/InceptionResnetV2/Repeat_1/block17_20/Conv2d_1x1/weights"}, {"dtype": "float32", "shape": [1088], "name": "module/InceptionResnetV2/Repeat_1/block17_20/Conv2d_1x1/biases"}, {"dtype": "float32", "shape": [1, 1, 448, 2080], "name": "module/InceptionResnetV2/Repeat_2/block8_1/Conv2d_1x1/weights"}, {"dtype": "float32", "shape": [2080], "name": "module/InceptionResnetV2/Repeat_2/block8_1/Conv2d_1x1/biases"}, {"dtype": "float32", "shape": [], "name": "module_apply_default/InceptionResnetV2/InceptionResnetV2/Repeat_2/block8_1/mul/y"}, {"dtype": "float32", "shape": [1, 1, 448, 2080], "name": "module/InceptionResnetV2/Repeat_2/block8_2/Conv2d_1x1/weights"}, {"dtype": "float32", "shape": [2080], "name": "module/InceptionResnetV2/Repeat_2/block8_2/Conv2d_1x1/biases"}, {"dtype": "float32", "shape": [1, 1, 448, 2080], "name": "module/InceptionResnetV2/Repeat_2/block8_3/Conv2d_1x1/weights"}, {"dtype": "float32", "shape": [2080], "name": "module/InceptionResnetV2/Repeat_2/block8_3/Conv2d_1x1/biases"}, {"dtype": "float32", "shape": [1, 1, 448, 2080], "name": "module/InceptionResnetV2/Repeat_2/block8_4/Conv2d_1x1/weights"}, {"dtype": "float32", "shape": [2080], "name": "module/InceptionResnetV2/Repeat_2/block8_4/Conv2d_1x1/biases"}, {"dtype": "float32", "shape": [1, 1, 448, 2080], "name": "module/InceptionResnetV2/Repeat_2/block8_5/Conv2d_1x1/weights"}, {"dtype": "float32", "shape": [2080], "name": "module/InceptionResnetV2/Repeat_2/block8_5/Conv2d_1x1/biases"}, {"dtype": "float32", "shape": [1, 1, 448, 2080], "name": "module/InceptionResnetV2/Repeat_2/block8_6/Conv2d_1x1/weights"}, {"dtype": "float32", "shape": [2080], "name": "module/InceptionResnetV2/Repeat_2/block8_6/Conv2d_1x1/biases"}, {"dtype": "float32", "shape": [1, 1, 448, 2080], "name": "module/InceptionResnetV2/Repeat_2/block8_7/Conv2d_1x1/weights"}, {"dtype": "float32", "shape": [2080], "name": "module/InceptionResnetV2/Repeat_2/block8_7/Conv2d_1x1/biases"}, {"dtype": "float32", "shape": [1, 1, 448, 2080], "name": "module/InceptionResnetV2/Repeat_2/block8_8/Conv2d_1x1/weights"}, {"dtype": "float32", "shape": [2080], "name": "module/InceptionResnetV2/Repeat_2/block8_8/Conv2d_1x1/biases"}, {"dtype": "int32", "shape": [], "name": "module_apply_default/InceptionResnetV2/InceptionResnetV2/Mixed_5b/concat/axis"}, {"dtype": "float32", "shape": [1, 1, 448, 2080], "name": "module/InceptionResnetV2/Repeat_2/block8_9/Conv2d_1x1/weights"}, {"dtype": "float32", "shape": [2080], "name": "module/InceptionResnetV2/Repeat_2/block8_9/Conv2d_1x1/biases"}, {"dtype": "int32", "shape": [2], "name": "module_apply_default/InceptionResnetV2/Logits/global_pool/reduction_indices"}, {"dtype": "int32", "shape": [1], "name": "module_apply_default/InceptionResnetV2/Logits/Flatten/flatten/strided_slice/stack"}, {"dtype": "int32", "shape": [1], "name": "module_apply_default/InceptionResnetV2/Logits/Flatten/flatten/strided_slice/stack_1"}, {"dtype": "int32", "shape": [], "name": "module_apply_default/InceptionResnetV2/Logits/Flatten/flatten/Reshape/shape/1"}, {"dtype": "float32", "shape": [1536, 1001], "name": "module/InceptionResnetV2/Logits/Logits/weights"}, {"dtype": "float32", "shape": [1001], "name": "module/InceptionResnetV2/Logits/Logits/biases"}, {"dtype": "float32", "shape": [3, 3, 3, 32], "name": "module/InceptionResnetV2/Conv2d_1a_3x3/weights"}, {"dtype": "float32", "shape": [32], "name": "module_apply_default/InceptionResnetV2/InceptionResnetV2/Conv2d_1a_3x3/Conv2D_bn_offset"}, {"dtype": "float32", "shape": [3, 3, 32, 32], "name": "module/InceptionResnetV2/Conv2d_2a_3x3/weights"}, {"dtype": "float32", "shape": [32], "name": "module_apply_default/InceptionResnetV2/InceptionResnetV2/Conv2d_2a_3x3/Conv2D_bn_offset"}, {"dtype": "float32", "shape": [3, 3, 32, 64], "name": "module/InceptionResnetV2/Conv2d_2b_3x3/weights"}, {"dtype": "float32", "shape": [64], "name": "module_apply_default/InceptionResnetV2/InceptionResnetV2/Conv2d_2b_3x3/Conv2D_bn_offset"}, {"dtype": "float32", "shape": [1, 1, 64, 80], "name": "module/InceptionResnetV2/Conv2d_3b_1x1/weights"}, {"dtype": "float32", "shape": [80], "name": "module_apply_default/InceptionResnetV2/InceptionResnetV2/Conv2d_3b_1x1/Conv2D_bn_offset"}, {"dtype": "float32", "shape": [3, 3, 80, 192], "name": "module/InceptionResnetV2/Conv2d_4a_3x3/weights"}, {"dtype": "float32", "shape": [192], "name": "module_apply_default/InceptionResnetV2/InceptionResnetV2/Conv2d_4a_3x3/Conv2D_bn_offset"}, {"dtype": "float32", "shape": [1, 1, 192, 96], "name": "module/InceptionResnetV2/Mixed_5b/Branch_0/Conv2d_1x1/weights"}, {"dtype": "float32", "shape": [96], "name": "module_apply_default/InceptionResnetV2/InceptionResnetV2/Mixed_5b/Branch_0/Conv2d_1x1/Conv2D_bn_offset"}, {"dtype": "float32", "shape": [1, 1, 192, 48], "name": "module/InceptionResnetV2/Mixed_5b/Branch_1/Conv2d_0a_1x1/weights"}, {"dtype": "float32", "shape": [48], "name": "module_apply_default/InceptionResnetV2/InceptionResnetV2/Mixed_5b/Branch_1/Conv2d_0a_1x1/Conv2D_bn_offset"}, {"dtype": "float32", "shape": [1, 1, 192, 64], "name": "module/InceptionResnetV2/Mixed_5b/Branch_2/Conv2d_0a_1x1/weights"}, {"dtype": "float32", "shape": [64], "name": "module_apply_default/InceptionResnetV2/InceptionResnetV2/Mixed_5b/Branch_2/Conv2d_0a_1x1/Conv2D_bn_offset"}, {"dtype": "float32", "shape": [1, 1, 192, 64], "name": "module/InceptionResnetV2/Mixed_5b/Branch_3/Conv2d_0b_1x1/weights"}, {"dtype": "float32", "shape": [64], "name": "module_apply_default/InceptionResnetV2/InceptionResnetV2/Mixed_5b/Branch_3/Conv2d_0b_1x1/Conv2D_bn_offset"}, {"dtype": "float32", "shape": [5, 5, 48, 64], "name": "module/InceptionResnetV2/Mixed_5b/Branch_1/Conv2d_0b_5x5/weights"}, {"dtype": "float32", "shape": [64], "name": "module_apply_default/InceptionResnetV2/InceptionResnetV2/Mixed_5b/Branch_1/Conv2d_0b_5x5/Conv2D_bn_offset"}, {"dtype": "float32", "shape": [3, 3, 64, 96], "name": "module/InceptionResnetV2/Mixed_5b/Branch_2/Conv2d_0b_3x3/weights"}, {"dtype": "float32", "shape": [96], "name": "module_apply_default/InceptionResnetV2/InceptionResnetV2/Mixed_5b/Branch_2/Conv2d_0b_3x3/Conv2D_bn_offset"}, {"dtype": "float32", "shape": [3, 3, 96, 96], "name": "module/InceptionResnetV2/Mixed_5b/Branch_2/Conv2d_0c_3x3/weights"}, {"dtype": "float32", "shape": [96], "name": "module_apply_default/InceptionResnetV2/InceptionResnetV2/Mixed_5b/Branch_2/Conv2d_0c_3x3/Conv2D_bn_offset"}, {"dtype": "float32", "shape": [1, 1, 320, 32], "name": "module/InceptionResnetV2/Repeat/block35_1/Branch_0/Conv2d_1x1/weights"}, {"dtype": "float32", "shape": [32], "name": "module_apply_default/InceptionResnetV2/InceptionResnetV2/Repeat/block35_1/Branch_0/Conv2d_1x1/Conv2D_bn_offset"}, {"dtype": "float32", "shape": [1, 1, 320, 32], "name": "module/InceptionResnetV2/Repeat/block35_1/Branch_1/Conv2d_0a_1x1/weights"}, {"dtype": "float32", "shape": [32], "name": "module_apply_default/InceptionResnetV2/InceptionResnetV2/Repeat/block35_1/Branch_1/Conv2d_0a_1x1/Conv2D_bn_offset"}, {"dtype": "float32", "shape": [1, 1, 320, 32], "name": "module/InceptionResnetV2/Repeat/block35_1/Branch_2/Conv2d_0a_1x1/weights"}, {"dtype": "float32", "shape": [32], "name": "module_apply_default/InceptionResnetV2/InceptionResnetV2/Repeat/block35_1/Branch_2/Conv2d_0a_1x1/Conv2D_bn_offset"}, {"dtype": "float32", "shape": [3, 3, 32, 32], "name": "module/InceptionResnetV2/Repeat/block35_1/Branch_1/Conv2d_0b_3x3/weights"}, {"dtype": "float32", "shape": [32], "name": "module_apply_default/InceptionResnetV2/InceptionResnetV2/Repeat/block35_1/Branch_1/Conv2d_0b_3x3/Conv2D_bn_offset"}, {"dtype": "float32", "shape": [3, 3, 32, 48], "name": "module/InceptionResnetV2/Repeat/block35_1/Branch_2/Conv2d_0b_3x3/weights"}, {"dtype": "float32", "shape": [48], "name": "module_apply_default/InceptionResnetV2/InceptionResnetV2/Repeat/block35_1/Branch_2/Conv2d_0b_3x3/Conv2D_bn_offset"}, {"dtype": "float32", "shape": [3, 3, 48, 64], "name": "module/InceptionResnetV2/Repeat/block35_1/Branch_2/Conv2d_0c_3x3/weights"}, {"dtype": "float32", "shape": [64], "name": "module_apply_default/InceptionResnetV2/InceptionResnetV2/Repeat/block35_1/Branch_2/Conv2d_0c_3x3/Conv2D_bn_offset"}, {"dtype": "float32", "shape": [1, 1, 320, 32], "name": "module/InceptionResnetV2/Repeat/block35_2/Branch_0/Conv2d_1x1/weights"}, {"dtype": "float32", "shape": [32], "name": "module_apply_default/InceptionResnetV2/InceptionResnetV2/Repeat/block35_2/Branch_0/Conv2d_1x1/Conv2D_bn_offset"}, {"dtype": "float32", "shape": [1, 1, 320, 32], "name": "module/InceptionResnetV2/Repeat/block35_2/Branch_1/Conv2d_0a_1x1/weights"}, {"dtype": "float32", "shape": [32], "name": "module_apply_default/InceptionResnetV2/InceptionResnetV2/Repeat/block35_2/Branch_1/Conv2d_0a_1x1/Conv2D_bn_offset"}, {"dtype": "float32", "shape": [1, 1, 320, 32], "name": "module/InceptionResnetV2/Repeat/block35_2/Branch_2/Conv2d_0a_1x1/weights"}, {"dtype": "float32", "shape": [32], "name": "module_apply_default/InceptionResnetV2/InceptionResnetV2/Repeat/block35_2/Branch_2/Conv2d_0a_1x1/Conv2D_bn_offset"}, {"dtype": "float32", "shape": [3, 3, 32, 32], "name": "module/InceptionResnetV2/Repeat/block35_2/Branch_1/Conv2d_0b_3x3/weights"}, {"dtype": "float32", "shape": [32], "name": "module_apply_default/InceptionResnetV2/InceptionResnetV2/Repeat/block35_2/Branch_1/Conv2d_0b_3x3/Conv2D_bn_offset"}, {"dtype": "float32", "shape": [3, 3, 32, 48], "name": "module/InceptionResnetV2/Repeat/block35_2/Branch_2/Conv2d_0b_3x3/weights"}, {"dtype": "float32", "shape": [48], "name": "module_apply_default/InceptionResnetV2/InceptionResnetV2/Repeat/block35_2/Branch_2/Conv2d_0b_3x3/Conv2D_bn_offset"}, {"dtype": "float32", "shape": [3, 3, 48, 64], "name": "module/InceptionResnetV2/Repeat/block35_2/Branch_2/Conv2d_0c_3x3/weights"}, {"dtype": "float32", "shape": [64], "name": "module_apply_default/InceptionResnetV2/InceptionResnetV2/Repeat/block35_2/Branch_2/Conv2d_0c_3x3/Conv2D_bn_offset"}, {"dtype": "float32", "shape": [1, 1, 320, 32], "name": "module/InceptionResnetV2/Repeat/block35_3/Branch_0/Conv2d_1x1/weights"}, {"dtype": "float32", "shape": [32], "name": "module_apply_default/InceptionResnetV2/InceptionResnetV2/Repeat/block35_3/Branch_0/Conv2d_1x1/Conv2D_bn_offset"}, {"dtype": "float32", "shape": [1, 1, 320, 32], "name": "module/InceptionResnetV2/Repeat/block35_3/Branch_1/Conv2d_0a_1x1/weights"}, {"dtype": "float32", "shape": [32], "name": "module_apply_default/InceptionResnetV2/InceptionResnetV2/Repeat/block35_3/Branch_1/Conv2d_0a_1x1/Conv2D_bn_offset"}, {"dtype": "float32", "shape": [1, 1, 320, 32], "name": "module/InceptionResnetV2/Repeat/block35_3/Branch_2/Conv2d_0a_1x1/weights"}, {"dtype": "float32", "shape": [32], "name": "module_apply_default/InceptionResnetV2/InceptionResnetV2/Repeat/block35_3/Branch_2/Conv2d_0a_1x1/Conv2D_bn_offset"}, {"dtype": "float32", "shape": [3, 3, 32, 32], "name": "module/InceptionResnetV2/Repeat/block35_3/Branch_1/Conv2d_0b_3x3/weights"}, {"dtype": "float32", "shape": [32], "name": "module_apply_default/InceptionResnetV2/InceptionResnetV2/Repeat/block35_3/Branch_1/Conv2d_0b_3x3/Conv2D_bn_offset"}, {"dtype": "float32", "shape": [3, 3, 32, 48], "name": "module/InceptionResnetV2/Repeat/block35_3/Branch_2/Conv2d_0b_3x3/weights"}, {"dtype": "float32", "shape": [48], "name": "module_apply_default/InceptionResnetV2/InceptionResnetV2/Repeat/block35_3/Branch_2/Conv2d_0b_3x3/Conv2D_bn_offset"}, {"dtype": "float32", "shape": [3, 3, 48, 64], "name": "module/InceptionResnetV2/Repeat/block35_3/Branch_2/Conv2d_0c_3x3/weights"}, {"dtype": "float32", "shape": [64], "name": "module_apply_default/InceptionResnetV2/InceptionResnetV2/Repeat/block35_3/Branch_2/Conv2d_0c_3x3/Conv2D_bn_offset"}, {"dtype": "float32", "shape": [1, 1, 320, 32], "name": "module/InceptionResnetV2/Repeat/block35_4/Branch_0/Conv2d_1x1/weights"}, {"dtype": "float32", "shape": [32], "name": "module_apply_default/InceptionResnetV2/InceptionResnetV2/Repeat/block35_4/Branch_0/Conv2d_1x1/Conv2D_bn_offset"}, {"dtype": "float32", "shape": [1, 1, 320, 32], "name": "module/InceptionResnetV2/Repeat/block35_4/Branch_1/Conv2d_0a_1x1/weights"}, {"dtype": "float32", "shape": [32], "name": "module_apply_default/InceptionResnetV2/InceptionResnetV2/Repeat/block35_4/Branch_1/Conv2d_0a_1x1/Conv2D_bn_offset"}, {"dtype": "float32", "shape": [1, 1, 320, 32], "name": "module/InceptionResnetV2/Repeat/block35_4/Branch_2/Conv2d_0a_1x1/weights"}, {"dtype": "float32", "shape": [32], "name": "module_apply_default/InceptionResnetV2/InceptionResnetV2/Repeat/block35_4/Branch_2/Conv2d_0a_1x1/Conv2D_bn_offset"}, {"dtype": "float32", "shape": [3, 3, 32, 32], "name": "module/InceptionResnetV2/Repeat/block35_4/Branch_1/Conv2d_0b_3x3/weights"}, {"dtype": "float32", "shape": [32], "name": "module_apply_default/InceptionResnetV2/InceptionResnetV2/Repeat/block35_4/Branch_1/Conv2d_0b_3x3/Conv2D_bn_offset"}, {"dtype": "float32", "shape": [3, 3, 32, 48], "name": "module/InceptionResnetV2/Repeat/block35_4/Branch_2/Conv2d_0b_3x3/weights"}, {"dtype": "float32", "shape": [48], "name": "module_apply_default/InceptionResnetV2/InceptionResnetV2/Repeat/block35_4/Branch_2/Conv2d_0b_3x3/Conv2D_bn_offset"}, {"dtype": "float32", "shape": [3, 3, 48, 64], "name": "module/InceptionResnetV2/Repeat/block35_4/Branch_2/Conv2d_0c_3x3/weights"}, {"dtype": "float32", "shape": [64], "name": "module_apply_default/InceptionResnetV2/InceptionResnetV2/Repeat/block35_4/Branch_2/Conv2d_0c_3x3/Conv2D_bn_offset"}, {"dtype": "float32", "shape": [1, 1, 320, 32], "name": "module/InceptionResnetV2/Repeat/block35_5/Branch_0/Conv2d_1x1/weights"}, {"dtype": "float32", "shape": [32], "name": "module_apply_default/InceptionResnetV2/InceptionResnetV2/Repeat/block35_5/Branch_0/Conv2d_1x1/Conv2D_bn_offset"}, {"dtype": "float32", "shape": [1, 1, 320, 32], "name": "module/InceptionResnetV2/Repeat/block35_5/Branch_1/Conv2d_0a_1x1/weights"}, {"dtype": "float32", "shape": [32], "name": "module_apply_default/InceptionResnetV2/InceptionResnetV2/Repeat/block35_5/Branch_1/Conv2d_0a_1x1/Conv2D_bn_offset"}, {"dtype": "float32", "shape": [1, 1, 320, 32], "name": "module/InceptionResnetV2/Repeat/block35_5/Branch_2/Conv2d_0a_1x1/weights"}, {"dtype": "float32", "shape": [32], "name": "module_apply_default/InceptionResnetV2/InceptionResnetV2/Repeat/block35_5/Branch_2/Conv2d_0a_1x1/Conv2D_bn_offset"}, {"dtype": "float32", "shape": [3, 3, 32, 32], "name": "module/InceptionResnetV2/Repeat/block35_5/Branch_1/Conv2d_0b_3x3/weights"}, {"dtype": "float32", "shape": [32], "name": "module_apply_default/InceptionResnetV2/InceptionResnetV2/Repeat/block35_5/Branch_1/Conv2d_0b_3x3/Conv2D_bn_offset"}, {"dtype": "float32", "shape": [3, 3, 32, 48], "name": "module/InceptionResnetV2/Repeat/block35_5/Branch_2/Conv2d_0b_3x3/weights"}, {"dtype": "float32", "shape": [48], "name": "module_apply_default/InceptionResnetV2/InceptionResnetV2/Repeat/block35_5/Branch_2/Conv2d_0b_3x3/Conv2D_bn_offset"}, {"dtype": "float32", "shape": [3, 3, 48, 64], "name": "module/InceptionResnetV2/Repeat/block35_5/Branch_2/Conv2d_0c_3x3/weights"}, {"dtype": "float32", "shape": [64], "name": "module_apply_default/InceptionResnetV2/InceptionResnetV2/Repeat/block35_5/Branch_2/Conv2d_0c_3x3/Conv2D_bn_offset"}, {"dtype": "float32", "shape": [1, 1, 320, 32], "name": "module/InceptionResnetV2/Repeat/block35_6/Branch_0/Conv2d_1x1/weights"}, {"dtype": "float32", "shape": [32], "name": "module_apply_default/InceptionResnetV2/InceptionResnetV2/Repeat/block35_6/Branch_0/Conv2d_1x1/Conv2D_bn_offset"}, {"dtype": "float32", "shape": [1, 1, 320, 32], "name": "module/InceptionResnetV2/Repeat/block35_6/Branch_1/Conv2d_0a_1x1/weights"}, {"dtype": "float32", "shape": [32], "name": "module_apply_default/InceptionResnetV2/InceptionResnetV2/Repeat/block35_6/Branch_1/Conv2d_0a_1x1/Conv2D_bn_offset"}, {"dtype": "float32", "shape": [1, 1, 320, 32], "name": "module/InceptionResnetV2/Repeat/block35_6/Branch_2/Conv2d_0a_1x1/weights"}, {"dtype": "float32", "shape": [32], "name": "module_apply_default/InceptionResnetV2/InceptionResnetV2/Repeat/block35_6/Branch_2/Conv2d_0a_1x1/Conv2D_bn_offset"}, {"dtype": "float32", "shape": [3, 3, 32, 32], "name": "module/InceptionResnetV2/Repeat/block35_6/Branch_1/Conv2d_0b_3x3/weights"}, {"dtype": "float32", "shape": [32], "name": "module_apply_default/InceptionResnetV2/InceptionResnetV2/Repeat/block35_6/Branch_1/Conv2d_0b_3x3/Conv2D_bn_offset"}, {"dtype": "float32", "shape": [3, 3, 32, 48], "name": "module/InceptionResnetV2/Repeat/block35_6/Branch_2/Conv2d_0b_3x3/weights"}, {"dtype": "float32", "shape": [48], "name": "module_apply_default/InceptionResnetV2/InceptionResnetV2/Repeat/block35_6/Branch_2/Conv2d_0b_3x3/Conv2D_bn_offset"}, {"dtype": "float32", "shape": [3, 3, 48, 64], "name": "module/InceptionResnetV2/Repeat/block35_6/Branch_2/Conv2d_0c_3x3/weights"}, {"dtype": "float32", "shape": [64], "name": "module_apply_default/InceptionResnetV2/InceptionResnetV2/Repeat/block35_6/Branch_2/Conv2d_0c_3x3/Conv2D_bn_offset"}, {"dtype": "float32", "shape": [1, 1, 320, 32], "name": "module/InceptionResnetV2/Repeat/block35_7/Branch_0/Conv2d_1x1/weights"}, {"dtype": "float32", "shape": [32], "name": "module_apply_default/InceptionResnetV2/InceptionResnetV2/Repeat/block35_7/Branch_0/Conv2d_1x1/Conv2D_bn_offset"}, {"dtype": "float32", "shape": [1, 1, 320, 32], "name": "module/InceptionResnetV2/Repeat/block35_7/Branch_1/Conv2d_0a_1x1/weights"}, {"dtype": "float32", "shape": [32], "name": "module_apply_default/InceptionResnetV2/InceptionResnetV2/Repeat/block35_7/Branch_1/Conv2d_0a_1x1/Conv2D_bn_offset"}, {"dtype": "float32", "shape": [1, 1, 320, 32], "name": "module/InceptionResnetV2/Repeat/block35_7/Branch_2/Conv2d_0a_1x1/weights"}, {"dtype": "float32", "shape": [32], "name": "module_apply_default/InceptionResnetV2/InceptionResnetV2/Repeat/block35_7/Branch_2/Conv2d_0a_1x1/Conv2D_bn_offset"}, {"dtype": "float32", "shape": [3, 3, 32, 32], "name": "module/InceptionResnetV2/Repeat/block35_7/Branch_1/Conv2d_0b_3x3/weights"}, {"dtype": "float32", "shape": [32], "name": "module_apply_default/InceptionResnetV2/InceptionResnetV2/Repeat/block35_7/Branch_1/Conv2d_0b_3x3/Conv2D_bn_offset"}, {"dtype": "float32", "shape": [3, 3, 32, 48], "name": "module/InceptionResnetV2/Repeat/block35_7/Branch_2/Conv2d_0b_3x3/weights"}, {"dtype": "float32", "shape": [48], "name": "module_apply_default/InceptionResnetV2/InceptionResnetV2/Repeat/block35_7/Branch_2/Conv2d_0b_3x3/Conv2D_bn_offset"}, {"dtype": "float32", "shape": [3, 3, 48, 64], "name": "module/InceptionResnetV2/Repeat/block35_7/Branch_2/Conv2d_0c_3x3/weights"}, {"dtype": "float32", "shape": [64], "name": "module_apply_default/InceptionResnetV2/InceptionResnetV2/Repeat/block35_7/Branch_2/Conv2d_0c_3x3/Conv2D_bn_offset"}, {"dtype": "float32", "shape": [1, 1, 320, 32], "name": "module/InceptionResnetV2/Repeat/block35_8/Branch_0/Conv2d_1x1/weights"}, {"dtype": "float32", "shape": [32], "name": "module_apply_default/InceptionResnetV2/InceptionResnetV2/Repeat/block35_8/Branch_0/Conv2d_1x1/Conv2D_bn_offset"}, {"dtype": "float32", "shape": [1, 1, 320, 32], "name": "module/InceptionResnetV2/Repeat/block35_8/Branch_1/Conv2d_0a_1x1/weights"}, {"dtype": "float32", "shape": [32], "name": "module_apply_default/InceptionResnetV2/InceptionResnetV2/Repeat/block35_8/Branch_1/Conv2d_0a_1x1/Conv2D_bn_offset"}, {"dtype": "float32", "shape": [1, 1, 320, 32], "name": "module/InceptionResnetV2/Repeat/block35_8/Branch_2/Conv2d_0a_1x1/weights"}, {"dtype": "float32", "shape": [32], "name": "module_apply_default/InceptionResnetV2/InceptionResnetV2/Repeat/block35_8/Branch_2/Conv2d_0a_1x1/Conv2D_bn_offset"}, {"dtype": "float32", "shape": [3, 3, 32, 32], "name": "module/InceptionResnetV2/Repeat/block35_8/Branch_1/Conv2d_0b_3x3/weights"}, {"dtype": "float32", "shape": [32], "name": "module_apply_default/InceptionResnetV2/InceptionResnetV2/Repeat/block35_8/Branch_1/Conv2d_0b_3x3/Conv2D_bn_offset"}, {"dtype": "float32", "shape": [3, 3, 32, 48], "name": "module/InceptionResnetV2/Repeat/block35_8/Branch_2/Conv2d_0b_3x3/weights"}, {"dtype": "float32", "shape": [48], "name": "module_apply_default/InceptionResnetV2/InceptionResnetV2/Repeat/block35_8/Branch_2/Conv2d_0b_3x3/Conv2D_bn_offset"}, {"dtype": "float32", "shape": [3, 3, 48, 64], "name": "module/InceptionResnetV2/Repeat/block35_8/Branch_2/Conv2d_0c_3x3/weights"}, {"dtype": "float32", "shape": [64], "name": "module_apply_default/InceptionResnetV2/InceptionResnetV2/Repeat/block35_8/Branch_2/Conv2d_0c_3x3/Conv2D_bn_offset"}, {"dtype": "float32", "shape": [1, 1, 320, 32], "name": "module/InceptionResnetV2/Repeat/block35_9/Branch_0/Conv2d_1x1/weights"}, {"dtype": "float32", "shape": [32], "name": "module_apply_default/InceptionResnetV2/InceptionResnetV2/Repeat/block35_9/Branch_0/Conv2d_1x1/Conv2D_bn_offset"}, {"dtype": "float32", "shape": [1, 1, 320, 32], "name": "module/InceptionResnetV2/Repeat/block35_9/Branch_1/Conv2d_0a_1x1/weights"}, {"dtype": "float32", "shape": [32], "name": "module_apply_default/InceptionResnetV2/InceptionResnetV2/Repeat/block35_9/Branch_1/Conv2d_0a_1x1/Conv2D_bn_offset"}, {"dtype": "float32", "shape": [1, 1, 320, 32], "name": "module/InceptionResnetV2/Repeat/block35_9/Branch_2/Conv2d_0a_1x1/weights"}, {"dtype": "float32", "shape": [32], "name": "module_apply_default/InceptionResnetV2/InceptionResnetV2/Repeat/block35_9/Branch_2/Conv2d_0a_1x1/Conv2D_bn_offset"}, {"dtype": "float32", "shape": [3, 3, 32, 32], "name": "module/InceptionResnetV2/Repeat/block35_9/Branch_1/Conv2d_0b_3x3/weights"}, {"dtype": "float32", "shape": [32], "name": "module_apply_default/InceptionResnetV2/InceptionResnetV2/Repeat/block35_9/Branch_1/Conv2d_0b_3x3/Conv2D_bn_offset"}, {"dtype": "float32", "shape": [3, 3, 32, 48], "name": "module/InceptionResnetV2/Repeat/block35_9/Branch_2/Conv2d_0b_3x3/weights"}, {"dtype": "float32", "shape": [48], "name": "module_apply_default/InceptionResnetV2/InceptionResnetV2/Repeat/block35_9/Branch_2/Conv2d_0b_3x3/Conv2D_bn_offset"}, {"dtype": "float32", "shape": [3, 3, 48, 64], "name": "module/InceptionResnetV2/Repeat/block35_9/Branch_2/Conv2d_0c_3x3/weights"}, {"dtype": "float32", "shape": [64], "name": "module_apply_default/InceptionResnetV2/InceptionResnetV2/Repeat/block35_9/Branch_2/Conv2d_0c_3x3/Conv2D_bn_offset"}, {"dtype": "float32", "shape": [1, 1, 320, 32], "name": "module/InceptionResnetV2/Repeat/block35_10/Branch_0/Conv2d_1x1/weights"}, {"dtype": "float32", "shape": [32], "name": "module_apply_default/InceptionResnetV2/InceptionResnetV2/Repeat/block35_10/Branch_0/Conv2d_1x1/Conv2D_bn_offset"}, {"dtype": "float32", "shape": [1, 1, 320, 32], "name": "module/InceptionResnetV2/Repeat/block35_10/Branch_1/Conv2d_0a_1x1/weights"}, {"dtype": "float32", "shape": [32], "name": "module_apply_default/InceptionResnetV2/InceptionResnetV2/Repeat/block35_10/Branch_1/Conv2d_0a_1x1/Conv2D_bn_offset"}, {"dtype": "float32", "shape": [1, 1, 320, 32], "name": "module/InceptionResnetV2/Repeat/block35_10/Branch_2/Conv2d_0a_1x1/weights"}, {"dtype": "float32", "shape": [32], "name": "module_apply_default/InceptionResnetV2/InceptionResnetV2/Repeat/block35_10/Branch_2/Conv2d_0a_1x1/Conv2D_bn_offset"}, {"dtype": "float32", "shape": [3, 3, 32, 32], "name": "module/InceptionResnetV2/Repeat/block35_10/Branch_1/Conv2d_0b_3x3/weights"}, {"dtype": "float32", "shape": [32], "name": "module_apply_default/InceptionResnetV2/InceptionResnetV2/Repeat/block35_10/Branch_1/Conv2d_0b_3x3/Conv2D_bn_offset"}, {"dtype": "float32", "shape": [3, 3, 32, 48], "name": "module/InceptionResnetV2/Repeat/block35_10/Branch_2/Conv2d_0b_3x3/weights"}, {"dtype": "float32", "shape": [48], "name": "module_apply_default/InceptionResnetV2/InceptionResnetV2/Repeat/block35_10/Branch_2/Conv2d_0b_3x3/Conv2D_bn_offset"}, {"dtype": "float32", "shape": [3, 3, 48, 64], "name": "module/InceptionResnetV2/Repeat/block35_10/Branch_2/Conv2d_0c_3x3/weights"}, {"dtype": "float32", "shape": [64], "name": "module_apply_default/InceptionResnetV2/InceptionResnetV2/Repeat/block35_10/Branch_2/Conv2d_0c_3x3/Conv2D_bn_offset"}, {"dtype": "float32", "shape": [3, 3, 320, 384], "name": "module/InceptionResnetV2/Mixed_6a/Branch_0/Conv2d_1a_3x3/weights"}, {"dtype": "float32", "shape": [384], "name": "module_apply_default/InceptionResnetV2/InceptionResnetV2/Mixed_6a/Branch_0/Conv2d_1a_3x3/Conv2D_bn_offset"}, {"dtype": "float32", "shape": [1, 1, 320, 256], "name": "module/InceptionResnetV2/Mixed_6a/Branch_1/Conv2d_0a_1x1/weights"}, {"dtype": "float32", "shape": [256], "name": "module_apply_default/InceptionResnetV2/InceptionResnetV2/Mixed_6a/Branch_1/Conv2d_0a_1x1/Conv2D_bn_offset"}, {"dtype": "float32", "shape": [3, 3, 256, 256], "name": "module/InceptionResnetV2/Mixed_6a/Branch_1/Conv2d_0b_3x3/weights"}, {"dtype": "float32", "shape": [256], "name": "module_apply_default/InceptionResnetV2/InceptionResnetV2/Mixed_6a/Branch_1/Conv2d_0b_3x3/Conv2D_bn_offset"}, {"dtype": "float32", "shape": [3, 3, 256, 384], "name": "module/InceptionResnetV2/Mixed_6a/Branch_1/Conv2d_1a_3x3/weights"}, {"dtype": "float32", "shape": [384], "name": "module_apply_default/InceptionResnetV2/InceptionResnetV2/Mixed_6a/Branch_1/Conv2d_1a_3x3/Conv2D_bn_offset"}, {"dtype": "float32", "shape": [1, 1, 1088, 192], "name": "module/InceptionResnetV2/Repeat_1/block17_1/Branch_0/Conv2d_1x1/weights"}, {"dtype": "float32", "shape": [192], "name": "module_apply_default/InceptionResnetV2/InceptionResnetV2/Repeat_1/block17_1/Branch_0/Conv2d_1x1/Conv2D_bn_offset"}, {"dtype": "float32", "shape": [1, 1, 1088, 128], "name": "module/InceptionResnetV2/Repeat_1/block17_1/Branch_1/Conv2d_0a_1x1/weights"}, {"dtype": "float32", "shape": [128], "name": "module_apply_default/InceptionResnetV2/InceptionResnetV2/Repeat_1/block17_1/Branch_1/Conv2d_0a_1x1/Conv2D_bn_offset"}, {"dtype": "float32", "shape": [1, 7, 128, 160], "name": "module/InceptionResnetV2/Repeat_1/block17_1/Branch_1/Conv2d_0b_1x7/weights"}, {"dtype": "float32", "shape": [160], "name": "module_apply_default/InceptionResnetV2/InceptionResnetV2/Repeat_1/block17_1/Branch_1/Conv2d_0b_1x7/Conv2D_bn_offset"}, {"dtype": "float32", "shape": [7, 1, 160, 192], "name": "module/InceptionResnetV2/Repeat_1/block17_1/Branch_1/Conv2d_0c_7x1/weights"}, {"dtype": "float32", "shape": [192], "name": "module_apply_default/InceptionResnetV2/InceptionResnetV2/Repeat_1/block17_1/Branch_1/Conv2d_0c_7x1/Conv2D_bn_offset"}, {"dtype": "float32", "shape": [1, 1, 1088, 192], "name": "module/InceptionResnetV2/Repeat_1/block17_2/Branch_0/Conv2d_1x1/weights"}, {"dtype": "float32", "shape": [192], "name": "module_apply_default/InceptionResnetV2/InceptionResnetV2/Repeat_1/block17_2/Branch_0/Conv2d_1x1/Conv2D_bn_offset"}, {"dtype": "float32", "shape": [1, 1, 1088, 128], "name": "module/InceptionResnetV2/Repeat_1/block17_2/Branch_1/Conv2d_0a_1x1/weights"}, {"dtype": "float32", "shape": [128], "name": "module_apply_default/InceptionResnetV2/InceptionResnetV2/Repeat_1/block17_2/Branch_1/Conv2d_0a_1x1/Conv2D_bn_offset"}, {"dtype": "float32", "shape": [1, 7, 128, 160], "name": "module/InceptionResnetV2/Repeat_1/block17_2/Branch_1/Conv2d_0b_1x7/weights"}, {"dtype": "float32", "shape": [160], "name": "module_apply_default/InceptionResnetV2/InceptionResnetV2/Repeat_1/block17_2/Branch_1/Conv2d_0b_1x7/Conv2D_bn_offset"}, {"dtype": "float32", "shape": [7, 1, 160, 192], "name": "module/InceptionResnetV2/Repeat_1/block17_2/Branch_1/Conv2d_0c_7x1/weights"}, {"dtype": "float32", "shape": [192], "name": "module_apply_default/InceptionResnetV2/InceptionResnetV2/Repeat_1/block17_2/Branch_1/Conv2d_0c_7x1/Conv2D_bn_offset"}, {"dtype": "float32", "shape": [1, 1, 1088, 192], "name": "module/InceptionResnetV2/Repeat_1/block17_3/Branch_0/Conv2d_1x1/weights"}, {"dtype": "float32", "shape": [192], "name": "module_apply_default/InceptionResnetV2/InceptionResnetV2/Repeat_1/block17_3/Branch_0/Conv2d_1x1/Conv2D_bn_offset"}, {"dtype": "float32", "shape": [1, 1, 1088, 128], "name": "module/InceptionResnetV2/Repeat_1/block17_3/Branch_1/Conv2d_0a_1x1/weights"}, {"dtype": "float32", "shape": [128], "name": "module_apply_default/InceptionResnetV2/InceptionResnetV2/Repeat_1/block17_3/Branch_1/Conv2d_0a_1x1/Conv2D_bn_offset"}, {"dtype": "float32", "shape": [1, 7, 128, 160], "name": "module/InceptionResnetV2/Repeat_1/block17_3/Branch_1/Conv2d_0b_1x7/weights"}, {"dtype": "float32", "shape": [160], "name": "module_apply_default/InceptionResnetV2/InceptionResnetV2/Repeat_1/block17_3/Branch_1/Conv2d_0b_1x7/Conv2D_bn_offset"}, {"dtype": "float32", "shape": [7, 1, 160, 192], "name": "module/InceptionResnetV2/Repeat_1/block17_3/Branch_1/Conv2d_0c_7x1/weights"}, {"dtype": "float32", "shape": [192], "name": "module_apply_default/InceptionResnetV2/InceptionResnetV2/Repeat_1/block17_3/Branch_1/Conv2d_0c_7x1/Conv2D_bn_offset"}, {"dtype": "float32", "shape": [1, 1, 1088, 192], "name": "module/InceptionResnetV2/Repeat_1/block17_4/Branch_0/Conv2d_1x1/weights"}, {"dtype": "float32", "shape": [192], "name": "module_apply_default/InceptionResnetV2/InceptionResnetV2/Repeat_1/block17_4/Branch_0/Conv2d_1x1/Conv2D_bn_offset"}, {"dtype": "float32", "shape": [1, 1, 1088, 128], "name": "module/InceptionResnetV2/Repeat_1/block17_4/Branch_1/Conv2d_0a_1x1/weights"}, {"dtype": "float32", "shape": [128], "name": "module_apply_default/InceptionResnetV2/InceptionResnetV2/Repeat_1/block17_4/Branch_1/Conv2d_0a_1x1/Conv2D_bn_offset"}, {"dtype": "float32", "shape": [1, 7, 128, 160], "name": "module/InceptionResnetV2/Repeat_1/block17_4/Branch_1/Conv2d_0b_1x7/weights"}, {"dtype": "float32", "shape": [160], "name": "module_apply_default/InceptionResnetV2/InceptionResnetV2/Repeat_1/block17_4/Branch_1/Conv2d_0b_1x7/Conv2D_bn_offset"}, {"dtype": "float32", "shape": [7, 1, 160, 192], "name": "module/InceptionResnetV2/Repeat_1/block17_4/Branch_1/Conv2d_0c_7x1/weights"}, {"dtype": "float32", "shape": [192], "name": "module_apply_default/InceptionResnetV2/InceptionResnetV2/Repeat_1/block17_4/Branch_1/Conv2d_0c_7x1/Conv2D_bn_offset"}, {"dtype": "float32", "shape": [1, 1, 1088, 192], "name": "module/InceptionResnetV2/Repeat_1/block17_5/Branch_0/Conv2d_1x1/weights"}, {"dtype": "float32", "shape": [192], "name": "module_apply_default/InceptionResnetV2/InceptionResnetV2/Repeat_1/block17_5/Branch_0/Conv2d_1x1/Conv2D_bn_offset"}, {"dtype": "float32", "shape": [1, 1, 1088, 128], "name": "module/InceptionResnetV2/Repeat_1/block17_5/Branch_1/Conv2d_0a_1x1/weights"}, {"dtype": "float32", "shape": [128], "name": "module_apply_default/InceptionResnetV2/InceptionResnetV2/Repeat_1/block17_5/Branch_1/Conv2d_0a_1x1/Conv2D_bn_offset"}, {"dtype": "float32", "shape": [1, 7, 128, 160], "name": "module/InceptionResnetV2/Repeat_1/block17_5/Branch_1/Conv2d_0b_1x7/weights"}, {"dtype": "float32", "shape": [160], "name": "module_apply_default/InceptionResnetV2/InceptionResnetV2/Repeat_1/block17_5/Branch_1/Conv2d_0b_1x7/Conv2D_bn_offset"}, {"dtype": "float32", "shape": [7, 1, 160, 192], "name": "module/InceptionResnetV2/Repeat_1/block17_5/Branch_1/Conv2d_0c_7x1/weights"}, {"dtype": "float32", "shape": [192], "name": "module_apply_default/InceptionResnetV2/InceptionResnetV2/Repeat_1/block17_5/Branch_1/Conv2d_0c_7x1/Conv2D_bn_offset"}, {"dtype": "float32", "shape": [1, 1, 1088, 192], "name": "module/InceptionResnetV2/Repeat_1/block17_6/Branch_0/Conv2d_1x1/weights"}, {"dtype": "float32", "shape": [192], "name": "module_apply_default/InceptionResnetV2/InceptionResnetV2/Repeat_1/block17_6/Branch_0/Conv2d_1x1/Conv2D_bn_offset"}, {"dtype": "float32", "shape": [1, 1, 1088, 128], "name": "module/InceptionResnetV2/Repeat_1/block17_6/Branch_1/Conv2d_0a_1x1/weights"}, {"dtype": "float32", "shape": [128], "name": "module_apply_default/InceptionResnetV2/InceptionResnetV2/Repeat_1/block17_6/Branch_1/Conv2d_0a_1x1/Conv2D_bn_offset"}, {"dtype": "float32", "shape": [1, 7, 128, 160], "name": "module/InceptionResnetV2/Repeat_1/block17_6/Branch_1/Conv2d_0b_1x7/weights"}, {"dtype": "float32", "shape": [160], "name": "module_apply_default/InceptionResnetV2/InceptionResnetV2/Repeat_1/block17_6/Branch_1/Conv2d_0b_1x7/Conv2D_bn_offset"}, {"dtype": "float32", "shape": [7, 1, 160, 192], "name": "module/InceptionResnetV2/Repeat_1/block17_6/Branch_1/Conv2d_0c_7x1/weights"}, {"dtype": "float32", "shape": [192], "name": "module_apply_default/InceptionResnetV2/InceptionResnetV2/Repeat_1/block17_6/Branch_1/Conv2d_0c_7x1/Conv2D_bn_offset"}, {"dtype": "float32", "shape": [1, 1, 1088, 192], "name": "module/InceptionResnetV2/Repeat_1/block17_7/Branch_0/Conv2d_1x1/weights"}, {"dtype": "float32", "shape": [192], "name": "module_apply_default/InceptionResnetV2/InceptionResnetV2/Repeat_1/block17_7/Branch_0/Conv2d_1x1/Conv2D_bn_offset"}, {"dtype": "float32", "shape": [1, 1, 1088, 128], "name": "module/InceptionResnetV2/Repeat_1/block17_7/Branch_1/Conv2d_0a_1x1/weights"}, {"dtype": "float32", "shape": [128], "name": "module_apply_default/InceptionResnetV2/InceptionResnetV2/Repeat_1/block17_7/Branch_1/Conv2d_0a_1x1/Conv2D_bn_offset"}, {"dtype": "float32", "shape": [1, 7, 128, 160], "name": "module/InceptionResnetV2/Repeat_1/block17_7/Branch_1/Conv2d_0b_1x7/weights"}, {"dtype": "float32", "shape": [160], "name": "module_apply_default/InceptionResnetV2/InceptionResnetV2/Repeat_1/block17_7/Branch_1/Conv2d_0b_1x7/Conv2D_bn_offset"}, {"dtype": "float32", "shape": [7, 1, 160, 192], "name": "module/InceptionResnetV2/Repeat_1/block17_7/Branch_1/Conv2d_0c_7x1/weights"}, {"dtype": "float32", "shape": [192], "name": "module_apply_default/InceptionResnetV2/InceptionResnetV2/Repeat_1/block17_7/Branch_1/Conv2d_0c_7x1/Conv2D_bn_offset"}, {"dtype": "float32", "shape": [1, 1, 1088, 192], "name": "module/InceptionResnetV2/Repeat_1/block17_8/Branch_0/Conv2d_1x1/weights"}, {"dtype": "float32", "shape": [192], "name": "module_apply_default/InceptionResnetV2/InceptionResnetV2/Repeat_1/block17_8/Branch_0/Conv2d_1x1/Conv2D_bn_offset"}, {"dtype": "float32", "shape": [1, 1, 1088, 128], "name": "module/InceptionResnetV2/Repeat_1/block17_8/Branch_1/Conv2d_0a_1x1/weights"}, {"dtype": "float32", "shape": [128], "name": "module_apply_default/InceptionResnetV2/InceptionResnetV2/Repeat_1/block17_8/Branch_1/Conv2d_0a_1x1/Conv2D_bn_offset"}, {"dtype": "float32", "shape": [1, 7, 128, 160], "name": "module/InceptionResnetV2/Repeat_1/block17_8/Branch_1/Conv2d_0b_1x7/weights"}, {"dtype": "float32", "shape": [160], "name": "module_apply_default/InceptionResnetV2/InceptionResnetV2/Repeat_1/block17_8/Branch_1/Conv2d_0b_1x7/Conv2D_bn_offset"}, {"dtype": "float32", "shape": [7, 1, 160, 192], "name": "module/InceptionResnetV2/Repeat_1/block17_8/Branch_1/Conv2d_0c_7x1/weights"}, {"dtype": "float32", "shape": [192], "name": "module_apply_default/InceptionResnetV2/InceptionResnetV2/Repeat_1/block17_8/Branch_1/Conv2d_0c_7x1/Conv2D_bn_offset"}, {"dtype": "float32", "shape": [1, 1, 1088, 192], "name": "module/InceptionResnetV2/Repeat_1/block17_9/Branch_0/Conv2d_1x1/weights"}, {"dtype": "float32", "shape": [192], "name": "module_apply_default/InceptionResnetV2/InceptionResnetV2/Repeat_1/block17_9/Branch_0/Conv2d_1x1/Conv2D_bn_offset"}, {"dtype": "float32", "shape": [1, 1, 1088, 128], "name": "module/InceptionResnetV2/Repeat_1/block17_9/Branch_1/Conv2d_0a_1x1/weights"}, {"dtype": "float32", "shape": [128], "name": "module_apply_default/InceptionResnetV2/InceptionResnetV2/Repeat_1/block17_9/Branch_1/Conv2d_0a_1x1/Conv2D_bn_offset"}, {"dtype": "float32", "shape": [1, 7, 128, 160], "name": "module/InceptionResnetV2/Repeat_1/block17_9/Branch_1/Conv2d_0b_1x7/weights"}, {"dtype": "float32", "shape": [160], "name": "module_apply_default/InceptionResnetV2/InceptionResnetV2/Repeat_1/block17_9/Branch_1/Conv2d_0b_1x7/Conv2D_bn_offset"}, {"dtype": "float32", "shape": [7, 1, 160, 192], "name": "module/InceptionResnetV2/Repeat_1/block17_9/Branch_1/Conv2d_0c_7x1/weights"}, {"dtype": "float32", "shape": [192], "name": "module_apply_default/InceptionResnetV2/InceptionResnetV2/Repeat_1/block17_9/Branch_1/Conv2d_0c_7x1/Conv2D_bn_offset"}, {"dtype": "float32", "shape": [1, 1, 1088, 192], "name": "module/InceptionResnetV2/Repeat_1/block17_10/Branch_0/Conv2d_1x1/weights"}, {"dtype": "float32", "shape": [192], "name": "module_apply_default/InceptionResnetV2/InceptionResnetV2/Repeat_1/block17_10/Branch_0/Conv2d_1x1/Conv2D_bn_offset"}, {"dtype": "float32", "shape": [1, 1, 1088, 128], "name": "module/InceptionResnetV2/Repeat_1/block17_10/Branch_1/Conv2d_0a_1x1/weights"}, {"dtype": "float32", "shape": [128], "name": "module_apply_default/InceptionResnetV2/InceptionResnetV2/Repeat_1/block17_10/Branch_1/Conv2d_0a_1x1/Conv2D_bn_offset"}, {"dtype": "float32", "shape": [1, 7, 128, 160], "name": "module/InceptionResnetV2/Repeat_1/block17_10/Branch_1/Conv2d_0b_1x7/weights"}, {"dtype": "float32", "shape": [160], "name": "module_apply_default/InceptionResnetV2/InceptionResnetV2/Repeat_1/block17_10/Branch_1/Conv2d_0b_1x7/Conv2D_bn_offset"}, {"dtype": "float32", "shape": [7, 1, 160, 192], "name": "module/InceptionResnetV2/Repeat_1/block17_10/Branch_1/Conv2d_0c_7x1/weights"}, {"dtype": "float32", "shape": [192], "name": "module_apply_default/InceptionResnetV2/InceptionResnetV2/Repeat_1/block17_10/Branch_1/Conv2d_0c_7x1/Conv2D_bn_offset"}, {"dtype": "float32", "shape": [1, 1, 1088, 192], "name": "module/InceptionResnetV2/Repeat_1/block17_11/Branch_0/Conv2d_1x1/weights"}, {"dtype": "float32", "shape": [192], "name": "module_apply_default/InceptionResnetV2/InceptionResnetV2/Repeat_1/block17_11/Branch_0/Conv2d_1x1/Conv2D_bn_offset"}, {"dtype": "float32", "shape": [1, 1, 1088, 128], "name": "module/InceptionResnetV2/Repeat_1/block17_11/Branch_1/Conv2d_0a_1x1/weights"}, {"dtype": "float32", "shape": [128], "name": "module_apply_default/InceptionResnetV2/InceptionResnetV2/Repeat_1/block17_11/Branch_1/Conv2d_0a_1x1/Conv2D_bn_offset"}, {"dtype": "float32", "shape": [1, 7, 128, 160], "name": "module/InceptionResnetV2/Repeat_1/block17_11/Branch_1/Conv2d_0b_1x7/weights"}, {"dtype": "float32", "shape": [160], "name": "module_apply_default/InceptionResnetV2/InceptionResnetV2/Repeat_1/block17_11/Branch_1/Conv2d_0b_1x7/Conv2D_bn_offset"}, {"dtype": "float32", "shape": [7, 1, 160, 192], "name": "module/InceptionResnetV2/Repeat_1/block17_11/Branch_1/Conv2d_0c_7x1/weights"}, {"dtype": "float32", "shape": [192], "name": "module_apply_default/InceptionResnetV2/InceptionResnetV2/Repeat_1/block17_11/Branch_1/Conv2d_0c_7x1/Conv2D_bn_offset"}, {"dtype": "float32", "shape": [1, 1, 1088, 192], "name": "module/InceptionResnetV2/Repeat_1/block17_12/Branch_0/Conv2d_1x1/weights"}, {"dtype": "float32", "shape": [192], "name": "module_apply_default/InceptionResnetV2/InceptionResnetV2/Repeat_1/block17_12/Branch_0/Conv2d_1x1/Conv2D_bn_offset"}, {"dtype": "float32", "shape": [1, 1, 1088, 128], "name": "module/InceptionResnetV2/Repeat_1/block17_12/Branch_1/Conv2d_0a_1x1/weights"}, {"dtype": "float32", "shape": [128], "name": "module_apply_default/InceptionResnetV2/InceptionResnetV2/Repeat_1/block17_12/Branch_1/Conv2d_0a_1x1/Conv2D_bn_offset"}, {"dtype": "float32", "shape": [1, 7, 128, 160], "name": "module/InceptionResnetV2/Repeat_1/block17_12/Branch_1/Conv2d_0b_1x7/weights"}, {"dtype": "float32", "shape": [160], "name": "module_apply_default/InceptionResnetV2/InceptionResnetV2/Repeat_1/block17_12/Branch_1/Conv2d_0b_1x7/Conv2D_bn_offset"}, {"dtype": "float32", "shape": [7, 1, 160, 192], "name": "module/InceptionResnetV2/Repeat_1/block17_12/Branch_1/Conv2d_0c_7x1/weights"}, {"dtype": "float32", "shape": [192], "name": "module_apply_default/InceptionResnetV2/InceptionResnetV2/Repeat_1/block17_12/Branch_1/Conv2d_0c_7x1/Conv2D_bn_offset"}, {"dtype": "float32", "shape": [1, 1, 1088, 192], "name": "module/InceptionResnetV2/Repeat_1/block17_13/Branch_0/Conv2d_1x1/weights"}, {"dtype": "float32", "shape": [192], "name": "module_apply_default/InceptionResnetV2/InceptionResnetV2/Repeat_1/block17_13/Branch_0/Conv2d_1x1/Conv2D_bn_offset"}, {"dtype": "float32", "shape": [1, 1, 1088, 128], "name": "module/InceptionResnetV2/Repeat_1/block17_13/Branch_1/Conv2d_0a_1x1/weights"}, {"dtype": "float32", "shape": [128], "name": "module_apply_default/InceptionResnetV2/InceptionResnetV2/Repeat_1/block17_13/Branch_1/Conv2d_0a_1x1/Conv2D_bn_offset"}, {"dtype": "float32", "shape": [1, 7, 128, 160], "name": "module/InceptionResnetV2/Repeat_1/block17_13/Branch_1/Conv2d_0b_1x7/weights"}, {"dtype": "float32", "shape": [160], "name": "module_apply_default/InceptionResnetV2/InceptionResnetV2/Repeat_1/block17_13/Branch_1/Conv2d_0b_1x7/Conv2D_bn_offset"}, {"dtype": "float32", "shape": [7, 1, 160, 192], "name": "module/InceptionResnetV2/Repeat_1/block17_13/Branch_1/Conv2d_0c_7x1/weights"}, {"dtype": "float32", "shape": [192], "name": "module_apply_default/InceptionResnetV2/InceptionResnetV2/Repeat_1/block17_13/Branch_1/Conv2d_0c_7x1/Conv2D_bn_offset"}, {"dtype": "float32", "shape": [1, 1, 1088, 192], "name": "module/InceptionResnetV2/Repeat_1/block17_14/Branch_0/Conv2d_1x1/weights"}, {"dtype": "float32", "shape": [192], "name": "module_apply_default/InceptionResnetV2/InceptionResnetV2/Repeat_1/block17_14/Branch_0/Conv2d_1x1/Conv2D_bn_offset"}, {"dtype": "float32", "shape": [1, 1, 1088, 128], "name": "module/InceptionResnetV2/Repeat_1/block17_14/Branch_1/Conv2d_0a_1x1/weights"}, {"dtype": "float32", "shape": [128], "name": "module_apply_default/InceptionResnetV2/InceptionResnetV2/Repeat_1/block17_14/Branch_1/Conv2d_0a_1x1/Conv2D_bn_offset"}, {"dtype": "float32", "shape": [1, 7, 128, 160], "name": "module/InceptionResnetV2/Repeat_1/block17_14/Branch_1/Conv2d_0b_1x7/weights"}, {"dtype": "float32", "shape": [160], "name": "module_apply_default/InceptionResnetV2/InceptionResnetV2/Repeat_1/block17_14/Branch_1/Conv2d_0b_1x7/Conv2D_bn_offset"}, {"dtype": "float32", "shape": [7, 1, 160, 192], "name": "module/InceptionResnetV2/Repeat_1/block17_14/Branch_1/Conv2d_0c_7x1/weights"}, {"dtype": "float32", "shape": [192], "name": "module_apply_default/InceptionResnetV2/InceptionResnetV2/Repeat_1/block17_14/Branch_1/Conv2d_0c_7x1/Conv2D_bn_offset"}, {"dtype": "float32", "shape": [1, 1, 1088, 192], "name": "module/InceptionResnetV2/Repeat_1/block17_15/Branch_0/Conv2d_1x1/weights"}, {"dtype": "float32", "shape": [192], "name": "module_apply_default/InceptionResnetV2/InceptionResnetV2/Repeat_1/block17_15/Branch_0/Conv2d_1x1/Conv2D_bn_offset"}, {"dtype": "float32", "shape": [1, 1, 1088, 128], "name": "module/InceptionResnetV2/Repeat_1/block17_15/Branch_1/Conv2d_0a_1x1/weights"}, {"dtype": "float32", "shape": [128], "name": "module_apply_default/InceptionResnetV2/InceptionResnetV2/Repeat_1/block17_15/Branch_1/Conv2d_0a_1x1/Conv2D_bn_offset"}, {"dtype": "float32", "shape": [1, 7, 128, 160], "name": "module/InceptionResnetV2/Repeat_1/block17_15/Branch_1/Conv2d_0b_1x7/weights"}, {"dtype": "float32", "shape": [160], "name": "module_apply_default/InceptionResnetV2/InceptionResnetV2/Repeat_1/block17_15/Branch_1/Conv2d_0b_1x7/Conv2D_bn_offset"}, {"dtype": "float32", "shape": [7, 1, 160, 192], "name": "module/InceptionResnetV2/Repeat_1/block17_15/Branch_1/Conv2d_0c_7x1/weights"}, {"dtype": "float32", "shape": [192], "name": "module_apply_default/InceptionResnetV2/InceptionResnetV2/Repeat_1/block17_15/Branch_1/Conv2d_0c_7x1/Conv2D_bn_offset"}, {"dtype": "float32", "shape": [1, 1, 1088, 192], "name": "module/InceptionResnetV2/Repeat_1/block17_16/Branch_0/Conv2d_1x1/weights"}, {"dtype": "float32", "shape": [192], "name": "module_apply_default/InceptionResnetV2/InceptionResnetV2/Repeat_1/block17_16/Branch_0/Conv2d_1x1/Conv2D_bn_offset"}, {"dtype": "float32", "shape": [1, 1, 1088, 128], "name": "module/InceptionResnetV2/Repeat_1/block17_16/Branch_1/Conv2d_0a_1x1/weights"}, {"dtype": "float32", "shape": [128], "name": "module_apply_default/InceptionResnetV2/InceptionResnetV2/Repeat_1/block17_16/Branch_1/Conv2d_0a_1x1/Conv2D_bn_offset"}, {"dtype": "float32", "shape": [1, 7, 128, 160], "name": "module/InceptionResnetV2/Repeat_1/block17_16/Branch_1/Conv2d_0b_1x7/weights"}, {"dtype": "float32", "shape": [160], "name": "module_apply_default/InceptionResnetV2/InceptionResnetV2/Repeat_1/block17_16/Branch_1/Conv2d_0b_1x7/Conv2D_bn_offset"}, {"dtype": "float32", "shape": [7, 1, 160, 192], "name": "module/InceptionResnetV2/Repeat_1/block17_16/Branch_1/Conv2d_0c_7x1/weights"}, {"dtype": "float32", "shape": [192], "name": "module_apply_default/InceptionResnetV2/InceptionResnetV2/Repeat_1/block17_16/Branch_1/Conv2d_0c_7x1/Conv2D_bn_offset"}, {"dtype": "float32", "shape": [1, 1, 1088, 192], "name": "module/InceptionResnetV2/Repeat_1/block17_17/Branch_0/Conv2d_1x1/weights"}, {"dtype": "float32", "shape": [192], "name": "module_apply_default/InceptionResnetV2/InceptionResnetV2/Repeat_1/block17_17/Branch_0/Conv2d_1x1/Conv2D_bn_offset"}, {"dtype": "float32", "shape": [1, 1, 1088, 128], "name": "module/InceptionResnetV2/Repeat_1/block17_17/Branch_1/Conv2d_0a_1x1/weights"}, {"dtype": "float32", "shape": [128], "name": "module_apply_default/InceptionResnetV2/InceptionResnetV2/Repeat_1/block17_17/Branch_1/Conv2d_0a_1x1/Conv2D_bn_offset"}, {"dtype": "float32", "shape": [1, 7, 128, 160], "name": "module/InceptionResnetV2/Repeat_1/block17_17/Branch_1/Conv2d_0b_1x7/weights"}, {"dtype": "float32", "shape": [160], "name": "module_apply_default/InceptionResnetV2/InceptionResnetV2/Repeat_1/block17_17/Branch_1/Conv2d_0b_1x7/Conv2D_bn_offset"}, {"dtype": "float32", "shape": [7, 1, 160, 192], "name": "module/InceptionResnetV2/Repeat_1/block17_17/Branch_1/Conv2d_0c_7x1/weights"}, {"dtype": "float32", "shape": [192], "name": "module_apply_default/InceptionResnetV2/InceptionResnetV2/Repeat_1/block17_17/Branch_1/Conv2d_0c_7x1/Conv2D_bn_offset"}, {"dtype": "float32", "shape": [1, 1, 1088, 192], "name": "module/InceptionResnetV2/Repeat_1/block17_18/Branch_0/Conv2d_1x1/weights"}, {"dtype": "float32", "shape": [192], "name": "module_apply_default/InceptionResnetV2/InceptionResnetV2/Repeat_1/block17_18/Branch_0/Conv2d_1x1/Conv2D_bn_offset"}, {"dtype": "float32", "shape": [1, 1, 1088, 128], "name": "module/InceptionResnetV2/Repeat_1/block17_18/Branch_1/Conv2d_0a_1x1/weights"}, {"dtype": "float32", "shape": [128], "name": "module_apply_default/InceptionResnetV2/InceptionResnetV2/Repeat_1/block17_18/Branch_1/Conv2d_0a_1x1/Conv2D_bn_offset"}, {"dtype": "float32", "shape": [1, 7, 128, 160], "name": "module/InceptionResnetV2/Repeat_1/block17_18/Branch_1/Conv2d_0b_1x7/weights"}, {"dtype": "float32", "shape": [160], "name": "module_apply_default/InceptionResnetV2/InceptionResnetV2/Repeat_1/block17_18/Branch_1/Conv2d_0b_1x7/Conv2D_bn_offset"}, {"dtype": "float32", "shape": [7, 1, 160, 192], "name": "module/InceptionResnetV2/Repeat_1/block17_18/Branch_1/Conv2d_0c_7x1/weights"}, {"dtype": "float32", "shape": [192], "name": "module_apply_default/InceptionResnetV2/InceptionResnetV2/Repeat_1/block17_18/Branch_1/Conv2d_0c_7x1/Conv2D_bn_offset"}, {"dtype": "float32", "shape": [1, 1, 1088, 192], "name": "module/InceptionResnetV2/Repeat_1/block17_19/Branch_0/Conv2d_1x1/weights"}, {"dtype": "float32", "shape": [192], "name": "module_apply_default/InceptionResnetV2/InceptionResnetV2/Repeat_1/block17_19/Branch_0/Conv2d_1x1/Conv2D_bn_offset"}, {"dtype": "float32", "shape": [1, 1, 1088, 128], "name": "module/InceptionResnetV2/Repeat_1/block17_19/Branch_1/Conv2d_0a_1x1/weights"}, {"dtype": "float32", "shape": [128], "name": "module_apply_default/InceptionResnetV2/InceptionResnetV2/Repeat_1/block17_19/Branch_1/Conv2d_0a_1x1/Conv2D_bn_offset"}, {"dtype": "float32", "shape": [1, 7, 128, 160], "name": "module/InceptionResnetV2/Repeat_1/block17_19/Branch_1/Conv2d_0b_1x7/weights"}, {"dtype": "float32", "shape": [160], "name": "module_apply_default/InceptionResnetV2/InceptionResnetV2/Repeat_1/block17_19/Branch_1/Conv2d_0b_1x7/Conv2D_bn_offset"}, {"dtype": "float32", "shape": [7, 1, 160, 192], "name": "module/InceptionResnetV2/Repeat_1/block17_19/Branch_1/Conv2d_0c_7x1/weights"}, {"dtype": "float32", "shape": [192], "name": "module_apply_default/InceptionResnetV2/InceptionResnetV2/Repeat_1/block17_19/Branch_1/Conv2d_0c_7x1/Conv2D_bn_offset"}, {"dtype": "float32", "shape": [1, 1, 1088, 192], "name": "module/InceptionResnetV2/Repeat_1/block17_20/Branch_0/Conv2d_1x1/weights"}, {"dtype": "float32", "shape": [192], "name": "module_apply_default/InceptionResnetV2/InceptionResnetV2/Repeat_1/block17_20/Branch_0/Conv2d_1x1/Conv2D_bn_offset"}, {"dtype": "float32", "shape": [1, 1, 1088, 128], "name": "module/InceptionResnetV2/Repeat_1/block17_20/Branch_1/Conv2d_0a_1x1/weights"}, {"dtype": "float32", "shape": [128], "name": "module_apply_default/InceptionResnetV2/InceptionResnetV2/Repeat_1/block17_20/Branch_1/Conv2d_0a_1x1/Conv2D_bn_offset"}, {"dtype": "float32", "shape": [1, 7, 128, 160], "name": "module/InceptionResnetV2/Repeat_1/block17_20/Branch_1/Conv2d_0b_1x7/weights"}, {"dtype": "float32", "shape": [160], "name": "module_apply_default/InceptionResnetV2/InceptionResnetV2/Repeat_1/block17_20/Branch_1/Conv2d_0b_1x7/Conv2D_bn_offset"}, {"dtype": "float32", "shape": [7, 1, 160, 192], "name": "module/InceptionResnetV2/Repeat_1/block17_20/Branch_1/Conv2d_0c_7x1/weights"}, {"dtype": "float32", "shape": [192], "name": "module_apply_default/InceptionResnetV2/InceptionResnetV2/Repeat_1/block17_20/Branch_1/Conv2d_0c_7x1/Conv2D_bn_offset"}, {"dtype": "float32", "shape": [1, 1, 1088, 256], "name": "module/InceptionResnetV2/Mixed_7a/Branch_0/Conv2d_0a_1x1/weights"}, {"dtype": "float32", "shape": [256], "name": "module_apply_default/InceptionResnetV2/InceptionResnetV2/Mixed_7a/Branch_0/Conv2d_0a_1x1/Conv2D_bn_offset"}, {"dtype": "float32", "shape": [1, 1, 1088, 256], "name": "module/InceptionResnetV2/Mixed_7a/Branch_1/Conv2d_0a_1x1/weights"}, {"dtype": "float32", "shape": [256], "name": "module_apply_default/InceptionResnetV2/InceptionResnetV2/Mixed_7a/Branch_1/Conv2d_0a_1x1/Conv2D_bn_offset"}, {"dtype": "float32", "shape": [1, 1, 1088, 256], "name": "module/InceptionResnetV2/Mixed_7a/Branch_2/Conv2d_0a_1x1/weights"}, {"dtype": "float32", "shape": [256], "name": "module_apply_default/InceptionResnetV2/InceptionResnetV2/Mixed_7a/Branch_2/Conv2d_0a_1x1/Conv2D_bn_offset"}, {"dtype": "float32", "shape": [3, 3, 256, 384], "name": "module/InceptionResnetV2/Mixed_7a/Branch_0/Conv2d_1a_3x3/weights"}, {"dtype": "float32", "shape": [384], "name": "module_apply_default/InceptionResnetV2/InceptionResnetV2/Mixed_7a/Branch_0/Conv2d_1a_3x3/Conv2D_bn_offset"}, {"dtype": "float32", "shape": [3, 3, 256, 288], "name": "module/InceptionResnetV2/Mixed_7a/Branch_1/Conv2d_1a_3x3/weights"}, {"dtype": "float32", "shape": [288], "name": "module_apply_default/InceptionResnetV2/InceptionResnetV2/Mixed_7a/Branch_1/Conv2d_1a_3x3/Conv2D_bn_offset"}, {"dtype": "float32", "shape": [3, 3, 256, 288], "name": "module/InceptionResnetV2/Mixed_7a/Branch_2/Conv2d_0b_3x3/weights"}, {"dtype": "float32", "shape": [288], "name": "module_apply_default/InceptionResnetV2/InceptionResnetV2/Mixed_7a/Branch_2/Conv2d_0b_3x3/Conv2D_bn_offset"}, {"dtype": "float32", "shape": [3, 3, 288, 320], "name": "module/InceptionResnetV2/Mixed_7a/Branch_2/Conv2d_1a_3x3/weights"}, {"dtype": "float32", "shape": [320], "name": "module_apply_default/InceptionResnetV2/InceptionResnetV2/Mixed_7a/Branch_2/Conv2d_1a_3x3/Conv2D_bn_offset"}, {"dtype": "float32", "shape": [1, 1, 2080, 192], "name": "module/InceptionResnetV2/Repeat_2/block8_1/Branch_0/Conv2d_1x1/weights"}, {"dtype": "float32", "shape": [192], "name": "module_apply_default/InceptionResnetV2/InceptionResnetV2/Repeat_2/block8_1/Branch_0/Conv2d_1x1/Conv2D_bn_offset"}, {"dtype": "float32", "shape": [1, 1, 2080, 192], "name": "module/InceptionResnetV2/Repeat_2/block8_1/Branch_1/Conv2d_0a_1x1/weights"}, {"dtype": "float32", "shape": [192], "name": "module_apply_default/InceptionResnetV2/InceptionResnetV2/Repeat_2/block8_1/Branch_1/Conv2d_0a_1x1/Conv2D_bn_offset"}, {"dtype": "float32", "shape": [1, 3, 192, 224], "name": "module/InceptionResnetV2/Repeat_2/block8_1/Branch_1/Conv2d_0b_1x3/weights"}, {"dtype": "float32", "shape": [224], "name": "module_apply_default/InceptionResnetV2/InceptionResnetV2/Repeat_2/block8_1/Branch_1/Conv2d_0b_1x3/Conv2D_bn_offset"}, {"dtype": "float32", "shape": [3, 1, 224, 256], "name": "module/InceptionResnetV2/Repeat_2/block8_1/Branch_1/Conv2d_0c_3x1/weights"}, {"dtype": "float32", "shape": [256], "name": "module_apply_default/InceptionResnetV2/InceptionResnetV2/Repeat_2/block8_1/Branch_1/Conv2d_0c_3x1/Conv2D_bn_offset"}, {"dtype": "float32", "shape": [1, 1, 2080, 192], "name": "module/InceptionResnetV2/Repeat_2/block8_2/Branch_0/Conv2d_1x1/weights"}, {"dtype": "float32", "shape": [192], "name": "module_apply_default/InceptionResnetV2/InceptionResnetV2/Repeat_2/block8_2/Branch_0/Conv2d_1x1/Conv2D_bn_offset"}, {"dtype": "float32", "shape": [1, 1, 2080, 192], "name": "module/InceptionResnetV2/Repeat_2/block8_2/Branch_1/Conv2d_0a_1x1/weights"}, {"dtype": "float32", "shape": [192], "name": "module_apply_default/InceptionResnetV2/InceptionResnetV2/Repeat_2/block8_2/Branch_1/Conv2d_0a_1x1/Conv2D_bn_offset"}, {"dtype": "float32", "shape": [1, 3, 192, 224], "name": "module/InceptionResnetV2/Repeat_2/block8_2/Branch_1/Conv2d_0b_1x3/weights"}, {"dtype": "float32", "shape": [224], "name": "module_apply_default/InceptionResnetV2/InceptionResnetV2/Repeat_2/block8_2/Branch_1/Conv2d_0b_1x3/Conv2D_bn_offset"}, {"dtype": "float32", "shape": [3, 1, 224, 256], "name": "module/InceptionResnetV2/Repeat_2/block8_2/Branch_1/Conv2d_0c_3x1/weights"}, {"dtype": "float32", "shape": [256], "name": "module_apply_default/InceptionResnetV2/InceptionResnetV2/Repeat_2/block8_2/Branch_1/Conv2d_0c_3x1/Conv2D_bn_offset"}, {"dtype": "float32", "shape": [1, 1, 2080, 192], "name": "module/InceptionResnetV2/Repeat_2/block8_3/Branch_0/Conv2d_1x1/weights"}, {"dtype": "float32", "shape": [192], "name": "module_apply_default/InceptionResnetV2/InceptionResnetV2/Repeat_2/block8_3/Branch_0/Conv2d_1x1/Conv2D_bn_offset"}, {"dtype": "float32", "shape": [1, 1, 2080, 192], "name": "module/InceptionResnetV2/Repeat_2/block8_3/Branch_1/Conv2d_0a_1x1/weights"}, {"dtype": "float32", "shape": [192], "name": "module_apply_default/InceptionResnetV2/InceptionResnetV2/Repeat_2/block8_3/Branch_1/Conv2d_0a_1x1/Conv2D_bn_offset"}, {"dtype": "float32", "shape": [1, 3, 192, 224], "name": "module/InceptionResnetV2/Repeat_2/block8_3/Branch_1/Conv2d_0b_1x3/weights"}, {"dtype": "float32", "shape": [224], "name": "module_apply_default/InceptionResnetV2/InceptionResnetV2/Repeat_2/block8_3/Branch_1/Conv2d_0b_1x3/Conv2D_bn_offset"}, {"dtype": "float32", "shape": [3, 1, 224, 256], "name": "module/InceptionResnetV2/Repeat_2/block8_3/Branch_1/Conv2d_0c_3x1/weights"}, {"dtype": "float32", "shape": [256], "name": "module_apply_default/InceptionResnetV2/InceptionResnetV2/Repeat_2/block8_3/Branch_1/Conv2d_0c_3x1/Conv2D_bn_offset"}, {"dtype": "float32", "shape": [1, 1, 2080, 192], "name": "module/InceptionResnetV2/Repeat_2/block8_4/Branch_0/Conv2d_1x1/weights"}, {"dtype": "float32", "shape": [192], "name": "module_apply_default/InceptionResnetV2/InceptionResnetV2/Repeat_2/block8_4/Branch_0/Conv2d_1x1/Conv2D_bn_offset"}, {"dtype": "float32", "shape": [1, 1, 2080, 192], "name": "module/InceptionResnetV2/Repeat_2/block8_4/Branch_1/Conv2d_0a_1x1/weights"}, {"dtype": "float32", "shape": [192], "name": "module_apply_default/InceptionResnetV2/InceptionResnetV2/Repeat_2/block8_4/Branch_1/Conv2d_0a_1x1/Conv2D_bn_offset"}, {"dtype": "float32", "shape": [1, 3, 192, 224], "name": "module/InceptionResnetV2/Repeat_2/block8_4/Branch_1/Conv2d_0b_1x3/weights"}, {"dtype": "float32", "shape": [224], "name": "module_apply_default/InceptionResnetV2/InceptionResnetV2/Repeat_2/block8_4/Branch_1/Conv2d_0b_1x3/Conv2D_bn_offset"}, {"dtype": "float32", "shape": [3, 1, 224, 256], "name": "module/InceptionResnetV2/Repeat_2/block8_4/Branch_1/Conv2d_0c_3x1/weights"}, {"dtype": "float32", "shape": [256], "name": "module_apply_default/InceptionResnetV2/InceptionResnetV2/Repeat_2/block8_4/Branch_1/Conv2d_0c_3x1/Conv2D_bn_offset"}, {"dtype": "float32", "shape": [1, 1, 2080, 192], "name": "module/InceptionResnetV2/Repeat_2/block8_5/Branch_0/Conv2d_1x1/weights"}, {"dtype": "float32", "shape": [192], "name": "module_apply_default/InceptionResnetV2/InceptionResnetV2/Repeat_2/block8_5/Branch_0/Conv2d_1x1/Conv2D_bn_offset"}, {"dtype": "float32", "shape": [1, 1, 2080, 192], "name": "module/InceptionResnetV2/Repeat_2/block8_5/Branch_1/Conv2d_0a_1x1/weights"}, {"dtype": "float32", "shape": [192], "name": "module_apply_default/InceptionResnetV2/InceptionResnetV2/Repeat_2/block8_5/Branch_1/Conv2d_0a_1x1/Conv2D_bn_offset"}, {"dtype": "float32", "shape": [1, 3, 192, 224], "name": "module/InceptionResnetV2/Repeat_2/block8_5/Branch_1/Conv2d_0b_1x3/weights"}, {"dtype": "float32", "shape": [224], "name": "module_apply_default/InceptionResnetV2/InceptionResnetV2/Repeat_2/block8_5/Branch_1/Conv2d_0b_1x3/Conv2D_bn_offset"}, {"dtype": "float32", "shape": [3, 1, 224, 256], "name": "module/InceptionResnetV2/Repeat_2/block8_5/Branch_1/Conv2d_0c_3x1/weights"}, {"dtype": "float32", "shape": [256], "name": "module_apply_default/InceptionResnetV2/InceptionResnetV2/Repeat_2/block8_5/Branch_1/Conv2d_0c_3x1/Conv2D_bn_offset"}, {"dtype": "float32", "shape": [1, 1, 2080, 192], "name": "module/InceptionResnetV2/Repeat_2/block8_6/Branch_0/Conv2d_1x1/weights"}, {"dtype": "float32", "shape": [192], "name": "module_apply_default/InceptionResnetV2/InceptionResnetV2/Repeat_2/block8_6/Branch_0/Conv2d_1x1/Conv2D_bn_offset"}, {"dtype": "float32", "shape": [1, 1, 2080, 192], "name": "module/InceptionResnetV2/Repeat_2/block8_6/Branch_1/Conv2d_0a_1x1/weights"}, {"dtype": "float32", "shape": [192], "name": "module_apply_default/InceptionResnetV2/InceptionResnetV2/Repeat_2/block8_6/Branch_1/Conv2d_0a_1x1/Conv2D_bn_offset"}, {"dtype": "float32", "shape": [1, 3, 192, 224], "name": "module/InceptionResnetV2/Repeat_2/block8_6/Branch_1/Conv2d_0b_1x3/weights"}, {"dtype": "float32", "shape": [224], "name": "module_apply_default/InceptionResnetV2/InceptionResnetV2/Repeat_2/block8_6/Branch_1/Conv2d_0b_1x3/Conv2D_bn_offset"}, {"dtype": "float32", "shape": [3, 1, 224, 256], "name": "module/InceptionResnetV2/Repeat_2/block8_6/Branch_1/Conv2d_0c_3x1/weights"}, {"dtype": "float32", "shape": [256], "name": "module_apply_default/InceptionResnetV2/InceptionResnetV2/Repeat_2/block8_6/Branch_1/Conv2d_0c_3x1/Conv2D_bn_offset"}, {"dtype": "float32", "shape": [1, 1, 2080, 192], "name": "module/InceptionResnetV2/Repeat_2/block8_7/Branch_0/Conv2d_1x1/weights"}, {"dtype": "float32", "shape": [192], "name": "module_apply_default/InceptionResnetV2/InceptionResnetV2/Repeat_2/block8_7/Branch_0/Conv2d_1x1/Conv2D_bn_offset"}, {"dtype": "float32", "shape": [1, 1, 2080, 192], "name": "module/InceptionResnetV2/Repeat_2/block8_7/Branch_1/Conv2d_0a_1x1/weights"}, {"dtype": "float32", "shape": [192], "name": "module_apply_default/InceptionResnetV2/InceptionResnetV2/Repeat_2/block8_7/Branch_1/Conv2d_0a_1x1/Conv2D_bn_offset"}, {"dtype": "float32", "shape": [1, 3, 192, 224], "name": "module/InceptionResnetV2/Repeat_2/block8_7/Branch_1/Conv2d_0b_1x3/weights"}, {"dtype": "float32", "shape": [224], "name": "module_apply_default/InceptionResnetV2/InceptionResnetV2/Repeat_2/block8_7/Branch_1/Conv2d_0b_1x3/Conv2D_bn_offset"}, {"dtype": "float32", "shape": [3, 1, 224, 256], "name": "module/InceptionResnetV2/Repeat_2/block8_7/Branch_1/Conv2d_0c_3x1/weights"}, {"dtype": "float32", "shape": [256], "name": "module_apply_default/InceptionResnetV2/InceptionResnetV2/Repeat_2/block8_7/Branch_1/Conv2d_0c_3x1/Conv2D_bn_offset"}, {"dtype": "float32", "shape": [1, 1, 2080, 192], "name": "module/InceptionResnetV2/Repeat_2/block8_8/Branch_0/Conv2d_1x1/weights"}, {"dtype": "float32", "shape": [192], "name": "module_apply_default/InceptionResnetV2/InceptionResnetV2/Repeat_2/block8_8/Branch_0/Conv2d_1x1/Conv2D_bn_offset"}, {"dtype": "float32", "shape": [1, 1, 2080, 192], "name": "module/InceptionResnetV2/Repeat_2/block8_8/Branch_1/Conv2d_0a_1x1/weights"}, {"dtype": "float32", "shape": [192], "name": "module_apply_default/InceptionResnetV2/InceptionResnetV2/Repeat_2/block8_8/Branch_1/Conv2d_0a_1x1/Conv2D_bn_offset"}, {"dtype": "float32", "shape": [1, 3, 192, 224], "name": "module/InceptionResnetV2/Repeat_2/block8_8/Branch_1/Conv2d_0b_1x3/weights"}, {"dtype": "float32", "shape": [224], "name": "module_apply_default/InceptionResnetV2/InceptionResnetV2/Repeat_2/block8_8/Branch_1/Conv2d_0b_1x3/Conv2D_bn_offset"}, {"dtype": "float32", "shape": [3, 1, 224, 256], "name": "module/InceptionResnetV2/Repeat_2/block8_8/Branch_1/Conv2d_0c_3x1/weights"}, {"dtype": "float32", "shape": [256], "name": "module_apply_default/InceptionResnetV2/InceptionResnetV2/Repeat_2/block8_8/Branch_1/Conv2d_0c_3x1/Conv2D_bn_offset"}, {"dtype": "float32", "shape": [1, 1, 2080, 192], "name": "module/InceptionResnetV2/Repeat_2/block8_9/Branch_0/Conv2d_1x1/weights"}, {"dtype": "float32", "shape": [192], "name": "module_apply_default/InceptionResnetV2/InceptionResnetV2/Repeat_2/block8_9/Branch_0/Conv2d_1x1/Conv2D_bn_offset"}, {"dtype": "float32", "shape": [1, 1, 2080, 192], "name": "module/InceptionResnetV2/Repeat_2/block8_9/Branch_1/Conv2d_0a_1x1/weights"}, {"dtype": "float32", "shape": [192], "name": "module_apply_default/InceptionResnetV2/InceptionResnetV2/Repeat_2/block8_9/Branch_1/Conv2d_0a_1x1/Conv2D_bn_offset"}, {"dtype": "float32", "shape": [1, 3, 192, 224], "name": "module/InceptionResnetV2/Repeat_2/block8_9/Branch_1/Conv2d_0b_1x3/weights"}, {"dtype": "float32", "shape": [224], "name": "module_apply_default/InceptionResnetV2/InceptionResnetV2/Repeat_2/block8_9/Branch_1/Conv2d_0b_1x3/Conv2D_bn_offset"}, {"dtype": "float32", "shape": [3, 1, 224, 256], "name": "module/InceptionResnetV2/Repeat_2/block8_9/Branch_1/Conv2d_0c_3x1/weights"}, {"dtype": "float32", "shape": [256], "name": "module_apply_default/InceptionResnetV2/InceptionResnetV2/Repeat_2/block8_9/Branch_1/Conv2d_0c_3x1/Conv2D_bn_offset"}, {"dtype": "float32", "shape": [1, 1, 2080, 192], "name": "module/InceptionResnetV2/Block8/Branch_0/Conv2d_1x1/weights"}, {"dtype": "float32", "shape": [192], "name": "module_apply_default/InceptionResnetV2/InceptionResnetV2/Block8/Branch_0/Conv2d_1x1/Conv2D_bn_offset"}, {"dtype": "float32", "shape": [1, 1, 2080, 192], "name": "module/InceptionResnetV2/Block8/Branch_1/Conv2d_0a_1x1/weights"}, {"dtype": "float32", "shape": [192], "name": "module_apply_default/InceptionResnetV2/InceptionResnetV2/Block8/Branch_1/Conv2d_0a_1x1/Conv2D_bn_offset"}, {"dtype": "float32", "shape": [1, 3, 192, 224], "name": "module/InceptionResnetV2/Block8/Branch_1/Conv2d_0b_1x3/weights"}, {"dtype": "float32", "shape": [224], "name": "module_apply_default/InceptionResnetV2/InceptionResnetV2/Block8/Branch_1/Conv2d_0b_1x3/Conv2D_bn_offset"}, {"dtype": "float32", "shape": [3, 1, 224, 256], "name": "module/InceptionResnetV2/Block8/Branch_1/Conv2d_0c_3x1/weights"}, {"dtype": "float32", "shape": [256], "name": "module_apply_default/InceptionResnetV2/InceptionResnetV2/Block8/Branch_1/Conv2d_0c_3x1/Conv2D_bn_offset"}, {"dtype": "float32", "shape": [1, 1, 2080, 1536], "name": "module/InceptionResnetV2/Conv2d_7b_1x1/weights"}, {"dtype": "float32", "shape": [1536], "name": "module_apply_default/InceptionResnetV2/InceptionResnetV2/Conv2d_7b_1x1/Conv2D_bn_offset"}]}], "modelTopology": {"node": [{"attr": {"dtype": {"type": "DT_FLOAT"}, "value": {"tensor": {"dtype": "DT_FLOAT", "tensorShape": {"dim": [{"size": "1"}, {"size": "1"}, {"size": "448"}, {"size": "2080"}]}}}}, "name": "module/InceptionResnetV2/Block8/Conv2d_1x1/weights", "op": "Const"}, {"attr": {"dtype": {"type": "DT_FLOAT"}, "value": {"tensor": {"dtype": "DT_FLOAT", "tensorShape": {"dim": [{"size": "2080"}]}}}}, "name": "module/InceptionResnetV2/Block8/Conv2d_1x1/biases", "op": "Const"}, {"attr": {"dtype": {"type": "DT_FLOAT"}, "value": {"tensor": {"dtype": "DT_FLOAT", "tensorShape": {"dim": [{"size": "1"}, {"size": "1"}, {"size": "384"}, {"size": "1088"}]}}}}, "name": "module/InceptionResnetV2/Repeat_1/block17_10/Conv2d_1x1/weights", "op": "Const"}, {"attr": {"dtype": {"type": "DT_FLOAT"}, "value": {"tensor": {"dtype": "DT_FLOAT", "tensorShape": {"dim": [{"size": "1088"}]}}}}, "name": "module/InceptionResnetV2/Repeat_1/block17_10/Conv2d_1x1/biases", "op": "Const"}, {"attr": {"dtype": {"type": "DT_FLOAT"}, "value": {"tensor": {"dtype": "DT_FLOAT", "tensorShape": {"dim": [{"size": "1"}, {"size": "1"}, {"size": "128"}, {"size": "320"}]}}}}, "name": "module/InceptionResnetV2/Repeat/block35_10/Conv2d_1x1/weights", "op": "Const"}, {"attr": {"dtype": {"type": "DT_FLOAT"}, "value": {"tensor": {"dtype": "DT_FLOAT", "tensorShape": {"dim": [{"size": "320"}]}}}}, "name": "module/InceptionResnetV2/Repeat/block35_10/Conv2d_1x1/biases", "op": "Const"}, {"attr": {"dtype": {"type": "DT_FLOAT"}, "shape": {"shape": {"dim": [{"size": "-1"}, {"size": "-1"}, {"size": "-1"}, {"size": "3"}]}}}, "name": "images", "op": "Placeholder"}, {"attr": {"dtype": {"type": "DT_FLOAT"}, "value": {"tensor": {"dtype": "DT_FLOAT", "tensorShape": {}}}}, "name": "module_apply_default/hub_input/Mul/y", "op": "Const"}, {"attr": {"dtype": {"type": "DT_FLOAT"}, "value": {"tensor": {"dtype": "DT_FLOAT", "tensorShape": {}}}}, "name": "module_apply_default/hub_input/Sub/y", "op": "Const"}, {"attr": {"dtype": {"type": "DT_FLOAT"}, "value": {"tensor": {"dtype": "DT_FLOAT", "tensorShape": {"dim": [{"size": "1"}, {"size": "1"}, {"size": "128"}, {"size": "320"}]}}}}, "name": "module/InceptionResnetV2/Repeat/block35_1/Conv2d_1x1/weights", "op": "Const"}, {"attr": {"dtype": {"type": "DT_FLOAT"}, "value": {"tensor": {"dtype": "DT_FLOAT", "tensorShape": {"dim": [{"size": "320"}]}}}}, "name": "module/InceptionResnetV2/Repeat/block35_1/Conv2d_1x1/biases", "op": "Const"}, {"attr": {"dtype": {"type": "DT_FLOAT"}, "value": {"tensor": {"dtype": "DT_FLOAT", "tensorShape": {}}}}, "name": "module_apply_default/InceptionResnetV2/InceptionResnetV2/Repeat/block35_1/mul/y", "op": "Const"}, {"attr": {"dtype": {"type": "DT_FLOAT"}, "value": {"tensor": {"dtype": "DT_FLOAT", "tensorShape": {"dim": [{"size": "1"}, {"size": "1"}, {"size": "128"}, {"size": "320"}]}}}}, "name": "module/InceptionResnetV2/Repeat/block35_2/Conv2d_1x1/weights", "op": "Const"}, {"attr": {"dtype": {"type": "DT_FLOAT"}, "value": {"tensor": {"dtype": "DT_FLOAT", "tensorShape": {"dim": [{"size": "320"}]}}}}, "name": "module/InceptionResnetV2/Repeat/block35_2/Conv2d_1x1/biases", "op": "Const"}, {"attr": {"dtype": {"type": "DT_FLOAT"}, "value": {"tensor": {"dtype": "DT_FLOAT", "tensorShape": {"dim": [{"size": "1"}, {"size": "1"}, {"size": "128"}, {"size": "320"}]}}}}, "name": "module/InceptionResnetV2/Repeat/block35_3/Conv2d_1x1/weights", "op": "Const"}, {"attr": {"dtype": {"type": "DT_FLOAT"}, "value": {"tensor": {"dtype": "DT_FLOAT", "tensorShape": {"dim": [{"size": "320"}]}}}}, "name": "module/InceptionResnetV2/Repeat/block35_3/Conv2d_1x1/biases", "op": "Const"}, {"attr": {"dtype": {"type": "DT_FLOAT"}, "value": {"tensor": {"dtype": "DT_FLOAT", "tensorShape": {"dim": [{"size": "1"}, {"size": "1"}, {"size": "128"}, {"size": "320"}]}}}}, "name": "module/InceptionResnetV2/Repeat/block35_4/Conv2d_1x1/weights", "op": "Const"}, {"attr": {"dtype": {"type": "DT_FLOAT"}, "value": {"tensor": {"dtype": "DT_FLOAT", "tensorShape": {"dim": [{"size": "320"}]}}}}, "name": "module/InceptionResnetV2/Repeat/block35_4/Conv2d_1x1/biases", "op": "Const"}, {"attr": {"dtype": {"type": "DT_FLOAT"}, "value": {"tensor": {"dtype": "DT_FLOAT", "tensorShape": {"dim": [{"size": "1"}, {"size": "1"}, {"size": "128"}, {"size": "320"}]}}}}, "name": "module/InceptionResnetV2/Repeat/block35_5/Conv2d_1x1/weights", "op": "Const"}, {"attr": {"dtype": {"type": "DT_FLOAT"}, "value": {"tensor": {"dtype": "DT_FLOAT", "tensorShape": {"dim": [{"size": "320"}]}}}}, "name": "module/InceptionResnetV2/Repeat/block35_5/Conv2d_1x1/biases", "op": "Const"}, {"attr": {"dtype": {"type": "DT_FLOAT"}, "value": {"tensor": {"dtype": "DT_FLOAT", "tensorShape": {"dim": [{"size": "1"}, {"size": "1"}, {"size": "128"}, {"size": "320"}]}}}}, "name": "module/InceptionResnetV2/Repeat/block35_6/Conv2d_1x1/weights", "op": "Const"}, {"attr": {"dtype": {"type": "DT_FLOAT"}, "value": {"tensor": {"dtype": "DT_FLOAT", "tensorShape": {"dim": [{"size": "320"}]}}}}, "name": "module/InceptionResnetV2/Repeat/block35_6/Conv2d_1x1/biases", "op": "Const"}, {"attr": {"dtype": {"type": "DT_FLOAT"}, "value": {"tensor": {"dtype": "DT_FLOAT", "tensorShape": {"dim": [{"size": "1"}, {"size": "1"}, {"size": "128"}, {"size": "320"}]}}}}, "name": "module/InceptionResnetV2/Repeat/block35_7/Conv2d_1x1/weights", "op": "Const"}, {"attr": {"dtype": {"type": "DT_FLOAT"}, "value": {"tensor": {"dtype": "DT_FLOAT", "tensorShape": {"dim": [{"size": "320"}]}}}}, "name": "module/InceptionResnetV2/Repeat/block35_7/Conv2d_1x1/biases", "op": "Const"}, {"attr": {"dtype": {"type": "DT_FLOAT"}, "value": {"tensor": {"dtype": "DT_FLOAT", "tensorShape": {"dim": [{"size": "1"}, {"size": "1"}, {"size": "128"}, {"size": "320"}]}}}}, "name": "module/InceptionResnetV2/Repeat/block35_8/Conv2d_1x1/weights", "op": "Const"}, {"attr": {"dtype": {"type": "DT_FLOAT"}, "value": {"tensor": {"dtype": "DT_FLOAT", "tensorShape": {"dim": [{"size": "320"}]}}}}, "name": "module/InceptionResnetV2/Repeat/block35_8/Conv2d_1x1/biases", "op": "Const"}, {"attr": {"dtype": {"type": "DT_FLOAT"}, "value": {"tensor": {"dtype": "DT_FLOAT", "tensorShape": {"dim": [{"size": "1"}, {"size": "1"}, {"size": "128"}, {"size": "320"}]}}}}, "name": "module/InceptionResnetV2/Repeat/block35_9/Conv2d_1x1/weights", "op": "Const"}, {"attr": {"dtype": {"type": "DT_FLOAT"}, "value": {"tensor": {"dtype": "DT_FLOAT", "tensorShape": {"dim": [{"size": "320"}]}}}}, "name": "module/InceptionResnetV2/Repeat/block35_9/Conv2d_1x1/biases", "op": "Const"}, {"attr": {"dtype": {"type": "DT_FLOAT"}, "value": {"tensor": {"dtype": "DT_FLOAT", "tensorShape": {"dim": [{"size": "1"}, {"size": "1"}, {"size": "384"}, {"size": "1088"}]}}}}, "name": "module/InceptionResnetV2/Repeat_1/block17_1/Conv2d_1x1/weights", "op": "Const"}, {"attr": {"dtype": {"type": "DT_FLOAT"}, "value": {"tensor": {"dtype": "DT_FLOAT", "tensorShape": {"dim": [{"size": "1088"}]}}}}, "name": "module/InceptionResnetV2/Repeat_1/block17_1/Conv2d_1x1/biases", "op": "Const"}, {"attr": {"dtype": {"type": "DT_FLOAT"}, "value": {"tensor": {"dtype": "DT_FLOAT", "tensorShape": {}}}}, "name": "module_apply_default/InceptionResnetV2/InceptionResnetV2/Repeat_1/block17_1/mul/y", "op": "Const"}, {"attr": {"dtype": {"type": "DT_FLOAT"}, "value": {"tensor": {"dtype": "DT_FLOAT", "tensorShape": {"dim": [{"size": "1"}, {"size": "1"}, {"size": "384"}, {"size": "1088"}]}}}}, "name": "module/InceptionResnetV2/Repeat_1/block17_2/Conv2d_1x1/weights", "op": "Const"}, {"attr": {"dtype": {"type": "DT_FLOAT"}, "value": {"tensor": {"dtype": "DT_FLOAT", "tensorShape": {"dim": [{"size": "1088"}]}}}}, "name": "module/InceptionResnetV2/Repeat_1/block17_2/Conv2d_1x1/biases", "op": "Const"}, {"attr": {"dtype": {"type": "DT_FLOAT"}, "value": {"tensor": {"dtype": "DT_FLOAT", "tensorShape": {"dim": [{"size": "1"}, {"size": "1"}, {"size": "384"}, {"size": "1088"}]}}}}, "name": "module/InceptionResnetV2/Repeat_1/block17_3/Conv2d_1x1/weights", "op": "Const"}, {"attr": {"dtype": {"type": "DT_FLOAT"}, "value": {"tensor": {"dtype": "DT_FLOAT", "tensorShape": {"dim": [{"size": "1088"}]}}}}, "name": "module/InceptionResnetV2/Repeat_1/block17_3/Conv2d_1x1/biases", "op": "Const"}, {"attr": {"dtype": {"type": "DT_FLOAT"}, "value": {"tensor": {"dtype": "DT_FLOAT", "tensorShape": {"dim": [{"size": "1"}, {"size": "1"}, {"size": "384"}, {"size": "1088"}]}}}}, "name": "module/InceptionResnetV2/Repeat_1/block17_4/Conv2d_1x1/weights", "op": "Const"}, {"attr": {"dtype": {"type": "DT_FLOAT"}, "value": {"tensor": {"dtype": "DT_FLOAT", "tensorShape": {"dim": [{"size": "1088"}]}}}}, "name": "module/InceptionResnetV2/Repeat_1/block17_4/Conv2d_1x1/biases", "op": "Const"}, {"attr": {"dtype": {"type": "DT_FLOAT"}, "value": {"tensor": {"dtype": "DT_FLOAT", "tensorShape": {"dim": [{"size": "1"}, {"size": "1"}, {"size": "384"}, {"size": "1088"}]}}}}, "name": "module/InceptionResnetV2/Repeat_1/block17_5/Conv2d_1x1/weights", "op": "Const"}, {"attr": {"dtype": {"type": "DT_FLOAT"}, "value": {"tensor": {"dtype": "DT_FLOAT", "tensorShape": {"dim": [{"size": "1088"}]}}}}, "name": "module/InceptionResnetV2/Repeat_1/block17_5/Conv2d_1x1/biases", "op": "Const"}, {"attr": {"dtype": {"type": "DT_FLOAT"}, "value": {"tensor": {"dtype": "DT_FLOAT", "tensorShape": {"dim": [{"size": "1"}, {"size": "1"}, {"size": "384"}, {"size": "1088"}]}}}}, "name": "module/InceptionResnetV2/Repeat_1/block17_6/Conv2d_1x1/weights", "op": "Const"}, {"attr": {"dtype": {"type": "DT_FLOAT"}, "value": {"tensor": {"dtype": "DT_FLOAT", "tensorShape": {"dim": [{"size": "1088"}]}}}}, "name": "module/InceptionResnetV2/Repeat_1/block17_6/Conv2d_1x1/biases", "op": "Const"}, {"attr": {"dtype": {"type": "DT_FLOAT"}, "value": {"tensor": {"dtype": "DT_FLOAT", "tensorShape": {"dim": [{"size": "1"}, {"size": "1"}, {"size": "384"}, {"size": "1088"}]}}}}, "name": "module/InceptionResnetV2/Repeat_1/block17_7/Conv2d_1x1/weights", "op": "Const"}, {"attr": {"dtype": {"type": "DT_FLOAT"}, "value": {"tensor": {"dtype": "DT_FLOAT", "tensorShape": {"dim": [{"size": "1088"}]}}}}, "name": "module/InceptionResnetV2/Repeat_1/block17_7/Conv2d_1x1/biases", "op": "Const"}, {"attr": {"dtype": {"type": "DT_FLOAT"}, "value": {"tensor": {"dtype": "DT_FLOAT", "tensorShape": {"dim": [{"size": "1"}, {"size": "1"}, {"size": "384"}, {"size": "1088"}]}}}}, "name": "module/InceptionResnetV2/Repeat_1/block17_8/Conv2d_1x1/weights", "op": "Const"}, {"attr": {"dtype": {"type": "DT_FLOAT"}, "value": {"tensor": {"dtype": "DT_FLOAT", "tensorShape": {"dim": [{"size": "1088"}]}}}}, "name": "module/InceptionResnetV2/Repeat_1/block17_8/Conv2d_1x1/biases", "op": "Const"}, {"attr": {"dtype": {"type": "DT_FLOAT"}, "value": {"tensor": {"dtype": "DT_FLOAT", "tensorShape": {"dim": [{"size": "1"}, {"size": "1"}, {"size": "384"}, {"size": "1088"}]}}}}, "name": "module/InceptionResnetV2/Repeat_1/block17_9/Conv2d_1x1/weights", "op": "Const"}, {"attr": {"dtype": {"type": "DT_FLOAT"}, "value": {"tensor": {"dtype": "DT_FLOAT", "tensorShape": {"dim": [{"size": "1088"}]}}}}, "name": "module/InceptionResnetV2/Repeat_1/block17_9/Conv2d_1x1/biases", "op": "Const"}, {"attr": {"dtype": {"type": "DT_FLOAT"}, "value": {"tensor": {"dtype": "DT_FLOAT", "tensorShape": {"dim": [{"size": "1"}, {"size": "1"}, {"size": "384"}, {"size": "1088"}]}}}}, "name": "module/InceptionResnetV2/Repeat_1/block17_11/Conv2d_1x1/weights", "op": "Const"}, {"attr": {"dtype": {"type": "DT_FLOAT"}, "value": {"tensor": {"dtype": "DT_FLOAT", "tensorShape": {"dim": [{"size": "1088"}]}}}}, "name": "module/InceptionResnetV2/Repeat_1/block17_11/Conv2d_1x1/biases", "op": "Const"}, {"attr": {"dtype": {"type": "DT_FLOAT"}, "value": {"tensor": {"dtype": "DT_FLOAT", "tensorShape": {"dim": [{"size": "1"}, {"size": "1"}, {"size": "384"}, {"size": "1088"}]}}}}, "name": "module/InceptionResnetV2/Repeat_1/block17_12/Conv2d_1x1/weights", "op": "Const"}, {"attr": {"dtype": {"type": "DT_FLOAT"}, "value": {"tensor": {"dtype": "DT_FLOAT", "tensorShape": {"dim": [{"size": "1088"}]}}}}, "name": "module/InceptionResnetV2/Repeat_1/block17_12/Conv2d_1x1/biases", "op": "Const"}, {"attr": {"dtype": {"type": "DT_FLOAT"}, "value": {"tensor": {"dtype": "DT_FLOAT", "tensorShape": {"dim": [{"size": "1"}, {"size": "1"}, {"size": "384"}, {"size": "1088"}]}}}}, "name": "module/InceptionResnetV2/Repeat_1/block17_13/Conv2d_1x1/weights", "op": "Const"}, {"attr": {"dtype": {"type": "DT_FLOAT"}, "value": {"tensor": {"dtype": "DT_FLOAT", "tensorShape": {"dim": [{"size": "1088"}]}}}}, "name": "module/InceptionResnetV2/Repeat_1/block17_13/Conv2d_1x1/biases", "op": "Const"}, {"attr": {"dtype": {"type": "DT_FLOAT"}, "value": {"tensor": {"dtype": "DT_FLOAT", "tensorShape": {"dim": [{"size": "1"}, {"size": "1"}, {"size": "384"}, {"size": "1088"}]}}}}, "name": "module/InceptionResnetV2/Repeat_1/block17_14/Conv2d_1x1/weights", "op": "Const"}, {"attr": {"dtype": {"type": "DT_FLOAT"}, "value": {"tensor": {"dtype": "DT_FLOAT", "tensorShape": {"dim": [{"size": "1088"}]}}}}, "name": "module/InceptionResnetV2/Repeat_1/block17_14/Conv2d_1x1/biases", "op": "Const"}, {"attr": {"dtype": {"type": "DT_FLOAT"}, "value": {"tensor": {"dtype": "DT_FLOAT", "tensorShape": {"dim": [{"size": "1"}, {"size": "1"}, {"size": "384"}, {"size": "1088"}]}}}}, "name": "module/InceptionResnetV2/Repeat_1/block17_15/Conv2d_1x1/weights", "op": "Const"}, {"attr": {"dtype": {"type": "DT_FLOAT"}, "value": {"tensor": {"dtype": "DT_FLOAT", "tensorShape": {"dim": [{"size": "1088"}]}}}}, "name": "module/InceptionResnetV2/Repeat_1/block17_15/Conv2d_1x1/biases", "op": "Const"}, {"attr": {"dtype": {"type": "DT_FLOAT"}, "value": {"tensor": {"dtype": "DT_FLOAT", "tensorShape": {"dim": [{"size": "1"}, {"size": "1"}, {"size": "384"}, {"size": "1088"}]}}}}, "name": "module/InceptionResnetV2/Repeat_1/block17_16/Conv2d_1x1/weights", "op": "Const"}, {"attr": {"dtype": {"type": "DT_FLOAT"}, "value": {"tensor": {"dtype": "DT_FLOAT", "tensorShape": {"dim": [{"size": "1088"}]}}}}, "name": "module/InceptionResnetV2/Repeat_1/block17_16/Conv2d_1x1/biases", "op": "Const"}, {"attr": {"dtype": {"type": "DT_FLOAT"}, "value": {"tensor": {"dtype": "DT_FLOAT", "tensorShape": {"dim": [{"size": "1"}, {"size": "1"}, {"size": "384"}, {"size": "1088"}]}}}}, "name": "module/InceptionResnetV2/Repeat_1/block17_17/Conv2d_1x1/weights", "op": "Const"}, {"attr": {"dtype": {"type": "DT_FLOAT"}, "value": {"tensor": {"dtype": "DT_FLOAT", "tensorShape": {"dim": [{"size": "1088"}]}}}}, "name": "module/InceptionResnetV2/Repeat_1/block17_17/Conv2d_1x1/biases", "op": "Const"}, {"attr": {"dtype": {"type": "DT_FLOAT"}, "value": {"tensor": {"dtype": "DT_FLOAT", "tensorShape": {"dim": [{"size": "1"}, {"size": "1"}, {"size": "384"}, {"size": "1088"}]}}}}, "name": "module/InceptionResnetV2/Repeat_1/block17_18/Conv2d_1x1/weights", "op": "Const"}, {"attr": {"dtype": {"type": "DT_FLOAT"}, "value": {"tensor": {"dtype": "DT_FLOAT", "tensorShape": {"dim": [{"size": "1088"}]}}}}, "name": "module/InceptionResnetV2/Repeat_1/block17_18/Conv2d_1x1/biases", "op": "Const"}, {"attr": {"dtype": {"type": "DT_FLOAT"}, "value": {"tensor": {"dtype": "DT_FLOAT", "tensorShape": {"dim": [{"size": "1"}, {"size": "1"}, {"size": "384"}, {"size": "1088"}]}}}}, "name": "module/InceptionResnetV2/Repeat_1/block17_19/Conv2d_1x1/weights", "op": "Const"}, {"attr": {"dtype": {"type": "DT_FLOAT"}, "value": {"tensor": {"dtype": "DT_FLOAT", "tensorShape": {"dim": [{"size": "1088"}]}}}}, "name": "module/InceptionResnetV2/Repeat_1/block17_19/Conv2d_1x1/biases", "op": "Const"}, {"attr": {"dtype": {"type": "DT_FLOAT"}, "value": {"tensor": {"dtype": "DT_FLOAT", "tensorShape": {"dim": [{"size": "1"}, {"size": "1"}, {"size": "384"}, {"size": "1088"}]}}}}, "name": "module/InceptionResnetV2/Repeat_1/block17_20/Conv2d_1x1/weights", "op": "Const"}, {"attr": {"dtype": {"type": "DT_FLOAT"}, "value": {"tensor": {"dtype": "DT_FLOAT", "tensorShape": {"dim": [{"size": "1088"}]}}}}, "name": "module/InceptionResnetV2/Repeat_1/block17_20/Conv2d_1x1/biases", "op": "Const"}, {"attr": {"dtype": {"type": "DT_FLOAT"}, "value": {"tensor": {"dtype": "DT_FLOAT", "tensorShape": {"dim": [{"size": "1"}, {"size": "1"}, {"size": "448"}, {"size": "2080"}]}}}}, "name": "module/InceptionResnetV2/Repeat_2/block8_1/Conv2d_1x1/weights", "op": "Const"}, {"attr": {"dtype": {"type": "DT_FLOAT"}, "value": {"tensor": {"dtype": "DT_FLOAT", "tensorShape": {"dim": [{"size": "2080"}]}}}}, "name": "module/InceptionResnetV2/Repeat_2/block8_1/Conv2d_1x1/biases", "op": "Const"}, {"attr": {"dtype": {"type": "DT_FLOAT"}, "value": {"tensor": {"dtype": "DT_FLOAT", "tensorShape": {}}}}, "name": "module_apply_default/InceptionResnetV2/InceptionResnetV2/Repeat_2/block8_1/mul/y", "op": "Const"}, {"attr": {"dtype": {"type": "DT_FLOAT"}, "value": {"tensor": {"dtype": "DT_FLOAT", "tensorShape": {"dim": [{"size": "1"}, {"size": "1"}, {"size": "448"}, {"size": "2080"}]}}}}, "name": "module/InceptionResnetV2/Repeat_2/block8_2/Conv2d_1x1/weights", "op": "Const"}, {"attr": {"dtype": {"type": "DT_FLOAT"}, "value": {"tensor": {"dtype": "DT_FLOAT", "tensorShape": {"dim": [{"size": "2080"}]}}}}, "name": "module/InceptionResnetV2/Repeat_2/block8_2/Conv2d_1x1/biases", "op": "Const"}, {"attr": {"dtype": {"type": "DT_FLOAT"}, "value": {"tensor": {"dtype": "DT_FLOAT", "tensorShape": {"dim": [{"size": "1"}, {"size": "1"}, {"size": "448"}, {"size": "2080"}]}}}}, "name": "module/InceptionResnetV2/Repeat_2/block8_3/Conv2d_1x1/weights", "op": "Const"}, {"attr": {"dtype": {"type": "DT_FLOAT"}, "value": {"tensor": {"dtype": "DT_FLOAT", "tensorShape": {"dim": [{"size": "2080"}]}}}}, "name": "module/InceptionResnetV2/Repeat_2/block8_3/Conv2d_1x1/biases", "op": "Const"}, {"attr": {"dtype": {"type": "DT_FLOAT"}, "value": {"tensor": {"dtype": "DT_FLOAT", "tensorShape": {"dim": [{"size": "1"}, {"size": "1"}, {"size": "448"}, {"size": "2080"}]}}}}, "name": "module/InceptionResnetV2/Repeat_2/block8_4/Conv2d_1x1/weights", "op": "Const"}, {"attr": {"dtype": {"type": "DT_FLOAT"}, "value": {"tensor": {"dtype": "DT_FLOAT", "tensorShape": {"dim": [{"size": "2080"}]}}}}, "name": "module/InceptionResnetV2/Repeat_2/block8_4/Conv2d_1x1/biases", "op": "Const"}, {"attr": {"dtype": {"type": "DT_FLOAT"}, "value": {"tensor": {"dtype": "DT_FLOAT", "tensorShape": {"dim": [{"size": "1"}, {"size": "1"}, {"size": "448"}, {"size": "2080"}]}}}}, "name": "module/InceptionResnetV2/Repeat_2/block8_5/Conv2d_1x1/weights", "op": "Const"}, {"attr": {"dtype": {"type": "DT_FLOAT"}, "value": {"tensor": {"dtype": "DT_FLOAT", "tensorShape": {"dim": [{"size": "2080"}]}}}}, "name": "module/InceptionResnetV2/Repeat_2/block8_5/Conv2d_1x1/biases", "op": "Const"}, {"attr": {"dtype": {"type": "DT_FLOAT"}, "value": {"tensor": {"dtype": "DT_FLOAT", "tensorShape": {"dim": [{"size": "1"}, {"size": "1"}, {"size": "448"}, {"size": "2080"}]}}}}, "name": "module/InceptionResnetV2/Repeat_2/block8_6/Conv2d_1x1/weights", "op": "Const"}, {"attr": {"dtype": {"type": "DT_FLOAT"}, "value": {"tensor": {"dtype": "DT_FLOAT", "tensorShape": {"dim": [{"size": "2080"}]}}}}, "name": "module/InceptionResnetV2/Repeat_2/block8_6/Conv2d_1x1/biases", "op": "Const"}, {"attr": {"dtype": {"type": "DT_FLOAT"}, "value": {"tensor": {"dtype": "DT_FLOAT", "tensorShape": {"dim": [{"size": "1"}, {"size": "1"}, {"size": "448"}, {"size": "2080"}]}}}}, "name": "module/InceptionResnetV2/Repeat_2/block8_7/Conv2d_1x1/weights", "op": "Const"}, {"attr": {"dtype": {"type": "DT_FLOAT"}, "value": {"tensor": {"dtype": "DT_FLOAT", "tensorShape": {"dim": [{"size": "2080"}]}}}}, "name": "module/InceptionResnetV2/Repeat_2/block8_7/Conv2d_1x1/biases", "op": "Const"}, {"attr": {"dtype": {"type": "DT_FLOAT"}, "value": {"tensor": {"dtype": "DT_FLOAT", "tensorShape": {"dim": [{"size": "1"}, {"size": "1"}, {"size": "448"}, {"size": "2080"}]}}}}, "name": "module/InceptionResnetV2/Repeat_2/block8_8/Conv2d_1x1/weights", "op": "Const"}, {"attr": {"dtype": {"type": "DT_FLOAT"}, "value": {"tensor": {"dtype": "DT_FLOAT", "tensorShape": {"dim": [{"size": "2080"}]}}}}, "name": "module/InceptionResnetV2/Repeat_2/block8_8/Conv2d_1x1/biases", "op": "Const"}, {"attr": {"dtype": {"type": "DT_INT32"}, "value": {"tensor": {"dtype": "DT_INT32", "tensorShape": {}}}}, "name": "module_apply_default/InceptionResnetV2/InceptionResnetV2/Mixed_5b/concat/axis", "op": "Const"}, {"attr": {"dtype": {"type": "DT_FLOAT"}, "value": {"tensor": {"dtype": "DT_FLOAT", "tensorShape": {"dim": [{"size": "1"}, {"size": "1"}, {"size": "448"}, {"size": "2080"}]}}}}, "name": "module/InceptionResnetV2/Repeat_2/block8_9/Conv2d_1x1/weights", "op": "Const"}, {"attr": {"dtype": {"type": "DT_FLOAT"}, "value": {"tensor": {"dtype": "DT_FLOAT", "tensorShape": {"dim": [{"size": "2080"}]}}}}, "name": "module/InceptionResnetV2/Repeat_2/block8_9/Conv2d_1x1/biases", "op": "Const"}, {"attr": {"dtype": {"type": "DT_INT32"}, "value": {"tensor": {"dtype": "DT_INT32", "tensorShape": {"dim": [{"size": "2"}]}}}}, "name": "module_apply_default/InceptionResnetV2/Logits/global_pool/reduction_indices", "op": "Const"}, {"attr": {"dtype": {"type": "DT_INT32"}, "value": {"tensor": {"dtype": "DT_INT32", "tensorShape": {"dim": [{"size": "1"}]}}}}, "name": "module_apply_default/InceptionResnetV2/Logits/Flatten/flatten/strided_slice/stack", "op": "Const"}, {"attr": {"dtype": {"type": "DT_INT32"}, "value": {"tensor": {"dtype": "DT_INT32", "tensorShape": {"dim": [{"size": "1"}]}}}}, "name": "module_apply_default/InceptionResnetV2/Logits/Flatten/flatten/strided_slice/stack_1", "op": "Const"}, {"attr": {"dtype": {"type": "DT_INT32"}, "value": {"tensor": {"dtype": "DT_INT32", "tensorShape": {}}}}, "name": "module_apply_default/InceptionResnetV2/Logits/Flatten/flatten/Reshape/shape/1", "op": "Const"}, {"attr": {"dtype": {"type": "DT_FLOAT"}, "value": {"tensor": {"dtype": "DT_FLOAT", "tensorShape": {"dim": [{"size": "1536"}, {"size": "1001"}]}}}}, "name": "module/InceptionResnetV2/Logits/Logits/weights", "op": "Const"}, {"attr": {"dtype": {"type": "DT_FLOAT"}, "value": {"tensor": {"dtype": "DT_FLOAT", "tensorShape": {"dim": [{"size": "1001"}]}}}}, "name": "module/InceptionResnetV2/Logits/Logits/biases", "op": "Const"}, {"attr": {"dtype": {"type": "DT_FLOAT"}, "value": {"tensor": {"dtype": "DT_FLOAT", "tensorShape": {"dim": [{"size": "3"}, {"size": "3"}, {"size": "3"}, {"size": "32"}]}}}}, "name": "module/InceptionResnetV2/Conv2d_1a_3x3/weights", "op": "Const"}, {"attr": {"dtype": {"type": "DT_FLOAT"}, "value": {"tensor": {"dtype": "DT_FLOAT", "tensorShape": {"dim": [{"size": "32"}]}}}}, "name": "module_apply_default/InceptionResnetV2/InceptionResnetV2/Conv2d_1a_3x3/Conv2D_bn_offset", "op": "Const"}, {"attr": {"dtype": {"type": "DT_FLOAT"}, "value": {"tensor": {"dtype": "DT_FLOAT", "tensorShape": {"dim": [{"size": "3"}, {"size": "3"}, {"size": "32"}, {"size": "32"}]}}}}, "name": "module/InceptionResnetV2/Conv2d_2a_3x3/weights", "op": "Const"}, {"attr": {"dtype": {"type": "DT_FLOAT"}, "value": {"tensor": {"dtype": "DT_FLOAT", "tensorShape": {"dim": [{"size": "32"}]}}}}, "name": "module_apply_default/InceptionResnetV2/InceptionResnetV2/Conv2d_2a_3x3/Conv2D_bn_offset", "op": "Const"}, {"attr": {"dtype": {"type": "DT_FLOAT"}, "value": {"tensor": {"dtype": "DT_FLOAT", "tensorShape": {"dim": [{"size": "3"}, {"size": "3"}, {"size": "32"}, {"size": "64"}]}}}}, "name": "module/InceptionResnetV2/Conv2d_2b_3x3/weights", "op": "Const"}, {"attr": {"dtype": {"type": "DT_FLOAT"}, "value": {"tensor": {"dtype": "DT_FLOAT", "tensorShape": {"dim": [{"size": "64"}]}}}}, "name": "module_apply_default/InceptionResnetV2/InceptionResnetV2/Conv2d_2b_3x3/Conv2D_bn_offset", "op": "Const"}, {"attr": {"dtype": {"type": "DT_FLOAT"}, "value": {"tensor": {"dtype": "DT_FLOAT", "tensorShape": {"dim": [{"size": "1"}, {"size": "1"}, {"size": "64"}, {"size": "80"}]}}}}, "name": "module/InceptionResnetV2/Conv2d_3b_1x1/weights", "op": "Const"}, {"attr": {"dtype": {"type": "DT_FLOAT"}, "value": {"tensor": {"dtype": "DT_FLOAT", "tensorShape": {"dim": [{"size": "80"}]}}}}, "name": "module_apply_default/InceptionResnetV2/InceptionResnetV2/Conv2d_3b_1x1/Conv2D_bn_offset", "op": "Const"}, {"attr": {"dtype": {"type": "DT_FLOAT"}, "value": {"tensor": {"dtype": "DT_FLOAT", "tensorShape": {"dim": [{"size": "3"}, {"size": "3"}, {"size": "80"}, {"size": "192"}]}}}}, "name": "module/InceptionResnetV2/Conv2d_4a_3x3/weights", "op": "Const"}, {"attr": {"dtype": {"type": "DT_FLOAT"}, "value": {"tensor": {"dtype": "DT_FLOAT", "tensorShape": {"dim": [{"size": "192"}]}}}}, "name": "module_apply_default/InceptionResnetV2/InceptionResnetV2/Conv2d_4a_3x3/Conv2D_bn_offset", "op": "Const"}, {"attr": {"dtype": {"type": "DT_FLOAT"}, "value": {"tensor": {"dtype": "DT_FLOAT", "tensorShape": {"dim": [{"size": "1"}, {"size": "1"}, {"size": "192"}, {"size": "96"}]}}}}, "name": "module/InceptionResnetV2/Mixed_5b/Branch_0/Conv2d_1x1/weights", "op": "Const"}, {"attr": {"dtype": {"type": "DT_FLOAT"}, "value": {"tensor": {"dtype": "DT_FLOAT", "tensorShape": {"dim": [{"size": "96"}]}}}}, "name": "module_apply_default/InceptionResnetV2/InceptionResnetV2/Mixed_5b/Branch_0/Conv2d_1x1/Conv2D_bn_offset", "op": "Const"}, {"attr": {"dtype": {"type": "DT_FLOAT"}, "value": {"tensor": {"dtype": "DT_FLOAT", "tensorShape": {"dim": [{"size": "1"}, {"size": "1"}, {"size": "192"}, {"size": "48"}]}}}}, "name": "module/InceptionResnetV2/Mixed_5b/Branch_1/Conv2d_0a_1x1/weights", "op": "Const"}, {"attr": {"dtype": {"type": "DT_FLOAT"}, "value": {"tensor": {"dtype": "DT_FLOAT", "tensorShape": {"dim": [{"size": "48"}]}}}}, "name": "module_apply_default/InceptionResnetV2/InceptionResnetV2/Mixed_5b/Branch_1/Conv2d_0a_1x1/Conv2D_bn_offset", "op": "Const"}, {"attr": {"dtype": {"type": "DT_FLOAT"}, "value": {"tensor": {"dtype": "DT_FLOAT", "tensorShape": {"dim": [{"size": "1"}, {"size": "1"}, {"size": "192"}, {"size": "64"}]}}}}, "name": "module/InceptionResnetV2/Mixed_5b/Branch_2/Conv2d_0a_1x1/weights", "op": "Const"}, {"attr": {"dtype": {"type": "DT_FLOAT"}, "value": {"tensor": {"dtype": "DT_FLOAT", "tensorShape": {"dim": [{"size": "64"}]}}}}, "name": "module_apply_default/InceptionResnetV2/InceptionResnetV2/Mixed_5b/Branch_2/Conv2d_0a_1x1/Conv2D_bn_offset", "op": "Const"}, {"attr": {"dtype": {"type": "DT_FLOAT"}, "value": {"tensor": {"dtype": "DT_FLOAT", "tensorShape": {"dim": [{"size": "1"}, {"size": "1"}, {"size": "192"}, {"size": "64"}]}}}}, "name": "module/InceptionResnetV2/Mixed_5b/Branch_3/Conv2d_0b_1x1/weights", "op": "Const"}, {"attr": {"dtype": {"type": "DT_FLOAT"}, "value": {"tensor": {"dtype": "DT_FLOAT", "tensorShape": {"dim": [{"size": "64"}]}}}}, "name": "module_apply_default/InceptionResnetV2/InceptionResnetV2/Mixed_5b/Branch_3/Conv2d_0b_1x1/Conv2D_bn_offset", "op": "Const"}, {"attr": {"dtype": {"type": "DT_FLOAT"}, "value": {"tensor": {"dtype": "DT_FLOAT", "tensorShape": {"dim": [{"size": "5"}, {"size": "5"}, {"size": "48"}, {"size": "64"}]}}}}, "name": "module/InceptionResnetV2/Mixed_5b/Branch_1/Conv2d_0b_5x5/weights", "op": "Const"}, {"attr": {"dtype": {"type": "DT_FLOAT"}, "value": {"tensor": {"dtype": "DT_FLOAT", "tensorShape": {"dim": [{"size": "64"}]}}}}, "name": "module_apply_default/InceptionResnetV2/InceptionResnetV2/Mixed_5b/Branch_1/Conv2d_0b_5x5/Conv2D_bn_offset", "op": "Const"}, {"attr": {"dtype": {"type": "DT_FLOAT"}, "value": {"tensor": {"dtype": "DT_FLOAT", "tensorShape": {"dim": [{"size": "3"}, {"size": "3"}, {"size": "64"}, {"size": "96"}]}}}}, "name": "module/InceptionResnetV2/Mixed_5b/Branch_2/Conv2d_0b_3x3/weights", "op": "Const"}, {"attr": {"dtype": {"type": "DT_FLOAT"}, "value": {"tensor": {"dtype": "DT_FLOAT", "tensorShape": {"dim": [{"size": "96"}]}}}}, "name": "module_apply_default/InceptionResnetV2/InceptionResnetV2/Mixed_5b/Branch_2/Conv2d_0b_3x3/Conv2D_bn_offset", "op": "Const"}, {"attr": {"dtype": {"type": "DT_FLOAT"}, "value": {"tensor": {"dtype": "DT_FLOAT", "tensorShape": {"dim": [{"size": "3"}, {"size": "3"}, {"size": "96"}, {"size": "96"}]}}}}, "name": "module/InceptionResnetV2/Mixed_5b/Branch_2/Conv2d_0c_3x3/weights", "op": "Const"}, {"attr": {"dtype": {"type": "DT_FLOAT"}, "value": {"tensor": {"dtype": "DT_FLOAT", "tensorShape": {"dim": [{"size": "96"}]}}}}, "name": "module_apply_default/InceptionResnetV2/InceptionResnetV2/Mixed_5b/Branch_2/Conv2d_0c_3x3/Conv2D_bn_offset", "op": "Const"}, {"attr": {"dtype": {"type": "DT_FLOAT"}, "value": {"tensor": {"dtype": "DT_FLOAT", "tensorShape": {"dim": [{"size": "1"}, {"size": "1"}, {"size": "320"}, {"size": "32"}]}}}}, "name": "module/InceptionResnetV2/Repeat/block35_1/Branch_0/Conv2d_1x1/weights", "op": "Const"}, {"attr": {"dtype": {"type": "DT_FLOAT"}, "value": {"tensor": {"dtype": "DT_FLOAT", "tensorShape": {"dim": [{"size": "32"}]}}}}, "name": "module_apply_default/InceptionResnetV2/InceptionResnetV2/Repeat/block35_1/Branch_0/Conv2d_1x1/Conv2D_bn_offset", "op": "Const"}, {"attr": {"dtype": {"type": "DT_FLOAT"}, "value": {"tensor": {"dtype": "DT_FLOAT", "tensorShape": {"dim": [{"size": "1"}, {"size": "1"}, {"size": "320"}, {"size": "32"}]}}}}, "name": "module/InceptionResnetV2/Repeat/block35_1/Branch_1/Conv2d_0a_1x1/weights", "op": "Const"}, {"attr": {"dtype": {"type": "DT_FLOAT"}, "value": {"tensor": {"dtype": "DT_FLOAT", "tensorShape": {"dim": [{"size": "32"}]}}}}, "name": "module_apply_default/InceptionResnetV2/InceptionResnetV2/Repeat/block35_1/Branch_1/Conv2d_0a_1x1/Conv2D_bn_offset", "op": "Const"}, {"attr": {"dtype": {"type": "DT_FLOAT"}, "value": {"tensor": {"dtype": "DT_FLOAT", "tensorShape": {"dim": [{"size": "1"}, {"size": "1"}, {"size": "320"}, {"size": "32"}]}}}}, "name": "module/InceptionResnetV2/Repeat/block35_1/Branch_2/Conv2d_0a_1x1/weights", "op": "Const"}, {"attr": {"dtype": {"type": "DT_FLOAT"}, "value": {"tensor": {"dtype": "DT_FLOAT", "tensorShape": {"dim": [{"size": "32"}]}}}}, "name": "module_apply_default/InceptionResnetV2/InceptionResnetV2/Repeat/block35_1/Branch_2/Conv2d_0a_1x1/Conv2D_bn_offset", "op": "Const"}, {"attr": {"dtype": {"type": "DT_FLOAT"}, "value": {"tensor": {"dtype": "DT_FLOAT", "tensorShape": {"dim": [{"size": "3"}, {"size": "3"}, {"size": "32"}, {"size": "32"}]}}}}, "name": "module/InceptionResnetV2/Repeat/block35_1/Branch_1/Conv2d_0b_3x3/weights", "op": "Const"}, {"attr": {"dtype": {"type": "DT_FLOAT"}, "value": {"tensor": {"dtype": "DT_FLOAT", "tensorShape": {"dim": [{"size": "32"}]}}}}, "name": "module_apply_default/InceptionResnetV2/InceptionResnetV2/Repeat/block35_1/Branch_1/Conv2d_0b_3x3/Conv2D_bn_offset", "op": "Const"}, {"attr": {"dtype": {"type": "DT_FLOAT"}, "value": {"tensor": {"dtype": "DT_FLOAT", "tensorShape": {"dim": [{"size": "3"}, {"size": "3"}, {"size": "32"}, {"size": "48"}]}}}}, "name": "module/InceptionResnetV2/Repeat/block35_1/Branch_2/Conv2d_0b_3x3/weights", "op": "Const"}, {"attr": {"dtype": {"type": "DT_FLOAT"}, "value": {"tensor": {"dtype": "DT_FLOAT", "tensorShape": {"dim": [{"size": "48"}]}}}}, "name": "module_apply_default/InceptionResnetV2/InceptionResnetV2/Repeat/block35_1/Branch_2/Conv2d_0b_3x3/Conv2D_bn_offset", "op": "Const"}, {"attr": {"dtype": {"type": "DT_FLOAT"}, "value": {"tensor": {"dtype": "DT_FLOAT", "tensorShape": {"dim": [{"size": "3"}, {"size": "3"}, {"size": "48"}, {"size": "64"}]}}}}, "name": "module/InceptionResnetV2/Repeat/block35_1/Branch_2/Conv2d_0c_3x3/weights", "op": "Const"}, {"attr": {"dtype": {"type": "DT_FLOAT"}, "value": {"tensor": {"dtype": "DT_FLOAT", "tensorShape": {"dim": [{"size": "64"}]}}}}, "name": "module_apply_default/InceptionResnetV2/InceptionResnetV2/Repeat/block35_1/Branch_2/Conv2d_0c_3x3/Conv2D_bn_offset", "op": "Const"}, {"attr": {"dtype": {"type": "DT_FLOAT"}, "value": {"tensor": {"dtype": "DT_FLOAT", "tensorShape": {"dim": [{"size": "1"}, {"size": "1"}, {"size": "320"}, {"size": "32"}]}}}}, "name": "module/InceptionResnetV2/Repeat/block35_2/Branch_0/Conv2d_1x1/weights", "op": "Const"}, {"attr": {"dtype": {"type": "DT_FLOAT"}, "value": {"tensor": {"dtype": "DT_FLOAT", "tensorShape": {"dim": [{"size": "32"}]}}}}, "name": "module_apply_default/InceptionResnetV2/InceptionResnetV2/Repeat/block35_2/Branch_0/Conv2d_1x1/Conv2D_bn_offset", "op": "Const"}, {"attr": {"dtype": {"type": "DT_FLOAT"}, "value": {"tensor": {"dtype": "DT_FLOAT", "tensorShape": {"dim": [{"size": "1"}, {"size": "1"}, {"size": "320"}, {"size": "32"}]}}}}, "name": "module/InceptionResnetV2/Repeat/block35_2/Branch_1/Conv2d_0a_1x1/weights", "op": "Const"}, {"attr": {"dtype": {"type": "DT_FLOAT"}, "value": {"tensor": {"dtype": "DT_FLOAT", "tensorShape": {"dim": [{"size": "32"}]}}}}, "name": "module_apply_default/InceptionResnetV2/InceptionResnetV2/Repeat/block35_2/Branch_1/Conv2d_0a_1x1/Conv2D_bn_offset", "op": "Const"}, {"attr": {"dtype": {"type": "DT_FLOAT"}, "value": {"tensor": {"dtype": "DT_FLOAT", "tensorShape": {"dim": [{"size": "1"}, {"size": "1"}, {"size": "320"}, {"size": "32"}]}}}}, "name": "module/InceptionResnetV2/Repeat/block35_2/Branch_2/Conv2d_0a_1x1/weights", "op": "Const"}, {"attr": {"dtype": {"type": "DT_FLOAT"}, "value": {"tensor": {"dtype": "DT_FLOAT", "tensorShape": {"dim": [{"size": "32"}]}}}}, "name": "module_apply_default/InceptionResnetV2/InceptionResnetV2/Repeat/block35_2/Branch_2/Conv2d_0a_1x1/Conv2D_bn_offset", "op": "Const"}, {"attr": {"dtype": {"type": "DT_FLOAT"}, "value": {"tensor": {"dtype": "DT_FLOAT", "tensorShape": {"dim": [{"size": "3"}, {"size": "3"}, {"size": "32"}, {"size": "32"}]}}}}, "name": "module/InceptionResnetV2/Repeat/block35_2/Branch_1/Conv2d_0b_3x3/weights", "op": "Const"}, {"attr": {"dtype": {"type": "DT_FLOAT"}, "value": {"tensor": {"dtype": "DT_FLOAT", "tensorShape": {"dim": [{"size": "32"}]}}}}, "name": "module_apply_default/InceptionResnetV2/InceptionResnetV2/Repeat/block35_2/Branch_1/Conv2d_0b_3x3/Conv2D_bn_offset", "op": "Const"}, {"attr": {"dtype": {"type": "DT_FLOAT"}, "value": {"tensor": {"dtype": "DT_FLOAT", "tensorShape": {"dim": [{"size": "3"}, {"size": "3"}, {"size": "32"}, {"size": "48"}]}}}}, "name": "module/InceptionResnetV2/Repeat/block35_2/Branch_2/Conv2d_0b_3x3/weights", "op": "Const"}, {"attr": {"dtype": {"type": "DT_FLOAT"}, "value": {"tensor": {"dtype": "DT_FLOAT", "tensorShape": {"dim": [{"size": "48"}]}}}}, "name": "module_apply_default/InceptionResnetV2/InceptionResnetV2/Repeat/block35_2/Branch_2/Conv2d_0b_3x3/Conv2D_bn_offset", "op": "Const"}, {"attr": {"dtype": {"type": "DT_FLOAT"}, "value": {"tensor": {"dtype": "DT_FLOAT", "tensorShape": {"dim": [{"size": "3"}, {"size": "3"}, {"size": "48"}, {"size": "64"}]}}}}, "name": "module/InceptionResnetV2/Repeat/block35_2/Branch_2/Conv2d_0c_3x3/weights", "op": "Const"}, {"attr": {"dtype": {"type": "DT_FLOAT"}, "value": {"tensor": {"dtype": "DT_FLOAT", "tensorShape": {"dim": [{"size": "64"}]}}}}, "name": "module_apply_default/InceptionResnetV2/InceptionResnetV2/Repeat/block35_2/Branch_2/Conv2d_0c_3x3/Conv2D_bn_offset", "op": "Const"}, {"attr": {"dtype": {"type": "DT_FLOAT"}, "value": {"tensor": {"dtype": "DT_FLOAT", "tensorShape": {"dim": [{"size": "1"}, {"size": "1"}, {"size": "320"}, {"size": "32"}]}}}}, "name": "module/InceptionResnetV2/Repeat/block35_3/Branch_0/Conv2d_1x1/weights", "op": "Const"}, {"attr": {"dtype": {"type": "DT_FLOAT"}, "value": {"tensor": {"dtype": "DT_FLOAT", "tensorShape": {"dim": [{"size": "32"}]}}}}, "name": "module_apply_default/InceptionResnetV2/InceptionResnetV2/Repeat/block35_3/Branch_0/Conv2d_1x1/Conv2D_bn_offset", "op": "Const"}, {"attr": {"dtype": {"type": "DT_FLOAT"}, "value": {"tensor": {"dtype": "DT_FLOAT", "tensorShape": {"dim": [{"size": "1"}, {"size": "1"}, {"size": "320"}, {"size": "32"}]}}}}, "name": "module/InceptionResnetV2/Repeat/block35_3/Branch_1/Conv2d_0a_1x1/weights", "op": "Const"}, {"attr": {"dtype": {"type": "DT_FLOAT"}, "value": {"tensor": {"dtype": "DT_FLOAT", "tensorShape": {"dim": [{"size": "32"}]}}}}, "name": "module_apply_default/InceptionResnetV2/InceptionResnetV2/Repeat/block35_3/Branch_1/Conv2d_0a_1x1/Conv2D_bn_offset", "op": "Const"}, {"attr": {"dtype": {"type": "DT_FLOAT"}, "value": {"tensor": {"dtype": "DT_FLOAT", "tensorShape": {"dim": [{"size": "1"}, {"size": "1"}, {"size": "320"}, {"size": "32"}]}}}}, "name": "module/InceptionResnetV2/Repeat/block35_3/Branch_2/Conv2d_0a_1x1/weights", "op": "Const"}, {"attr": {"dtype": {"type": "DT_FLOAT"}, "value": {"tensor": {"dtype": "DT_FLOAT", "tensorShape": {"dim": [{"size": "32"}]}}}}, "name": "module_apply_default/InceptionResnetV2/InceptionResnetV2/Repeat/block35_3/Branch_2/Conv2d_0a_1x1/Conv2D_bn_offset", "op": "Const"}, {"attr": {"dtype": {"type": "DT_FLOAT"}, "value": {"tensor": {"dtype": "DT_FLOAT", "tensorShape": {"dim": [{"size": "3"}, {"size": "3"}, {"size": "32"}, {"size": "32"}]}}}}, "name": "module/InceptionResnetV2/Repeat/block35_3/Branch_1/Conv2d_0b_3x3/weights", "op": "Const"}, {"attr": {"dtype": {"type": "DT_FLOAT"}, "value": {"tensor": {"dtype": "DT_FLOAT", "tensorShape": {"dim": [{"size": "32"}]}}}}, "name": "module_apply_default/InceptionResnetV2/InceptionResnetV2/Repeat/block35_3/Branch_1/Conv2d_0b_3x3/Conv2D_bn_offset", "op": "Const"}, {"attr": {"dtype": {"type": "DT_FLOAT"}, "value": {"tensor": {"dtype": "DT_FLOAT", "tensorShape": {"dim": [{"size": "3"}, {"size": "3"}, {"size": "32"}, {"size": "48"}]}}}}, "name": "module/InceptionResnetV2/Repeat/block35_3/Branch_2/Conv2d_0b_3x3/weights", "op": "Const"}, {"attr": {"dtype": {"type": "DT_FLOAT"}, "value": {"tensor": {"dtype": "DT_FLOAT", "tensorShape": {"dim": [{"size": "48"}]}}}}, "name": "module_apply_default/InceptionResnetV2/InceptionResnetV2/Repeat/block35_3/Branch_2/Conv2d_0b_3x3/Conv2D_bn_offset", "op": "Const"}, {"attr": {"dtype": {"type": "DT_FLOAT"}, "value": {"tensor": {"dtype": "DT_FLOAT", "tensorShape": {"dim": [{"size": "3"}, {"size": "3"}, {"size": "48"}, {"size": "64"}]}}}}, "name": "module/InceptionResnetV2/Repeat/block35_3/Branch_2/Conv2d_0c_3x3/weights", "op": "Const"}, {"attr": {"dtype": {"type": "DT_FLOAT"}, "value": {"tensor": {"dtype": "DT_FLOAT", "tensorShape": {"dim": [{"size": "64"}]}}}}, "name": "module_apply_default/InceptionResnetV2/InceptionResnetV2/Repeat/block35_3/Branch_2/Conv2d_0c_3x3/Conv2D_bn_offset", "op": "Const"}, {"attr": {"dtype": {"type": "DT_FLOAT"}, "value": {"tensor": {"dtype": "DT_FLOAT", "tensorShape": {"dim": [{"size": "1"}, {"size": "1"}, {"size": "320"}, {"size": "32"}]}}}}, "name": "module/InceptionResnetV2/Repeat/block35_4/Branch_0/Conv2d_1x1/weights", "op": "Const"}, {"attr": {"dtype": {"type": "DT_FLOAT"}, "value": {"tensor": {"dtype": "DT_FLOAT", "tensorShape": {"dim": [{"size": "32"}]}}}}, "name": "module_apply_default/InceptionResnetV2/InceptionResnetV2/Repeat/block35_4/Branch_0/Conv2d_1x1/Conv2D_bn_offset", "op": "Const"}, {"attr": {"dtype": {"type": "DT_FLOAT"}, "value": {"tensor": {"dtype": "DT_FLOAT", "tensorShape": {"dim": [{"size": "1"}, {"size": "1"}, {"size": "320"}, {"size": "32"}]}}}}, "name": "module/InceptionResnetV2/Repeat/block35_4/Branch_1/Conv2d_0a_1x1/weights", "op": "Const"}, {"attr": {"dtype": {"type": "DT_FLOAT"}, "value": {"tensor": {"dtype": "DT_FLOAT", "tensorShape": {"dim": [{"size": "32"}]}}}}, "name": "module_apply_default/InceptionResnetV2/InceptionResnetV2/Repeat/block35_4/Branch_1/Conv2d_0a_1x1/Conv2D_bn_offset", "op": "Const"}, {"attr": {"dtype": {"type": "DT_FLOAT"}, "value": {"tensor": {"dtype": "DT_FLOAT", "tensorShape": {"dim": [{"size": "1"}, {"size": "1"}, {"size": "320"}, {"size": "32"}]}}}}, "name": "module/InceptionResnetV2/Repeat/block35_4/Branch_2/Conv2d_0a_1x1/weights", "op": "Const"}, {"attr": {"dtype": {"type": "DT_FLOAT"}, "value": {"tensor": {"dtype": "DT_FLOAT", "tensorShape": {"dim": [{"size": "32"}]}}}}, "name": "module_apply_default/InceptionResnetV2/InceptionResnetV2/Repeat/block35_4/Branch_2/Conv2d_0a_1x1/Conv2D_bn_offset", "op": "Const"}, {"attr": {"dtype": {"type": "DT_FLOAT"}, "value": {"tensor": {"dtype": "DT_FLOAT", "tensorShape": {"dim": [{"size": "3"}, {"size": "3"}, {"size": "32"}, {"size": "32"}]}}}}, "name": "module/InceptionResnetV2/Repeat/block35_4/Branch_1/Conv2d_0b_3x3/weights", "op": "Const"}, {"attr": {"dtype": {"type": "DT_FLOAT"}, "value": {"tensor": {"dtype": "DT_FLOAT", "tensorShape": {"dim": [{"size": "32"}]}}}}, "name": "module_apply_default/InceptionResnetV2/InceptionResnetV2/Repeat/block35_4/Branch_1/Conv2d_0b_3x3/Conv2D_bn_offset", "op": "Const"}, {"attr": {"dtype": {"type": "DT_FLOAT"}, "value": {"tensor": {"dtype": "DT_FLOAT", "tensorShape": {"dim": [{"size": "3"}, {"size": "3"}, {"size": "32"}, {"size": "48"}]}}}}, "name": "module/InceptionResnetV2/Repeat/block35_4/Branch_2/Conv2d_0b_3x3/weights", "op": "Const"}, {"attr": {"dtype": {"type": "DT_FLOAT"}, "value": {"tensor": {"dtype": "DT_FLOAT", "tensorShape": {"dim": [{"size": "48"}]}}}}, "name": "module_apply_default/InceptionResnetV2/InceptionResnetV2/Repeat/block35_4/Branch_2/Conv2d_0b_3x3/Conv2D_bn_offset", "op": "Const"}, {"attr": {"dtype": {"type": "DT_FLOAT"}, "value": {"tensor": {"dtype": "DT_FLOAT", "tensorShape": {"dim": [{"size": "3"}, {"size": "3"}, {"size": "48"}, {"size": "64"}]}}}}, "name": "module/InceptionResnetV2/Repeat/block35_4/Branch_2/Conv2d_0c_3x3/weights", "op": "Const"}, {"attr": {"dtype": {"type": "DT_FLOAT"}, "value": {"tensor": {"dtype": "DT_FLOAT", "tensorShape": {"dim": [{"size": "64"}]}}}}, "name": "module_apply_default/InceptionResnetV2/InceptionResnetV2/Repeat/block35_4/Branch_2/Conv2d_0c_3x3/Conv2D_bn_offset", "op": "Const"}, {"attr": {"dtype": {"type": "DT_FLOAT"}, "value": {"tensor": {"dtype": "DT_FLOAT", "tensorShape": {"dim": [{"size": "1"}, {"size": "1"}, {"size": "320"}, {"size": "32"}]}}}}, "name": "module/InceptionResnetV2/Repeat/block35_5/Branch_0/Conv2d_1x1/weights", "op": "Const"}, {"attr": {"dtype": {"type": "DT_FLOAT"}, "value": {"tensor": {"dtype": "DT_FLOAT", "tensorShape": {"dim": [{"size": "32"}]}}}}, "name": "module_apply_default/InceptionResnetV2/InceptionResnetV2/Repeat/block35_5/Branch_0/Conv2d_1x1/Conv2D_bn_offset", "op": "Const"}, {"attr": {"dtype": {"type": "DT_FLOAT"}, "value": {"tensor": {"dtype": "DT_FLOAT", "tensorShape": {"dim": [{"size": "1"}, {"size": "1"}, {"size": "320"}, {"size": "32"}]}}}}, "name": "module/InceptionResnetV2/Repeat/block35_5/Branch_1/Conv2d_0a_1x1/weights", "op": "Const"}, {"attr": {"dtype": {"type": "DT_FLOAT"}, "value": {"tensor": {"dtype": "DT_FLOAT", "tensorShape": {"dim": [{"size": "32"}]}}}}, "name": "module_apply_default/InceptionResnetV2/InceptionResnetV2/Repeat/block35_5/Branch_1/Conv2d_0a_1x1/Conv2D_bn_offset", "op": "Const"}, {"attr": {"dtype": {"type": "DT_FLOAT"}, "value": {"tensor": {"dtype": "DT_FLOAT", "tensorShape": {"dim": [{"size": "1"}, {"size": "1"}, {"size": "320"}, {"size": "32"}]}}}}, "name": "module/InceptionResnetV2/Repeat/block35_5/Branch_2/Conv2d_0a_1x1/weights", "op": "Const"}, {"attr": {"dtype": {"type": "DT_FLOAT"}, "value": {"tensor": {"dtype": "DT_FLOAT", "tensorShape": {"dim": [{"size": "32"}]}}}}, "name": "module_apply_default/InceptionResnetV2/InceptionResnetV2/Repeat/block35_5/Branch_2/Conv2d_0a_1x1/Conv2D_bn_offset", "op": "Const"}, {"attr": {"dtype": {"type": "DT_FLOAT"}, "value": {"tensor": {"dtype": "DT_FLOAT", "tensorShape": {"dim": [{"size": "3"}, {"size": "3"}, {"size": "32"}, {"size": "32"}]}}}}, "name": "module/InceptionResnetV2/Repeat/block35_5/Branch_1/Conv2d_0b_3x3/weights", "op": "Const"}, {"attr": {"dtype": {"type": "DT_FLOAT"}, "value": {"tensor": {"dtype": "DT_FLOAT", "tensorShape": {"dim": [{"size": "32"}]}}}}, "name": "module_apply_default/InceptionResnetV2/InceptionResnetV2/Repeat/block35_5/Branch_1/Conv2d_0b_3x3/Conv2D_bn_offset", "op": "Const"}, {"attr": {"dtype": {"type": "DT_FLOAT"}, "value": {"tensor": {"dtype": "DT_FLOAT", "tensorShape": {"dim": [{"size": "3"}, {"size": "3"}, {"size": "32"}, {"size": "48"}]}}}}, "name": "module/InceptionResnetV2/Repeat/block35_5/Branch_2/Conv2d_0b_3x3/weights", "op": "Const"}, {"attr": {"dtype": {"type": "DT_FLOAT"}, "value": {"tensor": {"dtype": "DT_FLOAT", "tensorShape": {"dim": [{"size": "48"}]}}}}, "name": "module_apply_default/InceptionResnetV2/InceptionResnetV2/Repeat/block35_5/Branch_2/Conv2d_0b_3x3/Conv2D_bn_offset", "op": "Const"}, {"attr": {"dtype": {"type": "DT_FLOAT"}, "value": {"tensor": {"dtype": "DT_FLOAT", "tensorShape": {"dim": [{"size": "3"}, {"size": "3"}, {"size": "48"}, {"size": "64"}]}}}}, "name": "module/InceptionResnetV2/Repeat/block35_5/Branch_2/Conv2d_0c_3x3/weights", "op": "Const"}, {"attr": {"dtype": {"type": "DT_FLOAT"}, "value": {"tensor": {"dtype": "DT_FLOAT", "tensorShape": {"dim": [{"size": "64"}]}}}}, "name": "module_apply_default/InceptionResnetV2/InceptionResnetV2/Repeat/block35_5/Branch_2/Conv2d_0c_3x3/Conv2D_bn_offset", "op": "Const"}, {"attr": {"dtype": {"type": "DT_FLOAT"}, "value": {"tensor": {"dtype": "DT_FLOAT", "tensorShape": {"dim": [{"size": "1"}, {"size": "1"}, {"size": "320"}, {"size": "32"}]}}}}, "name": "module/InceptionResnetV2/Repeat/block35_6/Branch_0/Conv2d_1x1/weights", "op": "Const"}, {"attr": {"dtype": {"type": "DT_FLOAT"}, "value": {"tensor": {"dtype": "DT_FLOAT", "tensorShape": {"dim": [{"size": "32"}]}}}}, "name": "module_apply_default/InceptionResnetV2/InceptionResnetV2/Repeat/block35_6/Branch_0/Conv2d_1x1/Conv2D_bn_offset", "op": "Const"}, {"attr": {"dtype": {"type": "DT_FLOAT"}, "value": {"tensor": {"dtype": "DT_FLOAT", "tensorShape": {"dim": [{"size": "1"}, {"size": "1"}, {"size": "320"}, {"size": "32"}]}}}}, "name": "module/InceptionResnetV2/Repeat/block35_6/Branch_1/Conv2d_0a_1x1/weights", "op": "Const"}, {"attr": {"dtype": {"type": "DT_FLOAT"}, "value": {"tensor": {"dtype": "DT_FLOAT", "tensorShape": {"dim": [{"size": "32"}]}}}}, "name": "module_apply_default/InceptionResnetV2/InceptionResnetV2/Repeat/block35_6/Branch_1/Conv2d_0a_1x1/Conv2D_bn_offset", "op": "Const"}, {"attr": {"dtype": {"type": "DT_FLOAT"}, "value": {"tensor": {"dtype": "DT_FLOAT", "tensorShape": {"dim": [{"size": "1"}, {"size": "1"}, {"size": "320"}, {"size": "32"}]}}}}, "name": "module/InceptionResnetV2/Repeat/block35_6/Branch_2/Conv2d_0a_1x1/weights", "op": "Const"}, {"attr": {"dtype": {"type": "DT_FLOAT"}, "value": {"tensor": {"dtype": "DT_FLOAT", "tensorShape": {"dim": [{"size": "32"}]}}}}, "name": "module_apply_default/InceptionResnetV2/InceptionResnetV2/Repeat/block35_6/Branch_2/Conv2d_0a_1x1/Conv2D_bn_offset", "op": "Const"}, {"attr": {"dtype": {"type": "DT_FLOAT"}, "value": {"tensor": {"dtype": "DT_FLOAT", "tensorShape": {"dim": [{"size": "3"}, {"size": "3"}, {"size": "32"}, {"size": "32"}]}}}}, "name": "module/InceptionResnetV2/Repeat/block35_6/Branch_1/Conv2d_0b_3x3/weights", "op": "Const"}, {"attr": {"dtype": {"type": "DT_FLOAT"}, "value": {"tensor": {"dtype": "DT_FLOAT", "tensorShape": {"dim": [{"size": "32"}]}}}}, "name": "module_apply_default/InceptionResnetV2/InceptionResnetV2/Repeat/block35_6/Branch_1/Conv2d_0b_3x3/Conv2D_bn_offset", "op": "Const"}, {"attr": {"dtype": {"type": "DT_FLOAT"}, "value": {"tensor": {"dtype": "DT_FLOAT", "tensorShape": {"dim": [{"size": "3"}, {"size": "3"}, {"size": "32"}, {"size": "48"}]}}}}, "name": "module/InceptionResnetV2/Repeat/block35_6/Branch_2/Conv2d_0b_3x3/weights", "op": "Const"}, {"attr": {"dtype": {"type": "DT_FLOAT"}, "value": {"tensor": {"dtype": "DT_FLOAT", "tensorShape": {"dim": [{"size": "48"}]}}}}, "name": "module_apply_default/InceptionResnetV2/InceptionResnetV2/Repeat/block35_6/Branch_2/Conv2d_0b_3x3/Conv2D_bn_offset", "op": "Const"}, {"attr": {"dtype": {"type": "DT_FLOAT"}, "value": {"tensor": {"dtype": "DT_FLOAT", "tensorShape": {"dim": [{"size": "3"}, {"size": "3"}, {"size": "48"}, {"size": "64"}]}}}}, "name": "module/InceptionResnetV2/Repeat/block35_6/Branch_2/Conv2d_0c_3x3/weights", "op": "Const"}, {"attr": {"dtype": {"type": "DT_FLOAT"}, "value": {"tensor": {"dtype": "DT_FLOAT", "tensorShape": {"dim": [{"size": "64"}]}}}}, "name": "module_apply_default/InceptionResnetV2/InceptionResnetV2/Repeat/block35_6/Branch_2/Conv2d_0c_3x3/Conv2D_bn_offset", "op": "Const"}, {"attr": {"dtype": {"type": "DT_FLOAT"}, "value": {"tensor": {"dtype": "DT_FLOAT", "tensorShape": {"dim": [{"size": "1"}, {"size": "1"}, {"size": "320"}, {"size": "32"}]}}}}, "name": "module/InceptionResnetV2/Repeat/block35_7/Branch_0/Conv2d_1x1/weights", "op": "Const"}, {"attr": {"dtype": {"type": "DT_FLOAT"}, "value": {"tensor": {"dtype": "DT_FLOAT", "tensorShape": {"dim": [{"size": "32"}]}}}}, "name": "module_apply_default/InceptionResnetV2/InceptionResnetV2/Repeat/block35_7/Branch_0/Conv2d_1x1/Conv2D_bn_offset", "op": "Const"}, {"attr": {"dtype": {"type": "DT_FLOAT"}, "value": {"tensor": {"dtype": "DT_FLOAT", "tensorShape": {"dim": [{"size": "1"}, {"size": "1"}, {"size": "320"}, {"size": "32"}]}}}}, "name": "module/InceptionResnetV2/Repeat/block35_7/Branch_1/Conv2d_0a_1x1/weights", "op": "Const"}, {"attr": {"dtype": {"type": "DT_FLOAT"}, "value": {"tensor": {"dtype": "DT_FLOAT", "tensorShape": {"dim": [{"size": "32"}]}}}}, "name": "module_apply_default/InceptionResnetV2/InceptionResnetV2/Repeat/block35_7/Branch_1/Conv2d_0a_1x1/Conv2D_bn_offset", "op": "Const"}, {"attr": {"dtype": {"type": "DT_FLOAT"}, "value": {"tensor": {"dtype": "DT_FLOAT", "tensorShape": {"dim": [{"size": "1"}, {"size": "1"}, {"size": "320"}, {"size": "32"}]}}}}, "name": "module/InceptionResnetV2/Repeat/block35_7/Branch_2/Conv2d_0a_1x1/weights", "op": "Const"}, {"attr": {"dtype": {"type": "DT_FLOAT"}, "value": {"tensor": {"dtype": "DT_FLOAT", "tensorShape": {"dim": [{"size": "32"}]}}}}, "name": "module_apply_default/InceptionResnetV2/InceptionResnetV2/Repeat/block35_7/Branch_2/Conv2d_0a_1x1/Conv2D_bn_offset", "op": "Const"}, {"attr": {"dtype": {"type": "DT_FLOAT"}, "value": {"tensor": {"dtype": "DT_FLOAT", "tensorShape": {"dim": [{"size": "3"}, {"size": "3"}, {"size": "32"}, {"size": "32"}]}}}}, "name": "module/InceptionResnetV2/Repeat/block35_7/Branch_1/Conv2d_0b_3x3/weights", "op": "Const"}, {"attr": {"dtype": {"type": "DT_FLOAT"}, "value": {"tensor": {"dtype": "DT_FLOAT", "tensorShape": {"dim": [{"size": "32"}]}}}}, "name": "module_apply_default/InceptionResnetV2/InceptionResnetV2/Repeat/block35_7/Branch_1/Conv2d_0b_3x3/Conv2D_bn_offset", "op": "Const"}, {"attr": {"dtype": {"type": "DT_FLOAT"}, "value": {"tensor": {"dtype": "DT_FLOAT", "tensorShape": {"dim": [{"size": "3"}, {"size": "3"}, {"size": "32"}, {"size": "48"}]}}}}, "name": "module/InceptionResnetV2/Repeat/block35_7/Branch_2/Conv2d_0b_3x3/weights", "op": "Const"}, {"attr": {"dtype": {"type": "DT_FLOAT"}, "value": {"tensor": {"dtype": "DT_FLOAT", "tensorShape": {"dim": [{"size": "48"}]}}}}, "name": "module_apply_default/InceptionResnetV2/InceptionResnetV2/Repeat/block35_7/Branch_2/Conv2d_0b_3x3/Conv2D_bn_offset", "op": "Const"}, {"attr": {"dtype": {"type": "DT_FLOAT"}, "value": {"tensor": {"dtype": "DT_FLOAT", "tensorShape": {"dim": [{"size": "3"}, {"size": "3"}, {"size": "48"}, {"size": "64"}]}}}}, "name": "module/InceptionResnetV2/Repeat/block35_7/Branch_2/Conv2d_0c_3x3/weights", "op": "Const"}, {"attr": {"dtype": {"type": "DT_FLOAT"}, "value": {"tensor": {"dtype": "DT_FLOAT", "tensorShape": {"dim": [{"size": "64"}]}}}}, "name": "module_apply_default/InceptionResnetV2/InceptionResnetV2/Repeat/block35_7/Branch_2/Conv2d_0c_3x3/Conv2D_bn_offset", "op": "Const"}, {"attr": {"dtype": {"type": "DT_FLOAT"}, "value": {"tensor": {"dtype": "DT_FLOAT", "tensorShape": {"dim": [{"size": "1"}, {"size": "1"}, {"size": "320"}, {"size": "32"}]}}}}, "name": "module/InceptionResnetV2/Repeat/block35_8/Branch_0/Conv2d_1x1/weights", "op": "Const"}, {"attr": {"dtype": {"type": "DT_FLOAT"}, "value": {"tensor": {"dtype": "DT_FLOAT", "tensorShape": {"dim": [{"size": "32"}]}}}}, "name": "module_apply_default/InceptionResnetV2/InceptionResnetV2/Repeat/block35_8/Branch_0/Conv2d_1x1/Conv2D_bn_offset", "op": "Const"}, {"attr": {"dtype": {"type": "DT_FLOAT"}, "value": {"tensor": {"dtype": "DT_FLOAT", "tensorShape": {"dim": [{"size": "1"}, {"size": "1"}, {"size": "320"}, {"size": "32"}]}}}}, "name": "module/InceptionResnetV2/Repeat/block35_8/Branch_1/Conv2d_0a_1x1/weights", "op": "Const"}, {"attr": {"dtype": {"type": "DT_FLOAT"}, "value": {"tensor": {"dtype": "DT_FLOAT", "tensorShape": {"dim": [{"size": "32"}]}}}}, "name": "module_apply_default/InceptionResnetV2/InceptionResnetV2/Repeat/block35_8/Branch_1/Conv2d_0a_1x1/Conv2D_bn_offset", "op": "Const"}, {"attr": {"dtype": {"type": "DT_FLOAT"}, "value": {"tensor": {"dtype": "DT_FLOAT", "tensorShape": {"dim": [{"size": "1"}, {"size": "1"}, {"size": "320"}, {"size": "32"}]}}}}, "name": "module/InceptionResnetV2/Repeat/block35_8/Branch_2/Conv2d_0a_1x1/weights", "op": "Const"}, {"attr": {"dtype": {"type": "DT_FLOAT"}, "value": {"tensor": {"dtype": "DT_FLOAT", "tensorShape": {"dim": [{"size": "32"}]}}}}, "name": "module_apply_default/InceptionResnetV2/InceptionResnetV2/Repeat/block35_8/Branch_2/Conv2d_0a_1x1/Conv2D_bn_offset", "op": "Const"}, {"attr": {"dtype": {"type": "DT_FLOAT"}, "value": {"tensor": {"dtype": "DT_FLOAT", "tensorShape": {"dim": [{"size": "3"}, {"size": "3"}, {"size": "32"}, {"size": "32"}]}}}}, "name": "module/InceptionResnetV2/Repeat/block35_8/Branch_1/Conv2d_0b_3x3/weights", "op": "Const"}, {"attr": {"dtype": {"type": "DT_FLOAT"}, "value": {"tensor": {"dtype": "DT_FLOAT", "tensorShape": {"dim": [{"size": "32"}]}}}}, "name": "module_apply_default/InceptionResnetV2/InceptionResnetV2/Repeat/block35_8/Branch_1/Conv2d_0b_3x3/Conv2D_bn_offset", "op": "Const"}, {"attr": {"dtype": {"type": "DT_FLOAT"}, "value": {"tensor": {"dtype": "DT_FLOAT", "tensorShape": {"dim": [{"size": "3"}, {"size": "3"}, {"size": "32"}, {"size": "48"}]}}}}, "name": "module/InceptionResnetV2/Repeat/block35_8/Branch_2/Conv2d_0b_3x3/weights", "op": "Const"}, {"attr": {"dtype": {"type": "DT_FLOAT"}, "value": {"tensor": {"dtype": "DT_FLOAT", "tensorShape": {"dim": [{"size": "48"}]}}}}, "name": "module_apply_default/InceptionResnetV2/InceptionResnetV2/Repeat/block35_8/Branch_2/Conv2d_0b_3x3/Conv2D_bn_offset", "op": "Const"}, {"attr": {"dtype": {"type": "DT_FLOAT"}, "value": {"tensor": {"dtype": "DT_FLOAT", "tensorShape": {"dim": [{"size": "3"}, {"size": "3"}, {"size": "48"}, {"size": "64"}]}}}}, "name": "module/InceptionResnetV2/Repeat/block35_8/Branch_2/Conv2d_0c_3x3/weights", "op": "Const"}, {"attr": {"dtype": {"type": "DT_FLOAT"}, "value": {"tensor": {"dtype": "DT_FLOAT", "tensorShape": {"dim": [{"size": "64"}]}}}}, "name": "module_apply_default/InceptionResnetV2/InceptionResnetV2/Repeat/block35_8/Branch_2/Conv2d_0c_3x3/Conv2D_bn_offset", "op": "Const"}, {"attr": {"dtype": {"type": "DT_FLOAT"}, "value": {"tensor": {"dtype": "DT_FLOAT", "tensorShape": {"dim": [{"size": "1"}, {"size": "1"}, {"size": "320"}, {"size": "32"}]}}}}, "name": "module/InceptionResnetV2/Repeat/block35_9/Branch_0/Conv2d_1x1/weights", "op": "Const"}, {"attr": {"dtype": {"type": "DT_FLOAT"}, "value": {"tensor": {"dtype": "DT_FLOAT", "tensorShape": {"dim": [{"size": "32"}]}}}}, "name": "module_apply_default/InceptionResnetV2/InceptionResnetV2/Repeat/block35_9/Branch_0/Conv2d_1x1/Conv2D_bn_offset", "op": "Const"}, {"attr": {"dtype": {"type": "DT_FLOAT"}, "value": {"tensor": {"dtype": "DT_FLOAT", "tensorShape": {"dim": [{"size": "1"}, {"size": "1"}, {"size": "320"}, {"size": "32"}]}}}}, "name": "module/InceptionResnetV2/Repeat/block35_9/Branch_1/Conv2d_0a_1x1/weights", "op": "Const"}, {"attr": {"dtype": {"type": "DT_FLOAT"}, "value": {"tensor": {"dtype": "DT_FLOAT", "tensorShape": {"dim": [{"size": "32"}]}}}}, "name": "module_apply_default/InceptionResnetV2/InceptionResnetV2/Repeat/block35_9/Branch_1/Conv2d_0a_1x1/Conv2D_bn_offset", "op": "Const"}, {"attr": {"dtype": {"type": "DT_FLOAT"}, "value": {"tensor": {"dtype": "DT_FLOAT", "tensorShape": {"dim": [{"size": "1"}, {"size": "1"}, {"size": "320"}, {"size": "32"}]}}}}, "name": "module/InceptionResnetV2/Repeat/block35_9/Branch_2/Conv2d_0a_1x1/weights", "op": "Const"}, {"attr": {"dtype": {"type": "DT_FLOAT"}, "value": {"tensor": {"dtype": "DT_FLOAT", "tensorShape": {"dim": [{"size": "32"}]}}}}, "name": "module_apply_default/InceptionResnetV2/InceptionResnetV2/Repeat/block35_9/Branch_2/Conv2d_0a_1x1/Conv2D_bn_offset", "op": "Const"}, {"attr": {"dtype": {"type": "DT_FLOAT"}, "value": {"tensor": {"dtype": "DT_FLOAT", "tensorShape": {"dim": [{"size": "3"}, {"size": "3"}, {"size": "32"}, {"size": "32"}]}}}}, "name": "module/InceptionResnetV2/Repeat/block35_9/Branch_1/Conv2d_0b_3x3/weights", "op": "Const"}, {"attr": {"dtype": {"type": "DT_FLOAT"}, "value": {"tensor": {"dtype": "DT_FLOAT", "tensorShape": {"dim": [{"size": "32"}]}}}}, "name": "module_apply_default/InceptionResnetV2/InceptionResnetV2/Repeat/block35_9/Branch_1/Conv2d_0b_3x3/Conv2D_bn_offset", "op": "Const"}, {"attr": {"dtype": {"type": "DT_FLOAT"}, "value": {"tensor": {"dtype": "DT_FLOAT", "tensorShape": {"dim": [{"size": "3"}, {"size": "3"}, {"size": "32"}, {"size": "48"}]}}}}, "name": "module/InceptionResnetV2/Repeat/block35_9/Branch_2/Conv2d_0b_3x3/weights", "op": "Const"}, {"attr": {"dtype": {"type": "DT_FLOAT"}, "value": {"tensor": {"dtype": "DT_FLOAT", "tensorShape": {"dim": [{"size": "48"}]}}}}, "name": "module_apply_default/InceptionResnetV2/InceptionResnetV2/Repeat/block35_9/Branch_2/Conv2d_0b_3x3/Conv2D_bn_offset", "op": "Const"}, {"attr": {"dtype": {"type": "DT_FLOAT"}, "value": {"tensor": {"dtype": "DT_FLOAT", "tensorShape": {"dim": [{"size": "3"}, {"size": "3"}, {"size": "48"}, {"size": "64"}]}}}}, "name": "module/InceptionResnetV2/Repeat/block35_9/Branch_2/Conv2d_0c_3x3/weights", "op": "Const"}, {"attr": {"dtype": {"type": "DT_FLOAT"}, "value": {"tensor": {"dtype": "DT_FLOAT", "tensorShape": {"dim": [{"size": "64"}]}}}}, "name": "module_apply_default/InceptionResnetV2/InceptionResnetV2/Repeat/block35_9/Branch_2/Conv2d_0c_3x3/Conv2D_bn_offset", "op": "Const"}, {"attr": {"dtype": {"type": "DT_FLOAT"}, "value": {"tensor": {"dtype": "DT_FLOAT", "tensorShape": {"dim": [{"size": "1"}, {"size": "1"}, {"size": "320"}, {"size": "32"}]}}}}, "name": "module/InceptionResnetV2/Repeat/block35_10/Branch_0/Conv2d_1x1/weights", "op": "Const"}, {"attr": {"dtype": {"type": "DT_FLOAT"}, "value": {"tensor": {"dtype": "DT_FLOAT", "tensorShape": {"dim": [{"size": "32"}]}}}}, "name": "module_apply_default/InceptionResnetV2/InceptionResnetV2/Repeat/block35_10/Branch_0/Conv2d_1x1/Conv2D_bn_offset", "op": "Const"}, {"attr": {"dtype": {"type": "DT_FLOAT"}, "value": {"tensor": {"dtype": "DT_FLOAT", "tensorShape": {"dim": [{"size": "1"}, {"size": "1"}, {"size": "320"}, {"size": "32"}]}}}}, "name": "module/InceptionResnetV2/Repeat/block35_10/Branch_1/Conv2d_0a_1x1/weights", "op": "Const"}, {"attr": {"dtype": {"type": "DT_FLOAT"}, "value": {"tensor": {"dtype": "DT_FLOAT", "tensorShape": {"dim": [{"size": "32"}]}}}}, "name": "module_apply_default/InceptionResnetV2/InceptionResnetV2/Repeat/block35_10/Branch_1/Conv2d_0a_1x1/Conv2D_bn_offset", "op": "Const"}, {"attr": {"dtype": {"type": "DT_FLOAT"}, "value": {"tensor": {"dtype": "DT_FLOAT", "tensorShape": {"dim": [{"size": "1"}, {"size": "1"}, {"size": "320"}, {"size": "32"}]}}}}, "name": "module/InceptionResnetV2/Repeat/block35_10/Branch_2/Conv2d_0a_1x1/weights", "op": "Const"}, {"attr": {"dtype": {"type": "DT_FLOAT"}, "value": {"tensor": {"dtype": "DT_FLOAT", "tensorShape": {"dim": [{"size": "32"}]}}}}, "name": "module_apply_default/InceptionResnetV2/InceptionResnetV2/Repeat/block35_10/Branch_2/Conv2d_0a_1x1/Conv2D_bn_offset", "op": "Const"}, {"attr": {"dtype": {"type": "DT_FLOAT"}, "value": {"tensor": {"dtype": "DT_FLOAT", "tensorShape": {"dim": [{"size": "3"}, {"size": "3"}, {"size": "32"}, {"size": "32"}]}}}}, "name": "module/InceptionResnetV2/Repeat/block35_10/Branch_1/Conv2d_0b_3x3/weights", "op": "Const"}, {"attr": {"dtype": {"type": "DT_FLOAT"}, "value": {"tensor": {"dtype": "DT_FLOAT", "tensorShape": {"dim": [{"size": "32"}]}}}}, "name": "module_apply_default/InceptionResnetV2/InceptionResnetV2/Repeat/block35_10/Branch_1/Conv2d_0b_3x3/Conv2D_bn_offset", "op": "Const"}, {"attr": {"dtype": {"type": "DT_FLOAT"}, "value": {"tensor": {"dtype": "DT_FLOAT", "tensorShape": {"dim": [{"size": "3"}, {"size": "3"}, {"size": "32"}, {"size": "48"}]}}}}, "name": "module/InceptionResnetV2/Repeat/block35_10/Branch_2/Conv2d_0b_3x3/weights", "op": "Const"}, {"attr": {"dtype": {"type": "DT_FLOAT"}, "value": {"tensor": {"dtype": "DT_FLOAT", "tensorShape": {"dim": [{"size": "48"}]}}}}, "name": "module_apply_default/InceptionResnetV2/InceptionResnetV2/Repeat/block35_10/Branch_2/Conv2d_0b_3x3/Conv2D_bn_offset", "op": "Const"}, {"attr": {"dtype": {"type": "DT_FLOAT"}, "value": {"tensor": {"dtype": "DT_FLOAT", "tensorShape": {"dim": [{"size": "3"}, {"size": "3"}, {"size": "48"}, {"size": "64"}]}}}}, "name": "module/InceptionResnetV2/Repeat/block35_10/Branch_2/Conv2d_0c_3x3/weights", "op": "Const"}, {"attr": {"dtype": {"type": "DT_FLOAT"}, "value": {"tensor": {"dtype": "DT_FLOAT", "tensorShape": {"dim": [{"size": "64"}]}}}}, "name": "module_apply_default/InceptionResnetV2/InceptionResnetV2/Repeat/block35_10/Branch_2/Conv2d_0c_3x3/Conv2D_bn_offset", "op": "Const"}, {"attr": {"dtype": {"type": "DT_FLOAT"}, "value": {"tensor": {"dtype": "DT_FLOAT", "tensorShape": {"dim": [{"size": "3"}, {"size": "3"}, {"size": "320"}, {"size": "384"}]}}}}, "name": "module/InceptionResnetV2/Mixed_6a/Branch_0/Conv2d_1a_3x3/weights", "op": "Const"}, {"attr": {"dtype": {"type": "DT_FLOAT"}, "value": {"tensor": {"dtype": "DT_FLOAT", "tensorShape": {"dim": [{"size": "384"}]}}}}, "name": "module_apply_default/InceptionResnetV2/InceptionResnetV2/Mixed_6a/Branch_0/Conv2d_1a_3x3/Conv2D_bn_offset", "op": "Const"}, {"attr": {"dtype": {"type": "DT_FLOAT"}, "value": {"tensor": {"dtype": "DT_FLOAT", "tensorShape": {"dim": [{"size": "1"}, {"size": "1"}, {"size": "320"}, {"size": "256"}]}}}}, "name": "module/InceptionResnetV2/Mixed_6a/Branch_1/Conv2d_0a_1x1/weights", "op": "Const"}, {"attr": {"dtype": {"type": "DT_FLOAT"}, "value": {"tensor": {"dtype": "DT_FLOAT", "tensorShape": {"dim": [{"size": "256"}]}}}}, "name": "module_apply_default/InceptionResnetV2/InceptionResnetV2/Mixed_6a/Branch_1/Conv2d_0a_1x1/Conv2D_bn_offset", "op": "Const"}, {"attr": {"dtype": {"type": "DT_FLOAT"}, "value": {"tensor": {"dtype": "DT_FLOAT", "tensorShape": {"dim": [{"size": "3"}, {"size": "3"}, {"size": "256"}, {"size": "256"}]}}}}, "name": "module/InceptionResnetV2/Mixed_6a/Branch_1/Conv2d_0b_3x3/weights", "op": "Const"}, {"attr": {"dtype": {"type": "DT_FLOAT"}, "value": {"tensor": {"dtype": "DT_FLOAT", "tensorShape": {"dim": [{"size": "256"}]}}}}, "name": "module_apply_default/InceptionResnetV2/InceptionResnetV2/Mixed_6a/Branch_1/Conv2d_0b_3x3/Conv2D_bn_offset", "op": "Const"}, {"attr": {"dtype": {"type": "DT_FLOAT"}, "value": {"tensor": {"dtype": "DT_FLOAT", "tensorShape": {"dim": [{"size": "3"}, {"size": "3"}, {"size": "256"}, {"size": "384"}]}}}}, "name": "module/InceptionResnetV2/Mixed_6a/Branch_1/Conv2d_1a_3x3/weights", "op": "Const"}, {"attr": {"dtype": {"type": "DT_FLOAT"}, "value": {"tensor": {"dtype": "DT_FLOAT", "tensorShape": {"dim": [{"size": "384"}]}}}}, "name": "module_apply_default/InceptionResnetV2/InceptionResnetV2/Mixed_6a/Branch_1/Conv2d_1a_3x3/Conv2D_bn_offset", "op": "Const"}, {"attr": {"dtype": {"type": "DT_FLOAT"}, "value": {"tensor": {"dtype": "DT_FLOAT", "tensorShape": {"dim": [{"size": "1"}, {"size": "1"}, {"size": "1088"}, {"size": "192"}]}}}}, "name": "module/InceptionResnetV2/Repeat_1/block17_1/Branch_0/Conv2d_1x1/weights", "op": "Const"}, {"attr": {"dtype": {"type": "DT_FLOAT"}, "value": {"tensor": {"dtype": "DT_FLOAT", "tensorShape": {"dim": [{"size": "192"}]}}}}, "name": "module_apply_default/InceptionResnetV2/InceptionResnetV2/Repeat_1/block17_1/Branch_0/Conv2d_1x1/Conv2D_bn_offset", "op": "Const"}, {"attr": {"dtype": {"type": "DT_FLOAT"}, "value": {"tensor": {"dtype": "DT_FLOAT", "tensorShape": {"dim": [{"size": "1"}, {"size": "1"}, {"size": "1088"}, {"size": "128"}]}}}}, "name": "module/InceptionResnetV2/Repeat_1/block17_1/Branch_1/Conv2d_0a_1x1/weights", "op": "Const"}, {"attr": {"dtype": {"type": "DT_FLOAT"}, "value": {"tensor": {"dtype": "DT_FLOAT", "tensorShape": {"dim": [{"size": "128"}]}}}}, "name": "module_apply_default/InceptionResnetV2/InceptionResnetV2/Repeat_1/block17_1/Branch_1/Conv2d_0a_1x1/Conv2D_bn_offset", "op": "Const"}, {"attr": {"dtype": {"type": "DT_FLOAT"}, "value": {"tensor": {"dtype": "DT_FLOAT", "tensorShape": {"dim": [{"size": "1"}, {"size": "7"}, {"size": "128"}, {"size": "160"}]}}}}, "name": "module/InceptionResnetV2/Repeat_1/block17_1/Branch_1/Conv2d_0b_1x7/weights", "op": "Const"}, {"attr": {"dtype": {"type": "DT_FLOAT"}, "value": {"tensor": {"dtype": "DT_FLOAT", "tensorShape": {"dim": [{"size": "160"}]}}}}, "name": "module_apply_default/InceptionResnetV2/InceptionResnetV2/Repeat_1/block17_1/Branch_1/Conv2d_0b_1x7/Conv2D_bn_offset", "op": "Const"}, {"attr": {"dtype": {"type": "DT_FLOAT"}, "value": {"tensor": {"dtype": "DT_FLOAT", "tensorShape": {"dim": [{"size": "7"}, {"size": "1"}, {"size": "160"}, {"size": "192"}]}}}}, "name": "module/InceptionResnetV2/Repeat_1/block17_1/Branch_1/Conv2d_0c_7x1/weights", "op": "Const"}, {"attr": {"dtype": {"type": "DT_FLOAT"}, "value": {"tensor": {"dtype": "DT_FLOAT", "tensorShape": {"dim": [{"size": "192"}]}}}}, "name": "module_apply_default/InceptionResnetV2/InceptionResnetV2/Repeat_1/block17_1/Branch_1/Conv2d_0c_7x1/Conv2D_bn_offset", "op": "Const"}, {"attr": {"dtype": {"type": "DT_FLOAT"}, "value": {"tensor": {"dtype": "DT_FLOAT", "tensorShape": {"dim": [{"size": "1"}, {"size": "1"}, {"size": "1088"}, {"size": "192"}]}}}}, "name": "module/InceptionResnetV2/Repeat_1/block17_2/Branch_0/Conv2d_1x1/weights", "op": "Const"}, {"attr": {"dtype": {"type": "DT_FLOAT"}, "value": {"tensor": {"dtype": "DT_FLOAT", "tensorShape": {"dim": [{"size": "192"}]}}}}, "name": "module_apply_default/InceptionResnetV2/InceptionResnetV2/Repeat_1/block17_2/Branch_0/Conv2d_1x1/Conv2D_bn_offset", "op": "Const"}, {"attr": {"dtype": {"type": "DT_FLOAT"}, "value": {"tensor": {"dtype": "DT_FLOAT", "tensorShape": {"dim": [{"size": "1"}, {"size": "1"}, {"size": "1088"}, {"size": "128"}]}}}}, "name": "module/InceptionResnetV2/Repeat_1/block17_2/Branch_1/Conv2d_0a_1x1/weights", "op": "Const"}, {"attr": {"dtype": {"type": "DT_FLOAT"}, "value": {"tensor": {"dtype": "DT_FLOAT", "tensorShape": {"dim": [{"size": "128"}]}}}}, "name": "module_apply_default/InceptionResnetV2/InceptionResnetV2/Repeat_1/block17_2/Branch_1/Conv2d_0a_1x1/Conv2D_bn_offset", "op": "Const"}, {"attr": {"dtype": {"type": "DT_FLOAT"}, "value": {"tensor": {"dtype": "DT_FLOAT", "tensorShape": {"dim": [{"size": "1"}, {"size": "7"}, {"size": "128"}, {"size": "160"}]}}}}, "name": "module/InceptionResnetV2/Repeat_1/block17_2/Branch_1/Conv2d_0b_1x7/weights", "op": "Const"}, {"attr": {"dtype": {"type": "DT_FLOAT"}, "value": {"tensor": {"dtype": "DT_FLOAT", "tensorShape": {"dim": [{"size": "160"}]}}}}, "name": "module_apply_default/InceptionResnetV2/InceptionResnetV2/Repeat_1/block17_2/Branch_1/Conv2d_0b_1x7/Conv2D_bn_offset", "op": "Const"}, {"attr": {"dtype": {"type": "DT_FLOAT"}, "value": {"tensor": {"dtype": "DT_FLOAT", "tensorShape": {"dim": [{"size": "7"}, {"size": "1"}, {"size": "160"}, {"size": "192"}]}}}}, "name": "module/InceptionResnetV2/Repeat_1/block17_2/Branch_1/Conv2d_0c_7x1/weights", "op": "Const"}, {"attr": {"dtype": {"type": "DT_FLOAT"}, "value": {"tensor": {"dtype": "DT_FLOAT", "tensorShape": {"dim": [{"size": "192"}]}}}}, "name": "module_apply_default/InceptionResnetV2/InceptionResnetV2/Repeat_1/block17_2/Branch_1/Conv2d_0c_7x1/Conv2D_bn_offset", "op": "Const"}, {"attr": {"dtype": {"type": "DT_FLOAT"}, "value": {"tensor": {"dtype": "DT_FLOAT", "tensorShape": {"dim": [{"size": "1"}, {"size": "1"}, {"size": "1088"}, {"size": "192"}]}}}}, "name": "module/InceptionResnetV2/Repeat_1/block17_3/Branch_0/Conv2d_1x1/weights", "op": "Const"}, {"attr": {"dtype": {"type": "DT_FLOAT"}, "value": {"tensor": {"dtype": "DT_FLOAT", "tensorShape": {"dim": [{"size": "192"}]}}}}, "name": "module_apply_default/InceptionResnetV2/InceptionResnetV2/Repeat_1/block17_3/Branch_0/Conv2d_1x1/Conv2D_bn_offset", "op": "Const"}, {"attr": {"dtype": {"type": "DT_FLOAT"}, "value": {"tensor": {"dtype": "DT_FLOAT", "tensorShape": {"dim": [{"size": "1"}, {"size": "1"}, {"size": "1088"}, {"size": "128"}]}}}}, "name": "module/InceptionResnetV2/Repeat_1/block17_3/Branch_1/Conv2d_0a_1x1/weights", "op": "Const"}, {"attr": {"dtype": {"type": "DT_FLOAT"}, "value": {"tensor": {"dtype": "DT_FLOAT", "tensorShape": {"dim": [{"size": "128"}]}}}}, "name": "module_apply_default/InceptionResnetV2/InceptionResnetV2/Repeat_1/block17_3/Branch_1/Conv2d_0a_1x1/Conv2D_bn_offset", "op": "Const"}, {"attr": {"dtype": {"type": "DT_FLOAT"}, "value": {"tensor": {"dtype": "DT_FLOAT", "tensorShape": {"dim": [{"size": "1"}, {"size": "7"}, {"size": "128"}, {"size": "160"}]}}}}, "name": "module/InceptionResnetV2/Repeat_1/block17_3/Branch_1/Conv2d_0b_1x7/weights", "op": "Const"}, {"attr": {"dtype": {"type": "DT_FLOAT"}, "value": {"tensor": {"dtype": "DT_FLOAT", "tensorShape": {"dim": [{"size": "160"}]}}}}, "name": "module_apply_default/InceptionResnetV2/InceptionResnetV2/Repeat_1/block17_3/Branch_1/Conv2d_0b_1x7/Conv2D_bn_offset", "op": "Const"}, {"attr": {"dtype": {"type": "DT_FLOAT"}, "value": {"tensor": {"dtype": "DT_FLOAT", "tensorShape": {"dim": [{"size": "7"}, {"size": "1"}, {"size": "160"}, {"size": "192"}]}}}}, "name": "module/InceptionResnetV2/Repeat_1/block17_3/Branch_1/Conv2d_0c_7x1/weights", "op": "Const"}, {"attr": {"dtype": {"type": "DT_FLOAT"}, "value": {"tensor": {"dtype": "DT_FLOAT", "tensorShape": {"dim": [{"size": "192"}]}}}}, "name": "module_apply_default/InceptionResnetV2/InceptionResnetV2/Repeat_1/block17_3/Branch_1/Conv2d_0c_7x1/Conv2D_bn_offset", "op": "Const"}, {"attr": {"dtype": {"type": "DT_FLOAT"}, "value": {"tensor": {"dtype": "DT_FLOAT", "tensorShape": {"dim": [{"size": "1"}, {"size": "1"}, {"size": "1088"}, {"size": "192"}]}}}}, "name": "module/InceptionResnetV2/Repeat_1/block17_4/Branch_0/Conv2d_1x1/weights", "op": "Const"}, {"attr": {"dtype": {"type": "DT_FLOAT"}, "value": {"tensor": {"dtype": "DT_FLOAT", "tensorShape": {"dim": [{"size": "192"}]}}}}, "name": "module_apply_default/InceptionResnetV2/InceptionResnetV2/Repeat_1/block17_4/Branch_0/Conv2d_1x1/Conv2D_bn_offset", "op": "Const"}, {"attr": {"dtype": {"type": "DT_FLOAT"}, "value": {"tensor": {"dtype": "DT_FLOAT", "tensorShape": {"dim": [{"size": "1"}, {"size": "1"}, {"size": "1088"}, {"size": "128"}]}}}}, "name": "module/InceptionResnetV2/Repeat_1/block17_4/Branch_1/Conv2d_0a_1x1/weights", "op": "Const"}, {"attr": {"dtype": {"type": "DT_FLOAT"}, "value": {"tensor": {"dtype": "DT_FLOAT", "tensorShape": {"dim": [{"size": "128"}]}}}}, "name": "module_apply_default/InceptionResnetV2/InceptionResnetV2/Repeat_1/block17_4/Branch_1/Conv2d_0a_1x1/Conv2D_bn_offset", "op": "Const"}, {"attr": {"dtype": {"type": "DT_FLOAT"}, "value": {"tensor": {"dtype": "DT_FLOAT", "tensorShape": {"dim": [{"size": "1"}, {"size": "7"}, {"size": "128"}, {"size": "160"}]}}}}, "name": "module/InceptionResnetV2/Repeat_1/block17_4/Branch_1/Conv2d_0b_1x7/weights", "op": "Const"}, {"attr": {"dtype": {"type": "DT_FLOAT"}, "value": {"tensor": {"dtype": "DT_FLOAT", "tensorShape": {"dim": [{"size": "160"}]}}}}, "name": "module_apply_default/InceptionResnetV2/InceptionResnetV2/Repeat_1/block17_4/Branch_1/Conv2d_0b_1x7/Conv2D_bn_offset", "op": "Const"}, {"attr": {"dtype": {"type": "DT_FLOAT"}, "value": {"tensor": {"dtype": "DT_FLOAT", "tensorShape": {"dim": [{"size": "7"}, {"size": "1"}, {"size": "160"}, {"size": "192"}]}}}}, "name": "module/InceptionResnetV2/Repeat_1/block17_4/Branch_1/Conv2d_0c_7x1/weights", "op": "Const"}, {"attr": {"dtype": {"type": "DT_FLOAT"}, "value": {"tensor": {"dtype": "DT_FLOAT", "tensorShape": {"dim": [{"size": "192"}]}}}}, "name": "module_apply_default/InceptionResnetV2/InceptionResnetV2/Repeat_1/block17_4/Branch_1/Conv2d_0c_7x1/Conv2D_bn_offset", "op": "Const"}, {"attr": {"dtype": {"type": "DT_FLOAT"}, "value": {"tensor": {"dtype": "DT_FLOAT", "tensorShape": {"dim": [{"size": "1"}, {"size": "1"}, {"size": "1088"}, {"size": "192"}]}}}}, "name": "module/InceptionResnetV2/Repeat_1/block17_5/Branch_0/Conv2d_1x1/weights", "op": "Const"}, {"attr": {"dtype": {"type": "DT_FLOAT"}, "value": {"tensor": {"dtype": "DT_FLOAT", "tensorShape": {"dim": [{"size": "192"}]}}}}, "name": "module_apply_default/InceptionResnetV2/InceptionResnetV2/Repeat_1/block17_5/Branch_0/Conv2d_1x1/Conv2D_bn_offset", "op": "Const"}, {"attr": {"dtype": {"type": "DT_FLOAT"}, "value": {"tensor": {"dtype": "DT_FLOAT", "tensorShape": {"dim": [{"size": "1"}, {"size": "1"}, {"size": "1088"}, {"size": "128"}]}}}}, "name": "module/InceptionResnetV2/Repeat_1/block17_5/Branch_1/Conv2d_0a_1x1/weights", "op": "Const"}, {"attr": {"dtype": {"type": "DT_FLOAT"}, "value": {"tensor": {"dtype": "DT_FLOAT", "tensorShape": {"dim": [{"size": "128"}]}}}}, "name": "module_apply_default/InceptionResnetV2/InceptionResnetV2/Repeat_1/block17_5/Branch_1/Conv2d_0a_1x1/Conv2D_bn_offset", "op": "Const"}, {"attr": {"dtype": {"type": "DT_FLOAT"}, "value": {"tensor": {"dtype": "DT_FLOAT", "tensorShape": {"dim": [{"size": "1"}, {"size": "7"}, {"size": "128"}, {"size": "160"}]}}}}, "name": "module/InceptionResnetV2/Repeat_1/block17_5/Branch_1/Conv2d_0b_1x7/weights", "op": "Const"}, {"attr": {"dtype": {"type": "DT_FLOAT"}, "value": {"tensor": {"dtype": "DT_FLOAT", "tensorShape": {"dim": [{"size": "160"}]}}}}, "name": "module_apply_default/InceptionResnetV2/InceptionResnetV2/Repeat_1/block17_5/Branch_1/Conv2d_0b_1x7/Conv2D_bn_offset", "op": "Const"}, {"attr": {"dtype": {"type": "DT_FLOAT"}, "value": {"tensor": {"dtype": "DT_FLOAT", "tensorShape": {"dim": [{"size": "7"}, {"size": "1"}, {"size": "160"}, {"size": "192"}]}}}}, "name": "module/InceptionResnetV2/Repeat_1/block17_5/Branch_1/Conv2d_0c_7x1/weights", "op": "Const"}, {"attr": {"dtype": {"type": "DT_FLOAT"}, "value": {"tensor": {"dtype": "DT_FLOAT", "tensorShape": {"dim": [{"size": "192"}]}}}}, "name": "module_apply_default/InceptionResnetV2/InceptionResnetV2/Repeat_1/block17_5/Branch_1/Conv2d_0c_7x1/Conv2D_bn_offset", "op": "Const"}, {"attr": {"dtype": {"type": "DT_FLOAT"}, "value": {"tensor": {"dtype": "DT_FLOAT", "tensorShape": {"dim": [{"size": "1"}, {"size": "1"}, {"size": "1088"}, {"size": "192"}]}}}}, "name": "module/InceptionResnetV2/Repeat_1/block17_6/Branch_0/Conv2d_1x1/weights", "op": "Const"}, {"attr": {"dtype": {"type": "DT_FLOAT"}, "value": {"tensor": {"dtype": "DT_FLOAT", "tensorShape": {"dim": [{"size": "192"}]}}}}, "name": "module_apply_default/InceptionResnetV2/InceptionResnetV2/Repeat_1/block17_6/Branch_0/Conv2d_1x1/Conv2D_bn_offset", "op": "Const"}, {"attr": {"dtype": {"type": "DT_FLOAT"}, "value": {"tensor": {"dtype": "DT_FLOAT", "tensorShape": {"dim": [{"size": "1"}, {"size": "1"}, {"size": "1088"}, {"size": "128"}]}}}}, "name": "module/InceptionResnetV2/Repeat_1/block17_6/Branch_1/Conv2d_0a_1x1/weights", "op": "Const"}, {"attr": {"dtype": {"type": "DT_FLOAT"}, "value": {"tensor": {"dtype": "DT_FLOAT", "tensorShape": {"dim": [{"size": "128"}]}}}}, "name": "module_apply_default/InceptionResnetV2/InceptionResnetV2/Repeat_1/block17_6/Branch_1/Conv2d_0a_1x1/Conv2D_bn_offset", "op": "Const"}, {"attr": {"dtype": {"type": "DT_FLOAT"}, "value": {"tensor": {"dtype": "DT_FLOAT", "tensorShape": {"dim": [{"size": "1"}, {"size": "7"}, {"size": "128"}, {"size": "160"}]}}}}, "name": "module/InceptionResnetV2/Repeat_1/block17_6/Branch_1/Conv2d_0b_1x7/weights", "op": "Const"}, {"attr": {"dtype": {"type": "DT_FLOAT"}, "value": {"tensor": {"dtype": "DT_FLOAT", "tensorShape": {"dim": [{"size": "160"}]}}}}, "name": "module_apply_default/InceptionResnetV2/InceptionResnetV2/Repeat_1/block17_6/Branch_1/Conv2d_0b_1x7/Conv2D_bn_offset", "op": "Const"}, {"attr": {"dtype": {"type": "DT_FLOAT"}, "value": {"tensor": {"dtype": "DT_FLOAT", "tensorShape": {"dim": [{"size": "7"}, {"size": "1"}, {"size": "160"}, {"size": "192"}]}}}}, "name": "module/InceptionResnetV2/Repeat_1/block17_6/Branch_1/Conv2d_0c_7x1/weights", "op": "Const"}, {"attr": {"dtype": {"type": "DT_FLOAT"}, "value": {"tensor": {"dtype": "DT_FLOAT", "tensorShape": {"dim": [{"size": "192"}]}}}}, "name": "module_apply_default/InceptionResnetV2/InceptionResnetV2/Repeat_1/block17_6/Branch_1/Conv2d_0c_7x1/Conv2D_bn_offset", "op": "Const"}, {"attr": {"dtype": {"type": "DT_FLOAT"}, "value": {"tensor": {"dtype": "DT_FLOAT", "tensorShape": {"dim": [{"size": "1"}, {"size": "1"}, {"size": "1088"}, {"size": "192"}]}}}}, "name": "module/InceptionResnetV2/Repeat_1/block17_7/Branch_0/Conv2d_1x1/weights", "op": "Const"}, {"attr": {"dtype": {"type": "DT_FLOAT"}, "value": {"tensor": {"dtype": "DT_FLOAT", "tensorShape": {"dim": [{"size": "192"}]}}}}, "name": "module_apply_default/InceptionResnetV2/InceptionResnetV2/Repeat_1/block17_7/Branch_0/Conv2d_1x1/Conv2D_bn_offset", "op": "Const"}, {"attr": {"dtype": {"type": "DT_FLOAT"}, "value": {"tensor": {"dtype": "DT_FLOAT", "tensorShape": {"dim": [{"size": "1"}, {"size": "1"}, {"size": "1088"}, {"size": "128"}]}}}}, "name": "module/InceptionResnetV2/Repeat_1/block17_7/Branch_1/Conv2d_0a_1x1/weights", "op": "Const"}, {"attr": {"dtype": {"type": "DT_FLOAT"}, "value": {"tensor": {"dtype": "DT_FLOAT", "tensorShape": {"dim": [{"size": "128"}]}}}}, "name": "module_apply_default/InceptionResnetV2/InceptionResnetV2/Repeat_1/block17_7/Branch_1/Conv2d_0a_1x1/Conv2D_bn_offset", "op": "Const"}, {"attr": {"dtype": {"type": "DT_FLOAT"}, "value": {"tensor": {"dtype": "DT_FLOAT", "tensorShape": {"dim": [{"size": "1"}, {"size": "7"}, {"size": "128"}, {"size": "160"}]}}}}, "name": "module/InceptionResnetV2/Repeat_1/block17_7/Branch_1/Conv2d_0b_1x7/weights", "op": "Const"}, {"attr": {"dtype": {"type": "DT_FLOAT"}, "value": {"tensor": {"dtype": "DT_FLOAT", "tensorShape": {"dim": [{"size": "160"}]}}}}, "name": "module_apply_default/InceptionResnetV2/InceptionResnetV2/Repeat_1/block17_7/Branch_1/Conv2d_0b_1x7/Conv2D_bn_offset", "op": "Const"}, {"attr": {"dtype": {"type": "DT_FLOAT"}, "value": {"tensor": {"dtype": "DT_FLOAT", "tensorShape": {"dim": [{"size": "7"}, {"size": "1"}, {"size": "160"}, {"size": "192"}]}}}}, "name": "module/InceptionResnetV2/Repeat_1/block17_7/Branch_1/Conv2d_0c_7x1/wei…
ault/InceptionResnetV2/InceptionResnetV2/Repeat_2/block8_2/Conv2d_1x1/BiasAdd"], "attr": {"T": {"type": "DT_FLOAT"}}, "name": "module_apply_default/InceptionResnetV2/InceptionResnetV2/Repeat_2/block8_2/mul", "op": "Mul"}, {"input": ["module_apply_default/InceptionResnetV2/InceptionResnetV2/Repeat_2/block8_1/Relu", "module_apply_default/InceptionResnetV2/InceptionResnetV2/Repeat_2/block8_2/mul"], "attr": {"T": {"type": "DT_FLOAT"}}, "name": "module_apply_default/InceptionResnetV2/InceptionResnetV2/Repeat_2/block8_2/add", "op": "Add"}, {"input": ["module_apply_default/InceptionResnetV2/InceptionResnetV2/Repeat_2/block8_2/add"], "attr": {"T": {"type": "DT_FLOAT"}}, "name": "module_apply_default/InceptionResnetV2/InceptionResnetV2/Repeat_2/block8_2/Relu", "op": "Relu"}, {"device": "/device:CPU:0", "input": ["module_apply_default/InceptionResnetV2/InceptionResnetV2/Repeat_2/block8_2/Relu", "module/InceptionResnetV2/Repeat_2/block8_3/Branch_0/Conv2d_1x1/weights", "module_apply_default/InceptionResnetV2/InceptionResnetV2/Repeat_2/block8_3/Branch_0/Conv2d_1x1/Conv2D_bn_offset"], "attr": {"explicit_paddings": {"list": {}}, "epsilon": {"f": 0.0}, "data_format": {"s": "TkhXQw=="}, "use_cudnn_on_gpu": {"b": true}, "padding": {"s": "U0FNRQ=="}, "strides": {"list": {"i": ["1", "1", "1", "1"]}}, "num_args": {"i": "1"}, "T": {"type": "DT_FLOAT"}, "dilations": {"list": {"i": ["1", "1", "1", "1"]}}, "fused_ops": {"list": {"s": ["Qmlhc0FkZA=="]}}}, "name": "module_apply_default/InceptionResnetV2/InceptionResnetV2/Repeat_2/block8_3/Branch_0/Conv2d_1x1/BatchNorm/FusedBatchNorm", "op": "_FusedConv2D"}, {"device": "/device:CPU:0", "input": ["module_apply_default/InceptionResnetV2/InceptionResnetV2/Repeat_2/block8_2/Relu", "module/InceptionResnetV2/Repeat_2/block8_3/Branch_1/Conv2d_0a_1x1/weights", "module_apply_default/InceptionResnetV2/InceptionResnetV2/Repeat_2/block8_3/Branch_1/Conv2d_0a_1x1/Conv2D_bn_offset"], "attr": {"explicit_paddings": {"list": {}}, "epsilon": {"f": 0.0}, "data_format": {"s": "TkhXQw=="}, "use_cudnn_on_gpu": {"b": true}, "padding": {"s": "U0FNRQ=="}, "strides": {"list": {"i": ["1", "1", "1", "1"]}}, "num_args": {"i": "1"}, "T": {"type": "DT_FLOAT"}, "dilations": {"list": {"i": ["1", "1", "1", "1"]}}, "fused_ops": {"list": {"s": ["Qmlhc0FkZA==", "UmVsdQ=="]}}}, "name": "module_apply_default/InceptionResnetV2/InceptionResnetV2/Repeat_2/block8_3/Branch_1/Conv2d_0a_1x1/Relu", "op": "_FusedConv2D"}, {"device": "/device:CPU:0", "input": ["module_apply_default/InceptionResnetV2/InceptionResnetV2/Repeat_2/block8_3/Branch_1/Conv2d_0a_1x1/Relu", "module/InceptionResnetV2/Repeat_2/block8_3/Branch_1/Conv2d_0b_1x3/weights", "module_apply_default/InceptionResnetV2/InceptionResnetV2/Repeat_2/block8_3/Branch_1/Conv2d_0b_1x3/Conv2D_bn_offset"], "attr": {"explicit_paddings": {"list": {}}, "epsilon": {"f": 0.0}, "data_format": {"s": "TkhXQw=="}, "use_cudnn_on_gpu": {"b": true}, "padding": {"s": "U0FNRQ=="}, "strides": {"list": {"i": ["1", "1", "1", "1"]}}, "num_args": {"i": "1"}, "T": {"type": "DT_FLOAT"}, "dilations": {"list": {"i": ["1", "1", "1", "1"]}}, "fused_ops": {"list": {"s": ["Qmlhc0FkZA==", "UmVsdQ=="]}}}, "name": "module_apply_default/InceptionResnetV2/InceptionResnetV2/Repeat_2/block8_3/Branch_1/Conv2d_0b_1x3/Relu", "op": "_FusedConv2D"}, {"device": "/device:CPU:0", "input": ["module_apply_default/InceptionResnetV2/InceptionResnetV2/Repeat_2/block8_3/Branch_1/Conv2d_0b_1x3/Relu", "module/InceptionResnetV2/Repeat_2/block8_3/Branch_1/Conv2d_0c_3x1/weights", "module_apply_default/InceptionResnetV2/InceptionResnetV2/Repeat_2/block8_3/Branch_1/Conv2d_0c_3x1/Conv2D_bn_offset"], "attr": {"explicit_paddings": {"list": {}}, "epsilon": {"f": 0.0}, "data_format": {"s": "TkhXQw=="}, "use_cudnn_on_gpu": {"b": true}, "padding": {"s": "U0FNRQ=="}, "strides": {"list": {"i": ["1", "1", "1", "1"]}}, "num_args": {"i": "1"}, "T": {"type": "DT_FLOAT"}, "dilations": {"list": {"i": ["1", "1", "1", "1"]}}, "fused_ops": {"list": {"s": ["Qmlhc0FkZA=="]}}}, "name": "module_apply_default/InceptionResnetV2/InceptionResnetV2/Repeat_2/block8_3/Branch_1/Conv2d_0c_3x1/BatchNorm/FusedBatchNorm", "op": "_FusedConv2D"}, {"input": ["module_apply_default/InceptionResnetV2/InceptionResnetV2/Repeat_2/block8_3/Branch_0/Conv2d_1x1/BatchNorm/FusedBatchNorm", "module_apply_default/InceptionResnetV2/InceptionResnetV2/Repeat_2/block8_3/Branch_1/Conv2d_0c_3x1/BatchNorm/FusedBatchNorm", "module_apply_default/InceptionResnetV2/InceptionResnetV2/Mixed_5b/concat/axis"], "attr": {"Tidx": {"type": "DT_INT32"}, "T": {"type": "DT_FLOAT"}, "N": {"i": "2"}}, "name": "module_apply_default/InceptionResnetV2/InceptionResnetV2/Repeat_2/block8_3/concat", "op": "ConcatV2"}, {"input": ["module_apply_default/InceptionResnetV2/InceptionResnetV2/Repeat_2/block8_3/concat"], "attr": {"T": {"type": "DT_FLOAT"}}, "name": "module_apply_default/InceptionResnetV2/InceptionResnetV2/Repeat_2/block8_3/Branch_0/Conv2d_1x1/Relu", "op": "Relu"}, {"device": "/device:CPU:0", "input": ["module_apply_default/InceptionResnetV2/InceptionResnetV2/Repeat_2/block8_3/Branch_0/Conv2d_1x1/Relu", "module/InceptionResnetV2/Repeat_2/block8_3/Conv2d_1x1/weights", "module/InceptionResnetV2/Repeat_2/block8_3/Conv2d_1x1/biases"], "attr": {"explicit_paddings": {"list": {}}, "epsilon": {"f": 0.0}, "data_format": {"s": "TkhXQw=="}, "use_cudnn_on_gpu": {"b": true}, "padding": {"s": "U0FNRQ=="}, "strides": {"list": {"i": ["1", "1", "1", "1"]}}, "num_args": {"i": "1"}, "T": {"type": "DT_FLOAT"}, "dilations": {"list": {"i": ["1", "1", "1", "1"]}}, "fused_ops": {"list": {"s": ["Qmlhc0FkZA=="]}}}, "name": "module_apply_default/InceptionResnetV2/InceptionResnetV2/Repeat_2/block8_3/Conv2d_1x1/BiasAdd", "op": "_FusedConv2D"}, {"input": ["module_apply_default/InceptionResnetV2/InceptionResnetV2/Repeat_2/block8_1/mul/y", "module_apply_default/InceptionResnetV2/InceptionResnetV2/Repeat_2/block8_3/Conv2d_1x1/BiasAdd"], "attr": {"T": {"type": "DT_FLOAT"}}, "name": "module_apply_default/InceptionResnetV2/InceptionResnetV2/Repeat_2/block8_3/mul", "op": "Mul"}, {"input": ["module_apply_default/InceptionResnetV2/InceptionResnetV2/Repeat_2/block8_2/Relu", "module_apply_default/InceptionResnetV2/InceptionResnetV2/Repeat_2/block8_3/mul"], "attr": {"T": {"type": "DT_FLOAT"}}, "name": "module_apply_default/InceptionResnetV2/InceptionResnetV2/Repeat_2/block8_3/add", "op": "Add"}, {"input": ["module_apply_default/InceptionResnetV2/InceptionResnetV2/Repeat_2/block8_3/add"], "attr": {"T": {"type": "DT_FLOAT"}}, "name": "module_apply_default/InceptionResnetV2/InceptionResnetV2/Repeat_2/block8_3/Relu", "op": "Relu"}, {"device": "/device:CPU:0", "input": ["module_apply_default/InceptionResnetV2/InceptionResnetV2/Repeat_2/block8_3/Relu", "module/InceptionResnetV2/Repeat_2/block8_4/Branch_0/Conv2d_1x1/weights", "module_apply_default/InceptionResnetV2/InceptionResnetV2/Repeat_2/block8_4/Branch_0/Conv2d_1x1/Conv2D_bn_offset"], "attr": {"explicit_paddings": {"list": {}}, "epsilon": {"f": 0.0}, "data_format": {"s": "TkhXQw=="}, "use_cudnn_on_gpu": {"b": true}, "padding": {"s": "U0FNRQ=="}, "strides": {"list": {"i": ["1", "1", "1", "1"]}}, "num_args": {"i": "1"}, "T": {"type": "DT_FLOAT"}, "dilations": {"list": {"i": ["1", "1", "1", "1"]}}, "fused_ops": {"list": {"s": ["Qmlhc0FkZA=="]}}}, "name": "module_apply_default/InceptionResnetV2/InceptionResnetV2/Repeat_2/block8_4/Branch_0/Conv2d_1x1/BatchNorm/FusedBatchNorm", "op": "_FusedConv2D"}, {"device": "/device:CPU:0", "input": ["module_apply_default/InceptionResnetV2/InceptionResnetV2/Repeat_2/block8_3/Relu", "module/InceptionResnetV2/Repeat_2/block8_4/Branch_1/Conv2d_0a_1x1/weights", "module_apply_default/InceptionResnetV2/InceptionResnetV2/Repeat_2/block8_4/Branch_1/Conv2d_0a_1x1/Conv2D_bn_offset"], "attr": {"explicit_paddings": {"list": {}}, "epsilon": {"f": 0.0}, "data_format": {"s": "TkhXQw=="}, "use_cudnn_on_gpu": {"b": true}, "padding": {"s": "U0FNRQ=="}, "strides": {"list": {"i": ["1", "1", "1", "1"]}}, "num_args": {"i": "1"}, "T": {"type": "DT_FLOAT"}, "dilations": {"list": {"i": ["1", "1", "1", "1"]}}, "fused_ops": {"list": {"s": ["Qmlhc0FkZA==", "UmVsdQ=="]}}}, "name": "module_apply_default/InceptionResnetV2/InceptionResnetV2/Repeat_2/block8_4/Branch_1/Conv2d_0a_1x1/Relu", "op": "_FusedConv2D"}, {"device": "/device:CPU:0", "input": ["module_apply_default/InceptionResnetV2/InceptionResnetV2/Repeat_2/block8_4/Branch_1/Conv2d_0a_1x1/Relu", "module/InceptionResnetV2/Repeat_2/block8_4/Branch_1/Conv2d_0b_1x3/weights", "module_apply_default/InceptionResnetV2/InceptionResnetV2/Repeat_2/block8_4/Branch_1/Conv2d_0b_1x3/Conv2D_bn_offset"], "attr": {"explicit_paddings": {"list": {}}, "epsilon": {"f": 0.0}, "data_format": {"s": "TkhXQw=="}, "use_cudnn_on_gpu": {"b": true}, "padding": {"s": "U0FNRQ=="}, "strides": {"list": {"i": ["1", "1", "1", "1"]}}, "num_args": {"i": "1"}, "T": {"type": "DT_FLOAT"}, "dilations": {"list": {"i": ["1", "1", "1", "1"]}}, "fused_ops": {"list": {"s": ["Qmlhc0FkZA==", "UmVsdQ=="]}}}, "name": "module_apply_default/InceptionResnetV2/InceptionResnetV2/Repeat_2/block8_4/Branch_1/Conv2d_0b_1x3/Relu", "op": "_FusedConv2D"}, {"device": "/device:CPU:0", "input": ["module_apply_default/InceptionResnetV2/InceptionResnetV2/Repeat_2/block8_4/Branch_1/Conv2d_0b_1x3/Relu", "module/InceptionResnetV2/Repeat_2/block8_4/Branch_1/Conv2d_0c_3x1/weights", "module_apply_default/InceptionResnetV2/InceptionResnetV2/Repeat_2/block8_4/Branch_1/Conv2d_0c_3x1/Conv2D_bn_offset"], "attr": {"explicit_paddings": {"list": {}}, "epsilon": {"f": 0.0}, "data_format": {"s": "TkhXQw=="}, "use_cudnn_on_gpu": {"b": true}, "padding": {"s": "U0FNRQ=="}, "strides": {"list": {"i": ["1", "1", "1", "1"]}}, "num_args": {"i": "1"}, "T": {"type": "DT_FLOAT"}, "dilations": {"list": {"i": ["1", "1", "1", "1"]}}, "fused_ops": {"list": {"s": ["Qmlhc0FkZA=="]}}}, "name": "module_apply_default/InceptionResnetV2/InceptionResnetV2/Repeat_2/block8_4/Branch_1/Conv2d_0c_3x1/BatchNorm/FusedBatchNorm", "op": "_FusedConv2D"}, {"input": ["module_apply_default/InceptionResnetV2/InceptionResnetV2/Repeat_2/block8_4/Branch_0/Conv2d_1x1/BatchNorm/FusedBatchNorm", "module_apply_default/InceptionResnetV2/InceptionResnetV2/Repeat_2/block8_4/Branch_1/Conv2d_0c_3x1/BatchNorm/FusedBatchNorm", "module_apply_default/InceptionResnetV2/InceptionResnetV2/Mixed_5b/concat/axis"], "attr": {"N": {"i": "2"}, "Tidx": {"type": "DT_INT32"}, "T": {"type": "DT_FLOAT"}}, "name": "module_apply_default/InceptionResnetV2/InceptionResnetV2/Repeat_2/block8_4/concat", "op": "ConcatV2"}, {"input": ["module_apply_default/InceptionResnetV2/InceptionResnetV2/Repeat_2/block8_4/concat"], "attr": {"T": {"type": "DT_FLOAT"}}, "name": "module_apply_default/InceptionResnetV2/InceptionResnetV2/Repeat_2/block8_4/Branch_0/Conv2d_1x1/Relu", "op": "Relu"}, {"device": "/device:CPU:0", "input": ["module_apply_default/InceptionResnetV2/InceptionResnetV2/Repeat_2/block8_4/Branch_0/Conv2d_1x1/Relu", "module/InceptionResnetV2/Repeat_2/block8_4/Conv2d_1x1/weights", "module/InceptionResnetV2/Repeat_2/block8_4/Conv2d_1x1/biases"], "attr": {"explicit_paddings": {"list": {}}, "epsilon": {"f": 0.0}, "data_format": {"s": "TkhXQw=="}, "use_cudnn_on_gpu": {"b": true}, "padding": {"s": "U0FNRQ=="}, "strides": {"list": {"i": ["1", "1", "1", "1"]}}, "num_args": {"i": "1"}, "T": {"type": "DT_FLOAT"}, "dilations": {"list": {"i": ["1", "1", "1", "1"]}}, "fused_ops": {"list": {"s": ["Qmlhc0FkZA=="]}}}, "name": "module_apply_default/InceptionResnetV2/InceptionResnetV2/Repeat_2/block8_4/Conv2d_1x1/BiasAdd", "op": "_FusedConv2D"}, {"input": ["module_apply_default/InceptionResnetV2/InceptionResnetV2/Repeat_2/block8_1/mul/y", "module_apply_default/InceptionResnetV2/InceptionResnetV2/Repeat_2/block8_4/Conv2d_1x1/BiasAdd"], "attr": {"T": {"type": "DT_FLOAT"}}, "name": "module_apply_default/InceptionResnetV2/InceptionResnetV2/Repeat_2/block8_4/mul", "op": "Mul"}, {"input": ["module_apply_default/InceptionResnetV2/InceptionResnetV2/Repeat_2/block8_3/Relu", "module_apply_default/InceptionResnetV2/InceptionResnetV2/Repeat_2/block8_4/mul"], "attr": {"T": {"type": "DT_FLOAT"}}, "name": "module_apply_default/InceptionResnetV2/InceptionResnetV2/Repeat_2/block8_4/add", "op": "Add"}, {"input": ["module_apply_default/InceptionResnetV2/InceptionResnetV2/Repeat_2/block8_4/add"], "attr": {"T": {"type": "DT_FLOAT"}}, "name": "module_apply_default/InceptionResnetV2/InceptionResnetV2/Repeat_2/block8_4/Relu", "op": "Relu"}, {"device": "/device:CPU:0", "input": ["module_apply_default/InceptionResnetV2/InceptionResnetV2/Repeat_2/block8_4/Relu", "module/InceptionResnetV2/Repeat_2/block8_5/Branch_0/Conv2d_1x1/weights", "module_apply_default/InceptionResnetV2/InceptionResnetV2/Repeat_2/block8_5/Branch_0/Conv2d_1x1/Conv2D_bn_offset"], "attr": {"explicit_paddings": {"list": {}}, "epsilon": {"f": 0.0}, "data_format": {"s": "TkhXQw=="}, "use_cudnn_on_gpu": {"b": true}, "padding": {"s": "U0FNRQ=="}, "strides": {"list": {"i": ["1", "1", "1", "1"]}}, "num_args": {"i": "1"}, "T": {"type": "DT_FLOAT"}, "dilations": {"list": {"i": ["1", "1", "1", "1"]}}, "fused_ops": {"list": {"s": ["Qmlhc0FkZA=="]}}}, "name": "module_apply_default/InceptionResnetV2/InceptionResnetV2/Repeat_2/block8_5/Branch_0/Conv2d_1x1/BatchNorm/FusedBatchNorm", "op": "_FusedConv2D"}, {"device": "/device:CPU:0", "input": ["module_apply_default/InceptionResnetV2/InceptionResnetV2/Repeat_2/block8_4/Relu", "module/InceptionResnetV2/Repeat_2/block8_5/Branch_1/Conv2d_0a_1x1/weights", "module_apply_default/InceptionResnetV2/InceptionResnetV2/Repeat_2/block8_5/Branch_1/Conv2d_0a_1x1/Conv2D_bn_offset"], "attr": {"explicit_paddings": {"list": {}}, "epsilon": {"f": 0.0}, "data_format": {"s": "TkhXQw=="}, "use_cudnn_on_gpu": {"b": true}, "padding": {"s": "U0FNRQ=="}, "strides": {"list": {"i": ["1", "1", "1", "1"]}}, "num_args": {"i": "1"}, "T": {"type": "DT_FLOAT"}, "dilations": {"list": {"i": ["1", "1", "1", "1"]}}, "fused_ops": {"list": {"s": ["Qmlhc0FkZA==", "UmVsdQ=="]}}}, "name": "module_apply_default/InceptionResnetV2/InceptionResnetV2/Repeat_2/block8_5/Branch_1/Conv2d_0a_1x1/Relu", "op": "_FusedConv2D"}, {"device": "/device:CPU:0", "input": ["module_apply_default/InceptionResnetV2/InceptionResnetV2/Repeat_2/block8_5/Branch_1/Conv2d_0a_1x1/Relu", "module/InceptionResnetV2/Repeat_2/block8_5/Branch_1/Conv2d_0b_1x3/weights", "module_apply_default/InceptionResnetV2/InceptionResnetV2/Repeat_2/block8_5/Branch_1/Conv2d_0b_1x3/Conv2D_bn_offset"], "attr": {"explicit_paddings": {"list": {}}, "epsilon": {"f": 0.0}, "data_format": {"s": "TkhXQw=="}, "use_cudnn_on_gpu": {"b": true}, "padding": {"s": "U0FNRQ=="}, "strides": {"list": {"i": ["1", "1", "1", "1"]}}, "num_args": {"i": "1"}, "T": {"type": "DT_FLOAT"}, "dilations": {"list": {"i": ["1", "1", "1", "1"]}}, "fused_ops": {"list": {"s": ["Qmlhc0FkZA==", "UmVsdQ=="]}}}, "name": "module_apply_default/InceptionResnetV2/InceptionResnetV2/Repeat_2/block8_5/Branch_1/Conv2d_0b_1x3/Relu", "op": "_FusedConv2D"}, {"device": "/device:CPU:0", "input": ["module_apply_default/InceptionResnetV2/InceptionResnetV2/Repeat_2/block8_5/Branch_1/Conv2d_0b_1x3/Relu", "module/InceptionResnetV2/Repeat_2/block8_5/Branch_1/Conv2d_0c_3x1/weights", "module_apply_default/InceptionResnetV2/InceptionResnetV2/Repeat_2/block8_5/Branch_1/Conv2d_0c_3x1/Conv2D_bn_offset"], "attr": {"explicit_paddings": {"list": {}}, "epsilon": {"f": 0.0}, "data_format": {"s": "TkhXQw=="}, "use_cudnn_on_gpu": {"b": true}, "padding": {"s": "U0FNRQ=="}, "strides": {"list": {"i": ["1", "1", "1", "1"]}}, "num_args": {"i": "1"}, "T": {"type": "DT_FLOAT"}, "dilations": {"list": {"i": ["1", "1", "1", "1"]}}, "fused_ops": {"list": {"s": ["Qmlhc0FkZA=="]}}}, "name": "module_apply_default/InceptionResnetV2/InceptionResnetV2/Repeat_2/block8_5/Branch_1/Conv2d_0c_3x1/BatchNorm/FusedBatchNorm", "op": "_FusedConv2D"}, {"input": ["module_apply_default/InceptionResnetV2/InceptionResnetV2/Repeat_2/block8_5/Branch_0/Conv2d_1x1/BatchNorm/FusedBatchNorm", "module_apply_default/InceptionResnetV2/InceptionResnetV2/Repeat_2/block8_5/Branch_1/Conv2d_0c_3x1/BatchNorm/FusedBatchNorm", "module_apply_default/InceptionResnetV2/InceptionResnetV2/Mixed_5b/concat/axis"], "attr": {"Tidx": {"type": "DT_INT32"}, "T": {"type": "DT_FLOAT"}, "N": {"i": "2"}}, "name": "module_apply_default/InceptionResnetV2/InceptionResnetV2/Repeat_2/block8_5/concat", "op": "ConcatV2"}, {"input": ["module_apply_default/InceptionResnetV2/InceptionResnetV2/Repeat_2/block8_5/concat"], "attr": {"T": {"type": "DT_FLOAT"}}, "name": "module_apply_default/InceptionResnetV2/InceptionResnetV2/Repeat_2/block8_5/Branch_0/Conv2d_1x1/Relu", "op": "Relu"}, {"device": "/device:CPU:0", "input": ["module_apply_default/InceptionResnetV2/InceptionResnetV2/Repeat_2/block8_5/Branch_0/Conv2d_1x1/Relu", "module/InceptionResnetV2/Repeat_2/block8_5/Conv2d_1x1/weights", "module/InceptionResnetV2/Repeat_2/block8_5/Conv2d_1x1/biases"], "attr": {"explicit_paddings": {"list": {}}, "epsilon": {"f": 0.0}, "data_format": {"s": "TkhXQw=="}, "use_cudnn_on_gpu": {"b": true}, "padding": {"s": "U0FNRQ=="}, "strides": {"list": {"i": ["1", "1", "1", "1"]}}, "num_args": {"i": "1"}, "T": {"type": "DT_FLOAT"}, "dilations": {"list": {"i": ["1", "1", "1", "1"]}}, "fused_ops": {"list": {"s": ["Qmlhc0FkZA=="]}}}, "name": "module_apply_default/InceptionResnetV2/InceptionResnetV2/Repeat_2/block8_5/Conv2d_1x1/BiasAdd", "op": "_FusedConv2D"}, {"input": ["module_apply_default/InceptionResnetV2/InceptionResnetV2/Repeat_2/block8_1/mul/y", "module_apply_default/InceptionResnetV2/InceptionResnetV2/Repeat_2/block8_5/Conv2d_1x1/BiasAdd"], "attr": {"T": {"type": "DT_FLOAT"}}, "name": "module_apply_default/InceptionResnetV2/InceptionResnetV2/Repeat_2/block8_5/mul", "op": "Mul"}, {"input": ["module_apply_default/InceptionResnetV2/InceptionResnetV2/Repeat_2/block8_4/Relu", "module_apply_default/InceptionResnetV2/InceptionResnetV2/Repeat_2/block8_5/mul"], "attr": {"T": {"type": "DT_FLOAT"}}, "name": "module_apply_default/InceptionResnetV2/InceptionResnetV2/Repeat_2/block8_5/add", "op": "Add"}, {"input": ["module_apply_default/InceptionResnetV2/InceptionResnetV2/Repeat_2/block8_5/add"], "attr": {"T": {"type": "DT_FLOAT"}}, "name": "module_apply_default/InceptionResnetV2/InceptionResnetV2/Repeat_2/block8_5/Relu", "op": "Relu"}, {"device": "/device:CPU:0", "input": ["module_apply_default/InceptionResnetV2/InceptionResnetV2/Repeat_2/block8_5/Relu", "module/InceptionResnetV2/Repeat_2/block8_6/Branch_0/Conv2d_1x1/weights", "module_apply_default/InceptionResnetV2/InceptionResnetV2/Repeat_2/block8_6/Branch_0/Conv2d_1x1/Conv2D_bn_offset"], "attr": {"explicit_paddings": {"list": {}}, "epsilon": {"f": 0.0}, "data_format": {"s": "TkhXQw=="}, "use_cudnn_on_gpu": {"b": true}, "padding": {"s": "U0FNRQ=="}, "strides": {"list": {"i": ["1", "1", "1", "1"]}}, "num_args": {"i": "1"}, "T": {"type": "DT_FLOAT"}, "dilations": {"list": {"i": ["1", "1", "1", "1"]}}, "fused_ops": {"list": {"s": ["Qmlhc0FkZA=="]}}}, "name": "module_apply_default/InceptionResnetV2/InceptionResnetV2/Repeat_2/block8_6/Branch_0/Conv2d_1x1/BatchNorm/FusedBatchNorm", "op": "_FusedConv2D"}, {"device": "/device:CPU:0", "input": ["module_apply_default/InceptionResnetV2/InceptionResnetV2/Repeat_2/block8_5/Relu", "module/InceptionResnetV2/Repeat_2/block8_6/Branch_1/Conv2d_0a_1x1/weights", "module_apply_default/InceptionResnetV2/InceptionResnetV2/Repeat_2/block8_6/Branch_1/Conv2d_0a_1x1/Conv2D_bn_offset"], "attr": {"explicit_paddings": {"list": {}}, "epsilon": {"f": 0.0}, "data_format": {"s": "TkhXQw=="}, "use_cudnn_on_gpu": {"b": true}, "padding": {"s": "U0FNRQ=="}, "strides": {"list": {"i": ["1", "1", "1", "1"]}}, "num_args": {"i": "1"}, "T": {"type": "DT_FLOAT"}, "dilations": {"list": {"i": ["1", "1", "1", "1"]}}, "fused_ops": {"list": {"s": ["Qmlhc0FkZA==", "UmVsdQ=="]}}}, "name": "module_apply_default/InceptionResnetV2/InceptionResnetV2/Repeat_2/block8_6/Branch_1/Conv2d_0a_1x1/Relu", "op": "_FusedConv2D"}, {"device": "/device:CPU:0", "input": ["module_apply_default/InceptionResnetV2/InceptionResnetV2/Repeat_2/block8_6/Branch_1/Conv2d_0a_1x1/Relu", "module/InceptionResnetV2/Repeat_2/block8_6/Branch_1/Conv2d_0b_1x3/weights", "module_apply_default/InceptionResnetV2/InceptionResnetV2/Repeat_2/block8_6/Branch_1/Conv2d_0b_1x3/Conv2D_bn_offset"], "attr": {"explicit_paddings": {"list": {}}, "epsilon": {"f": 0.0}, "data_format": {"s": "TkhXQw=="}, "use_cudnn_on_gpu": {"b": true}, "padding": {"s": "U0FNRQ=="}, "strides": {"list": {"i": ["1", "1", "1", "1"]}}, "num_args": {"i": "1"}, "T": {"type": "DT_FLOAT"}, "dilations": {"list": {"i": ["1", "1", "1", "1"]}}, "fused_ops": {"list": {"s": ["Qmlhc0FkZA==", "UmVsdQ=="]}}}, "name": "module_apply_default/InceptionResnetV2/InceptionResnetV2/Repeat_2/block8_6/Branch_1/Conv2d_0b_1x3/Relu", "op": "_FusedConv2D"}, {"device": "/device:CPU:0", "input": ["module_apply_default/InceptionResnetV2/InceptionResnetV2/Repeat_2/block8_6/Branch_1/Conv2d_0b_1x3/Relu", "module/InceptionResnetV2/Repeat_2/block8_6/Branch_1/Conv2d_0c_3x1/weights", "module_apply_default/InceptionResnetV2/InceptionResnetV2/Repeat_2/block8_6/Branch_1/Conv2d_0c_3x1/Conv2D_bn_offset"], "attr": {"explicit_paddings": {"list": {}}, "epsilon": {"f": 0.0}, "data_format": {"s": "TkhXQw=="}, "use_cudnn_on_gpu": {"b": true}, "padding": {"s": "U0FNRQ=="}, "strides": {"list": {"i": ["1", "1", "1", "1"]}}, "num_args": {"i": "1"}, "T": {"type": "DT_FLOAT"}, "dilations": {"list": {"i": ["1", "1", "1", "1"]}}, "fused_ops": {"list": {"s": ["Qmlhc0FkZA=="]}}}, "name": "module_apply_default/InceptionResnetV2/InceptionResnetV2/Repeat_2/block8_6/Branch_1/Conv2d_0c_3x1/BatchNorm/FusedBatchNorm", "op": "_FusedConv2D"}, {"input": ["module_apply_default/InceptionResnetV2/InceptionResnetV2/Repeat_2/block8_6/Branch_0/Conv2d_1x1/BatchNorm/FusedBatchNorm", "module_apply_default/InceptionResnetV2/InceptionResnetV2/Repeat_2/block8_6/Branch_1/Conv2d_0c_3x1/BatchNorm/FusedBatchNorm", "module_apply_default/InceptionResnetV2/InceptionResnetV2/Mixed_5b/concat/axis"], "attr": {"Tidx": {"type": "DT_INT32"}, "T": {"type": "DT_FLOAT"}, "N": {"i": "2"}}, "name": "module_apply_default/InceptionResnetV2/InceptionResnetV2/Repeat_2/block8_6/concat", "op": "ConcatV2"}, {"input": ["module_apply_default/InceptionResnetV2/InceptionResnetV2/Repeat_2/block8_6/concat"], "attr": {"T": {"type": "DT_FLOAT"}}, "name": "module_apply_default/InceptionResnetV2/InceptionResnetV2/Repeat_2/block8_6/Branch_0/Conv2d_1x1/Relu", "op": "Relu"}, {"device": "/device:CPU:0", "input": ["module_apply_default/InceptionResnetV2/InceptionResnetV2/Repeat_2/block8_6/Branch_0/Conv2d_1x1/Relu", "module/InceptionResnetV2/Repeat_2/block8_6/Conv2d_1x1/weights", "module/InceptionResnetV2/Repeat_2/block8_6/Conv2d_1x1/biases"], "attr": {"explicit_paddings": {"list": {}}, "epsilon": {"f": 0.0}, "data_format": {"s": "TkhXQw=="}, "use_cudnn_on_gpu": {"b": true}, "padding": {"s": "U0FNRQ=="}, "strides": {"list": {"i": ["1", "1", "1", "1"]}}, "num_args": {"i": "1"}, "T": {"type": "DT_FLOAT"}, "dilations": {"list": {"i": ["1", "1", "1", "1"]}}, "fused_ops": {"list": {"s": ["Qmlhc0FkZA=="]}}}, "name": "module_apply_default/InceptionResnetV2/InceptionResnetV2/Repeat_2/block8_6/Conv2d_1x1/BiasAdd", "op": "_FusedConv2D"}, {"input": ["module_apply_default/InceptionResnetV2/InceptionResnetV2/Repeat_2/block8_1/mul/y", "module_apply_default/InceptionResnetV2/InceptionResnetV2/Repeat_2/block8_6/Conv2d_1x1/BiasAdd"], "attr": {"T": {"type": "DT_FLOAT"}}, "name": "module_apply_default/InceptionResnetV2/InceptionResnetV2/Repeat_2/block8_6/mul", "op": "Mul"}, {"input": ["module_apply_default/InceptionResnetV2/InceptionResnetV2/Repeat_2/block8_5/Relu", "module_apply_default/InceptionResnetV2/InceptionResnetV2/Repeat_2/block8_6/mul"], "attr": {"T": {"type": "DT_FLOAT"}}, "name": "module_apply_default/InceptionResnetV2/InceptionResnetV2/Repeat_2/block8_6/add", "op": "Add"}, {"input": ["module_apply_default/InceptionResnetV2/InceptionResnetV2/Repeat_2/block8_6/add"], "attr": {"T": {"type": "DT_FLOAT"}}, "name": "module_apply_default/InceptionResnetV2/InceptionResnetV2/Repeat_2/block8_6/Relu", "op": "Relu"}, {"device": "/device:CPU:0", "input": ["module_apply_default/InceptionResnetV2/InceptionResnetV2/Repeat_2/block8_6/Relu", "module/InceptionResnetV2/Repeat_2/block8_7/Branch_0/Conv2d_1x1/weights", "module_apply_default/InceptionResnetV2/InceptionResnetV2/Repeat_2/block8_7/Branch_0/Conv2d_1x1/Conv2D_bn_offset"], "attr": {"explicit_paddings": {"list": {}}, "epsilon": {"f": 0.0}, "data_format": {"s": "TkhXQw=="}, "use_cudnn_on_gpu": {"b": true}, "padding": {"s": "U0FNRQ=="}, "strides": {"list": {"i": ["1", "1", "1", "1"]}}, "num_args": {"i": "1"}, "T": {"type": "DT_FLOAT"}, "dilations": {"list": {"i": ["1", "1", "1", "1"]}}, "fused_ops": {"list": {"s": ["Qmlhc0FkZA=="]}}}, "name": "module_apply_default/InceptionResnetV2/InceptionResnetV2/Repeat_2/block8_7/Branch_0/Conv2d_1x1/BatchNorm/FusedBatchNorm", "op": "_FusedConv2D"}, {"device": "/device:CPU:0", "input": ["module_apply_default/InceptionResnetV2/InceptionResnetV2/Repeat_2/block8_6/Relu", "module/InceptionResnetV2/Repeat_2/block8_7/Branch_1/Conv2d_0a_1x1/weights", "module_apply_default/InceptionResnetV2/InceptionResnetV2/Repeat_2/block8_7/Branch_1/Conv2d_0a_1x1/Conv2D_bn_offset"], "attr": {"explicit_paddings": {"list": {}}, "epsilon": {"f": 0.0}, "data_format": {"s": "TkhXQw=="}, "use_cudnn_on_gpu": {"b": true}, "padding": {"s": "U0FNRQ=="}, "strides": {"list": {"i": ["1", "1", "1", "1"]}}, "num_args": {"i": "1"}, "T": {"type": "DT_FLOAT"}, "dilations": {"list": {"i": ["1", "1", "1", "1"]}}, "fused_ops": {"list": {"s": ["Qmlhc0FkZA==", "UmVsdQ=="]}}}, "name": "module_apply_default/InceptionResnetV2/InceptionResnetV2/Repeat_2/block8_7/Branch_1/Conv2d_0a_1x1/Relu", "op": "_FusedConv2D"}, {"device": "/device:CPU:0", "input": ["module_apply_default/InceptionResnetV2/InceptionResnetV2/Repeat_2/block8_7/Branch_1/Conv2d_0a_1x1/Relu", "module/InceptionResnetV2/Repeat_2/block8_7/Branch_1/Conv2d_0b_1x3/weights", "module_apply_default/InceptionResnetV2/InceptionResnetV2/Repeat_2/block8_7/Branch_1/Conv2d_0b_1x3/Conv2D_bn_offset"], "attr": {"explicit_paddings": {"list": {}}, "epsilon": {"f": 0.0}, "data_format": {"s": "TkhXQw=="}, "use_cudnn_on_gpu": {"b": true}, "padding": {"s": "U0FNRQ=="}, "strides": {"list": {"i": ["1", "1", "1", "1"]}}, "num_args": {"i": "1"}, "T": {"type": "DT_FLOAT"}, "dilations": {"list": {"i": ["1", "1", "1", "1"]}}, "fused_ops": {"list": {"s": ["Qmlhc0FkZA==", "UmVsdQ=="]}}}, "name": "module_apply_default/InceptionResnetV2/InceptionResnetV2/Repeat_2/block8_7/Branch_1/Conv2d_0b_1x3/Relu", "op": "_FusedConv2D"}, {"device": "/device:CPU:0", "input": ["module_apply_default/InceptionResnetV2/InceptionResnetV2/Repeat_2/block8_7/Branch_1/Conv2d_0b_1x3/Relu", "module/InceptionResnetV2/Repeat_2/block8_7/Branch_1/Conv2d_0c_3x1/weights", "module_apply_default/InceptionResnetV2/InceptionResnetV2/Repeat_2/block8_7/Branch_1/Conv2d_0c_3x1/Conv2D_bn_offset"], "attr": {"explicit_paddings": {"list": {}}, "epsilon": {"f": 0.0}, "data_format": {"s": "TkhXQw=="}, "use_cudnn_on_gpu": {"b": true}, "padding": {"s": "U0FNRQ=="}, "strides": {"list": {"i": ["1", "1", "1", "1"]}}, "num_args": {"i": "1"}, "T": {"type": "DT_FLOAT"}, "dilations": {"list": {"i": ["1", "1", "1", "1"]}}, "fused_ops": {"list": {"s": ["Qmlhc0FkZA=="]}}}, "name": "module_apply_default/InceptionResnetV2/InceptionResnetV2/Repeat_2/block8_7/Branch_1/Conv2d_0c_3x1/BatchNorm/FusedBatchNorm", "op": "_FusedConv2D"}, {"input": ["module_apply_default/InceptionResnetV2/InceptionResnetV2/Repeat_2/block8_7/Branch_0/Conv2d_1x1/BatchNorm/FusedBatchNorm", "module_apply_default/InceptionResnetV2/InceptionResnetV2/Repeat_2/block8_7/Branch_1/Conv2d_0c_3x1/BatchNorm/FusedBatchNorm", "module_apply_default/InceptionResnetV2/InceptionResnetV2/Mixed_5b/concat/axis"], "attr": {"Tidx": {"type": "DT_INT32"}, "T": {"type": "DT_FLOAT"}, "N": {"i": "2"}}, "name": "module_apply_default/InceptionResnetV2/InceptionResnetV2/Repeat_2/block8_7/concat", "op": "ConcatV2"}, {"input": ["module_apply_default/InceptionResnetV2/InceptionResnetV2/Repeat_2/block8_7/concat"], "attr": {"T": {"type": "DT_FLOAT"}}, "name": "module_apply_default/InceptionResnetV2/InceptionResnetV2/Repeat_2/block8_7/Branch_0/Conv2d_1x1/Relu", "op": "Relu"}, {"device": "/device:CPU:0", "input": ["module_apply_default/InceptionResnetV2/InceptionResnetV2/Repeat_2/block8_7/Branch_0/Conv2d_1x1/Relu", "module/InceptionResnetV2/Repeat_2/block8_7/Conv2d_1x1/weights", "module/InceptionResnetV2/Repeat_2/block8_7/Conv2d_1x1/biases"], "attr": {"explicit_paddings": {"list": {}}, "epsilon": {"f": 0.0}, "data_format": {"s": "TkhXQw=="}, "use_cudnn_on_gpu": {"b": true}, "padding": {"s": "U0FNRQ=="}, "strides": {"list": {"i": ["1", "1", "1", "1"]}}, "num_args": {"i": "1"}, "T": {"type": "DT_FLOAT"}, "dilations": {"list": {"i": ["1", "1", "1", "1"]}}, "fused_ops": {"list": {"s": ["Qmlhc0FkZA=="]}}}, "name": "module_apply_default/InceptionResnetV2/InceptionResnetV2/Repeat_2/block8_7/Conv2d_1x1/BiasAdd", "op": "_FusedConv2D"}, {"input": ["module_apply_default/InceptionResnetV2/InceptionResnetV2/Repeat_2/block8_1/mul/y", "module_apply_default/InceptionResnetV2/InceptionResnetV2/Repeat_2/block8_7/Conv2d_1x1/BiasAdd"], "attr": {"T": {"type": "DT_FLOAT"}}, "name": "module_apply_default/InceptionResnetV2/InceptionResnetV2/Repeat_2/block8_7/mul", "op": "Mul"}, {"input": ["module_apply_default/InceptionResnetV2/InceptionResnetV2/Repeat_2/block8_6/Relu", "module_apply_default/InceptionResnetV2/InceptionResnetV2/Repeat_2/block8_7/mul"], "attr": {"T": {"type": "DT_FLOAT"}}, "name": "module_apply_default/InceptionResnetV2/InceptionResnetV2/Repeat_2/block8_7/add", "op": "Add"}, {"input": ["module_apply_default/InceptionResnetV2/InceptionResnetV2/Repeat_2/block8_7/add"], "attr": {"T": {"type": "DT_FLOAT"}}, "name": "module_apply_default/InceptionResnetV2/InceptionResnetV2/Repeat_2/block8_7/Relu", "op": "Relu"}, {"device": "/device:CPU:0", "input": ["module_apply_default/InceptionResnetV2/InceptionResnetV2/Repeat_2/block8_7/Relu", "module/InceptionResnetV2/Repeat_2/block8_8/Branch_0/Conv2d_1x1/weights", "module_apply_default/InceptionResnetV2/InceptionResnetV2/Repeat_2/block8_8/Branch_0/Conv2d_1x1/Conv2D_bn_offset"], "attr": {"explicit_paddings": {"list": {}}, "epsilon": {"f": 0.0}, "data_format": {"s": "TkhXQw=="}, "use_cudnn_on_gpu": {"b": true}, "padding": {"s": "U0FNRQ=="}, "strides": {"list": {"i": ["1", "1", "1", "1"]}}, "num_args": {"i": "1"}, "T": {"type": "DT_FLOAT"}, "dilations": {"list": {"i": ["1", "1", "1", "1"]}}, "fused_ops": {"list": {"s": ["Qmlhc0FkZA=="]}}}, "name": "module_apply_default/InceptionResnetV2/InceptionResnetV2/Repeat_2/block8_8/Branch_0/Conv2d_1x1/BatchNorm/FusedBatchNorm", "op": "_FusedConv2D"}, {"device": "/device:CPU:0", "input": ["module_apply_default/InceptionResnetV2/InceptionResnetV2/Repeat_2/block8_7/Relu", "module/InceptionResnetV2/Repeat_2/block8_8/Branch_1/Conv2d_0a_1x1/weights", "module_apply_default/InceptionResnetV2/InceptionResnetV2/Repeat_2/block8_8/Branch_1/Conv2d_0a_1x1/Conv2D_bn_offset"], "attr": {"explicit_paddings": {"list": {}}, "epsilon": {"f": 0.0}, "data_format": {"s": "TkhXQw=="}, "use_cudnn_on_gpu": {"b": true}, "padding": {"s": "U0FNRQ=="}, "strides": {"list": {"i": ["1", "1", "1", "1"]}}, "num_args": {"i": "1"}, "T": {"type": "DT_FLOAT"}, "dilations": {"list": {"i": ["1", "1", "1", "1"]}}, "fused_ops": {"list": {"s": ["Qmlhc0FkZA==", "UmVsdQ=="]}}}, "name": "module_apply_default/InceptionResnetV2/InceptionResnetV2/Repeat_2/block8_8/Branch_1/Conv2d_0a_1x1/Relu", "op": "_FusedConv2D"}, {"device": "/device:CPU:0", "input": ["module_apply_default/InceptionResnetV2/InceptionResnetV2/Repeat_2/block8_8/Branch_1/Conv2d_0a_1x1/Relu", "module/InceptionResnetV2/Repeat_2/block8_8/Branch_1/Conv2d_0b_1x3/weights", "module_apply_default/InceptionResnetV2/InceptionResnetV2/Repeat_2/block8_8/Branch_1/Conv2d_0b_1x3/Conv2D_bn_offset"], "attr": {"explicit_paddings": {"list": {}}, "epsilon": {"f": 0.0}, "data_format": {"s": "TkhXQw=="}, "use_cudnn_on_gpu": {"b": true}, "padding": {"s": "U0FNRQ=="}, "strides": {"list": {"i": ["1", "1", "1", "1"]}}, "num_args": {"i": "1"}, "T": {"type": "DT_FLOAT"}, "dilations": {"list": {"i": ["1", "1", "1", "1"]}}, "fused_ops": {"list": {"s": ["Qmlhc0FkZA==", "UmVsdQ=="]}}}, "name": "module_apply_default/InceptionResnetV2/InceptionResnetV2/Repeat_2/block8_8/Branch_1/Conv2d_0b_1x3/Relu", "op": "_FusedConv2D"}, {"device": "/device:CPU:0", "input": ["module_apply_default/InceptionResnetV2/InceptionResnetV2/Repeat_2/block8_8/Branch_1/Conv2d_0b_1x3/Relu", "module/InceptionResnetV2/Repeat_2/block8_8/Branch_1/Conv2d_0c_3x1/weights", "module_apply_default/InceptionResnetV2/InceptionResnetV2/Repeat_2/block8_8/Branch_1/Conv2d_0c_3x1/Conv2D_bn_offset"], "attr": {"explicit_paddings": {"list": {}}, "epsilon": {"f": 0.0}, "data_format": {"s": "TkhXQw=="}, "use_cudnn_on_gpu": {"b": true}, "padding": {"s": "U0FNRQ=="}, "strides": {"list": {"i": ["1", "1", "1", "1"]}}, "num_args": {"i": "1"}, "T": {"type": "DT_FLOAT"}, "dilations": {"list": {"i": ["1", "1", "1", "1"]}}, "fused_ops": {"list": {"s": ["Qmlhc0FkZA=="]}}}, "name": "module_apply_default/InceptionResnetV2/InceptionResnetV2/Repeat_2/block8_8/Branch_1/Conv2d_0c_3x1/BatchNorm/FusedBatchNorm", "op": "_FusedConv2D"}, {"input": ["module_apply_default/InceptionResnetV2/InceptionResnetV2/Repeat_2/block8_8/Branch_0/Conv2d_1x1/BatchNorm/FusedBatchNorm", "module_apply_default/InceptionResnetV2/InceptionResnetV2/Repeat_2/block8_8/Branch_1/Conv2d_0c_3x1/BatchNorm/FusedBatchNorm", "module_apply_default/InceptionResnetV2/InceptionResnetV2/Mixed_5b/concat/axis"], "attr": {"Tidx": {"type": "DT_INT32"}, "T": {"type": "DT_FLOAT"}, "N": {"i": "2"}}, "name": "module_apply_default/InceptionResnetV2/InceptionResnetV2/Repeat_2/block8_8/concat", "op": "ConcatV2"}, {"input": ["module_apply_default/InceptionResnetV2/InceptionResnetV2/Repeat_2/block8_8/concat"], "attr": {"T": {"type": "DT_FLOAT"}}, "name": "module_apply_default/InceptionResnetV2/InceptionResnetV2/Repeat_2/block8_8/Branch_0/Conv2d_1x1/Relu", "op": "Relu"}, {"device": "/device:CPU:0", "input": ["module_apply_default/InceptionResnetV2/InceptionResnetV2/Repeat_2/block8_8/Branch_0/Conv2d_1x1/Relu", "module/InceptionResnetV2/Repeat_2/block8_8/Conv2d_1x1/weights", "module/InceptionResnetV2/Repeat_2/block8_8/Conv2d_1x1/biases"], "attr": {"explicit_paddings": {"list": {}}, "epsilon": {"f": 0.0}, "data_format": {"s": "TkhXQw=="}, "use_cudnn_on_gpu": {"b": true}, "padding": {"s": "U0FNRQ=="}, "strides": {"list": {"i": ["1", "1", "1", "1"]}}, "num_args": {"i": "1"}, "T": {"type": "DT_FLOAT"}, "dilations": {"list": {"i": ["1", "1", "1", "1"]}}, "fused_ops": {"list": {"s": ["Qmlhc0FkZA=="]}}}, "name": "module_apply_default/InceptionResnetV2/InceptionResnetV2/Repeat_2/block8_8/Conv2d_1x1/BiasAdd", "op": "_FusedConv2D"}, {"input": ["module_apply_default/InceptionResnetV2/InceptionResnetV2/Repeat_2/block8_1/mul/y", "module_apply_default/InceptionResnetV2/InceptionResnetV2/Repeat_2/block8_8/Conv2d_1x1/BiasAdd"], "attr": {"T": {"type": "DT_FLOAT"}}, "name": "module_apply_default/InceptionResnetV2/InceptionResnetV2/Repeat_2/block8_8/mul", "op": "Mul"}, {"input": ["module_apply_default/InceptionResnetV2/InceptionResnetV2/Repeat_2/block8_7/Relu", "module_apply_default/InceptionResnetV2/InceptionResnetV2/Repeat_2/block8_8/mul"], "attr": {"T": {"type": "DT_FLOAT"}}, "name": "module_apply_default/InceptionResnetV2/InceptionResnetV2/Repeat_2/block8_8/add", "op": "Add"}, {"input": ["module_apply_default/InceptionResnetV2/InceptionResnetV2/Repeat_2/block8_8/add"], "attr": {"T": {"type": "DT_FLOAT"}}, "name": "module_apply_default/InceptionResnetV2/InceptionResnetV2/Repeat_2/block8_8/Relu", "op": "Relu"}, {"device": "/device:CPU:0", "input": ["module_apply_default/InceptionResnetV2/InceptionResnetV2/Repeat_2/block8_8/Relu", "module/InceptionResnetV2/Repeat_2/block8_9/Branch_0/Conv2d_1x1/weights", "module_apply_default/InceptionResnetV2/InceptionResnetV2/Repeat_2/block8_9/Branch_0/Conv2d_1x1/Conv2D_bn_offset"], "attr": {"explicit_paddings": {"list": {}}, "epsilon": {"f": 0.0}, "data_format": {"s": "TkhXQw=="}, "use_cudnn_on_gpu": {"b": true}, "padding": {"s": "U0FNRQ=="}, "strides": {"list": {"i": ["1", "1", "1", "1"]}}, "num_args": {"i": "1"}, "T": {"type": "DT_FLOAT"}, "dilations": {"list": {"i": ["1", "1", "1", "1"]}}, "fused_ops": {"list": {"s": ["Qmlhc0FkZA=="]}}}, "name": "module_apply_default/InceptionResnetV2/InceptionResnetV2/Repeat_2/block8_9/Branch_0/Conv2d_1x1/BatchNorm/FusedBatchNorm", "op": "_FusedConv2D"}, {"device": "/device:CPU:0", "input": ["module_apply_default/InceptionResnetV2/InceptionResnetV2/Repeat_2/block8_8/Relu", "module/InceptionResnetV2/Repeat_2/block8_9/Branch_1/Conv2d_0a_1x1/weights", "module_apply_default/InceptionResnetV2/InceptionResnetV2/Repeat_2/block8_9/Branch_1/Conv2d_0a_1x1/Conv2D_bn_offset"], "attr": {"explicit_paddings": {"list": {}}, "epsilon": {"f": 0.0}, "data_format": {"s": "TkhXQw=="}, "use_cudnn_on_gpu": {"b": true}, "padding": {"s": "U0FNRQ=="}, "strides": {"list": {"i": ["1", "1", "1", "1"]}}, "num_args": {"i": "1"}, "T": {"type": "DT_FLOAT"}, "dilations": {"list": {"i": ["1", "1", "1", "1"]}}, "fused_ops": {"list": {"s": ["Qmlhc0FkZA==", "UmVsdQ=="]}}}, "name": "module_apply_default/InceptionResnetV2/InceptionResnetV2/Repeat_2/block8_9/Branch_1/Conv2d_0a_1x1/Relu", "op": "_FusedConv2D"}, {"device": "/device:CPU:0", "input": ["module_apply_default/InceptionResnetV2/InceptionResnetV2/Repeat_2/block8_9/Branch_1/Conv2d_0a_1x1/Relu", "module/InceptionResnetV2/Repeat_2/block8_9/Branch_1/Conv2d_0b_1x3/weights", "module_apply_default/InceptionResnetV2/InceptionResnetV2/Repeat_2/block8_9/Branch_1/Conv2d_0b_1x3/Conv2D_bn_offset"], "attr": {"explicit_paddings": {"list": {}}, "epsilon": {"f": 0.0}, "data_format": {"s": "TkhXQw=="}, "use_cudnn_on_gpu": {"b": true}, "padding": {"s": "U0FNRQ=="}, "strides": {"list": {"i": ["1", "1", "1", "1"]}}, "num_args": {"i": "1"}, "T": {"type": "DT_FLOAT"}, "dilations": {"list": {"i": ["1", "1", "1", "1"]}}, "fused_ops": {"list": {"s": ["Qmlhc0FkZA==", "UmVsdQ=="]}}}, "name": "module_apply_default/InceptionResnetV2/InceptionResnetV2/Repeat_2/block8_9/Branch_1/Conv2d_0b_1x3/Relu", "op": "_FusedConv2D"}, {"device": "/device:CPU:0", "input": ["module_apply_default/InceptionResnetV2/InceptionResnetV2/Repeat_2/block8_9/Branch_1/Conv2d_0b_1x3/Relu", "module/InceptionResnetV2/Repeat_2/block8_9/Branch_1/Conv2d_0c_3x1/weights", "module_apply_default/InceptionResnetV2/InceptionResnetV2/Repeat_2/block8_9/Branch_1/Conv2d_0c_3x1/Conv2D_bn_offset"], "attr": {"explicit_paddings": {"list": {}}, "epsilon": {"f": 0.0}, "data_format": {"s": "TkhXQw=="}, "use_cudnn_on_gpu": {"b": true}, "padding": {"s": "U0FNRQ=="}, "strides": {"list": {"i": ["1", "1", "1", "1"]}}, "num_args": {"i": "1"}, "T": {"type": "DT_FLOAT"}, "dilations": {"list": {"i": ["1", "1", "1", "1"]}}, "fused_ops": {"list": {"s": ["Qmlhc0FkZA=="]}}}, "name": "module_apply_default/InceptionResnetV2/InceptionResnetV2/Repeat_2/block8_9/Branch_1/Conv2d_0c_3x1/BatchNorm/FusedBatchNorm", "op": "_FusedConv2D"}, {"input": ["module_apply_default/InceptionResnetV2/InceptionResnetV2/Repeat_2/block8_9/Branch_0/Conv2d_1x1/BatchNorm/FusedBatchNorm", "module_apply_default/InceptionResnetV2/InceptionResnetV2/Repeat_2/block8_9/Branch_1/Conv2d_0c_3x1/BatchNorm/FusedBatchNorm", "module_apply_default/InceptionResnetV2/InceptionResnetV2/Mixed_5b/concat/axis"], "attr": {"Tidx": {"type": "DT_INT32"}, "T": {"type": "DT_FLOAT"}, "N": {"i": "2"}}, "name": "module_apply_default/InceptionResnetV2/InceptionResnetV2/Repeat_2/block8_9/concat", "op": "ConcatV2"}, {"input": ["module_apply_default/InceptionResnetV2/InceptionResnetV2/Repeat_2/block8_9/concat"], "attr": {"T": {"type": "DT_FLOAT"}}, "name": "module_apply_default/InceptionResnetV2/InceptionResnetV2/Repeat_2/block8_9/Branch_0/Conv2d_1x1/Relu", "op": "Relu"}, {"device": "/device:CPU:0", "input": ["module_apply_default/InceptionResnetV2/InceptionResnetV2/Repeat_2/block8_9/Branch_0/Conv2d_1x1/Relu", "module/InceptionResnetV2/Repeat_2/block8_9/Conv2d_1x1/weights", "module/InceptionResnetV2/Repeat_2/block8_9/Conv2d_1x1/biases"], "attr": {"explicit_paddings": {"list": {}}, "epsilon": {"f": 0.0}, "data_format": {"s": "TkhXQw=="}, "use_cudnn_on_gpu": {"b": true}, "padding": {"s": "U0FNRQ=="}, "strides": {"list": {"i": ["1", "1", "1", "1"]}}, "num_args": {"i": "1"}, "T": {"type": "DT_FLOAT"}, "dilations": {"list": {"i": ["1", "1", "1", "1"]}}, "fused_ops": {"list": {"s": ["Qmlhc0FkZA=="]}}}, "name": "module_apply_default/InceptionResnetV2/InceptionResnetV2/Repeat_2/block8_9/Conv2d_1x1/BiasAdd", "op": "_FusedConv2D"}, {"input": ["module_apply_default/InceptionResnetV2/InceptionResnetV2/Repeat_2/block8_1/mul/y", "module_apply_default/InceptionResnetV2/InceptionResnetV2/Repeat_2/block8_9/Conv2d_1x1/BiasAdd"], "attr": {"T": {"type": "DT_FLOAT"}}, "name": "module_apply_default/InceptionResnetV2/InceptionResnetV2/Repeat_2/block8_9/mul", "op": "Mul"}, {"input": ["module_apply_default/InceptionResnetV2/InceptionResnetV2/Repeat_2/block8_8/Relu", "module_apply_default/InceptionResnetV2/InceptionResnetV2/Repeat_2/block8_9/mul"], "attr": {"T": {"type": "DT_FLOAT"}}, "name": "module_apply_default/InceptionResnetV2/InceptionResnetV2/Repeat_2/block8_9/add", "op": "Add"}, {"input": ["module_apply_default/InceptionResnetV2/InceptionResnetV2/Repeat_2/block8_9/add"], "attr": {"T": {"type": "DT_FLOAT"}}, "name": "module_apply_default/InceptionResnetV2/InceptionResnetV2/Repeat_2/block8_9/Relu", "op": "Relu"}, {"device": "/device:CPU:0", "input": ["module_apply_default/InceptionResnetV2/InceptionResnetV2/Repeat_2/block8_9/Relu", "module/InceptionResnetV2/Block8/Branch_0/Conv2d_1x1/weights", "module_apply_default/InceptionResnetV2/InceptionResnetV2/Block8/Branch_0/Conv2d_1x1/Conv2D_bn_offset"], "attr": {"explicit_paddings": {"list": {}}, "epsilon": {"f": 0.0}, "data_format": {"s": "TkhXQw=="}, "use_cudnn_on_gpu": {"b": true}, "padding": {"s": "U0FNRQ=="}, "strides": {"list": {"i": ["1", "1", "1", "1"]}}, "num_args": {"i": "1"}, "T": {"type": "DT_FLOAT"}, "dilations": {"list": {"i": ["1", "1", "1", "1"]}}, "fused_ops": {"list": {"s": ["Qmlhc0FkZA=="]}}}, "name": "module_apply_default/InceptionResnetV2/InceptionResnetV2/Block8/Branch_0/Conv2d_1x1/BatchNorm/FusedBatchNorm", "op": "_FusedConv2D"}, {"device": "/device:CPU:0", "input": ["module_apply_default/InceptionResnetV2/InceptionResnetV2/Repeat_2/block8_9/Relu", "module/InceptionResnetV2/Block8/Branch_1/Conv2d_0a_1x1/weights", "module_apply_default/InceptionResnetV2/InceptionResnetV2/Block8/Branch_1/Conv2d_0a_1x1/Conv2D_bn_offset"], "attr": {"explicit_paddings": {"list": {}}, "epsilon": {"f": 0.0}, "data_format": {"s": "TkhXQw=="}, "use_cudnn_on_gpu": {"b": true}, "padding": {"s": "U0FNRQ=="}, "strides": {"list": {"i": ["1", "1", "1", "1"]}}, "num_args": {"i": "1"}, "T": {"type": "DT_FLOAT"}, "dilations": {"list": {"i": ["1", "1", "1", "1"]}}, "fused_ops": {"list": {"s": ["Qmlhc0FkZA==", "UmVsdQ=="]}}}, "name": "module_apply_default/InceptionResnetV2/InceptionResnetV2/Block8/Branch_1/Conv2d_0a_1x1/Relu", "op": "_FusedConv2D"}, {"device": "/device:CPU:0", "input": ["module_apply_default/InceptionResnetV2/InceptionResnetV2/Block8/Branch_1/Conv2d_0a_1x1/Relu", "module/InceptionResnetV2/Block8/Branch_1/Conv2d_0b_1x3/weights", "module_apply_default/InceptionResnetV2/InceptionResnetV2/Block8/Branch_1/Conv2d_0b_1x3/Conv2D_bn_offset"], "attr": {"explicit_paddings": {"list": {}}, "epsilon": {"f": 0.0}, "data_format": {"s": "TkhXQw=="}, "use_cudnn_on_gpu": {"b": true}, "padding": {"s": "U0FNRQ=="}, "strides": {"list": {"i": ["1", "1", "1", "1"]}}, "num_args": {"i": "1"}, "T": {"type": "DT_FLOAT"}, "dilations": {"list": {"i": ["1", "1", "1", "1"]}}, "fused_ops": {"list": {"s": ["Qmlhc0FkZA==", "UmVsdQ=="]}}}, "name": "module_apply_default/InceptionResnetV2/InceptionResnetV2/Block8/Branch_1/Conv2d_0b_1x3/Relu", "op": "_FusedConv2D"}, {"device": "/device:CPU:0", "input": ["module_apply_default/InceptionResnetV2/InceptionResnetV2/Block8/Branch_1/Conv2d_0b_1x3/Relu", "module/InceptionResnetV2/Block8/Branch_1/Conv2d_0c_3x1/weights", "module_apply_default/InceptionResnetV2/InceptionResnetV2/Block8/Branch_1/Conv2d_0c_3x1/Conv2D_bn_offset"], "attr": {"explicit_paddings": {"list": {}}, "epsilon": {"f": 0.0}, "data_format": {"s": "TkhXQw=="}, "use_cudnn_on_gpu": {"b": true}, "padding": {"s": "U0FNRQ=="}, "strides": {"list": {"i": ["1", "1", "1", "1"]}}, "num_args": {"i": "1"}, "T": {"type": "DT_FLOAT"}, "dilations": {"list": {"i": ["1", "1", "1", "1"]}}, "fused_ops": {"list": {"s": ["Qmlhc0FkZA=="]}}}, "name": "module_apply_default/InceptionResnetV2/InceptionResnetV2/Block8/Branch_1/Conv2d_0c_3x1/BatchNorm/FusedBatchNorm", "op": "_FusedConv2D"}, {"input": ["module_apply_default/InceptionResnetV2/InceptionResnetV2/Block8/Branch_0/Conv2d_1x1/BatchNorm/FusedBatchNorm", "module_apply_default/InceptionResnetV2/InceptionResnetV2/Block8/Branch_1/Conv2d_0c_3x1/BatchNorm/FusedBatchNorm", "module_apply_default/InceptionResnetV2/InceptionResnetV2/Mixed_5b/concat/axis"], "attr": {"Tidx": {"type": "DT_INT32"}, "T": {"type": "DT_FLOAT"}, "N": {"i": "2"}}, "name": "module_apply_default/InceptionResnetV2/InceptionResnetV2/Block8/concat", "op": "ConcatV2"}, {"input": ["module_apply_default/InceptionResnetV2/InceptionResnetV2/Block8/concat"], "attr": {"T": {"type": "DT_FLOAT"}}, "name": "module_apply_default/InceptionResnetV2/InceptionResnetV2/Block8/Branch_0/Conv2d_1x1/Relu", "op": "Relu"}, {"device": "/device:CPU:0", "input": ["module_apply_default/InceptionResnetV2/InceptionResnetV2/Block8/Branch_0/Conv2d_1x1/Relu", "module/InceptionResnetV2/Block8/Conv2d_1x1/weights", "module/InceptionResnetV2/Block8/Conv2d_1x1/biases"], "attr": {"explicit_paddings": {"list": {}}, "epsilon": {"f": 0.0}, "data_format": {"s": "TkhXQw=="}, "use_cudnn_on_gpu": {"b": true}, "padding": {"s": "U0FNRQ=="}, "strides": {"list": {"i": ["1", "1", "1", "1"]}}, "num_args": {"i": "1"}, "T": {"type": "DT_FLOAT"}, "dilations": {"list": {"i": ["1", "1", "1", "1"]}}, "fused_ops": {"list": {"s": ["Qmlhc0FkZA=="]}}}, "name": "module_apply_default/InceptionResnetV2/InceptionResnetV2/Block8/Conv2d_1x1/BiasAdd", "op": "_FusedConv2D"}, {"input": ["module_apply_default/InceptionResnetV2/InceptionResnetV2/Block8/Conv2d_1x1/BiasAdd", "module_apply_default/InceptionResnetV2/InceptionResnetV2/Repeat_2/block8_9/Relu"], "attr": {"T": {"type": "DT_FLOAT"}}, "name": "module_apply_default/InceptionResnetV2/InceptionResnetV2/Block8/add", "op": "Add"}, {"device": "/device:CPU:0", "input": ["module_apply_default/InceptionResnetV2/InceptionResnetV2/Block8/add", "module/InceptionResnetV2/Conv2d_7b_1x1/weights", "module_apply_default/InceptionResnetV2/InceptionResnetV2/Conv2d_7b_1x1/Conv2D_bn_offset"], "attr": {"explicit_paddings": {"list": {}}, "epsilon": {"f": 0.0}, "data_format": {"s": "TkhXQw=="}, "use_cudnn_on_gpu": {"b": true}, "padding": {"s": "U0FNRQ=="}, "strides": {"list": {"i": ["1", "1", "1", "1"]}}, "num_args": {"i": "1"}, "T": {"type": "DT_FLOAT"}, "dilations": {"list": {"i": ["1", "1", "1", "1"]}}, "fused_ops": {"list": {"s": ["Qmlhc0FkZA==", "UmVsdQ=="]}}}, "name": "module_apply_default/InceptionResnetV2/InceptionResnetV2/Conv2d_7b_1x1/Relu", "op": "_FusedConv2D"}, {"input": ["module_apply_default/InceptionResnetV2/InceptionResnetV2/Conv2d_7b_1x1/Relu", "module_apply_default/InceptionResnetV2/Logits/global_pool/reduction_indices"], "attr": {"T": {"type": "DT_FLOAT"}, "keep_dims": {"b": true}, "Tidx": {"type": "DT_INT32"}}, "name": "module_apply_default/InceptionResnetV2/Logits/global_pool", "op": "Mean"}, {"input": ["module_apply_default/InceptionResnetV2/Logits/global_pool"], "attr": {"out_type": {"type": "DT_INT32"}, "T": {"type": "DT_FLOAT"}}, "name": "module_apply_default/InceptionResnetV2/Logits/Flatten/flatten/Shape", "op": "Shape"}, {"input": ["module_apply_default/InceptionResnetV2/Logits/Flatten/flatten/Shape", "module_apply_default/InceptionResnetV2/Logits/Flatten/flatten/strided_slice/stack", "module_apply_default/InceptionResnetV2/Logits/Flatten/flatten/strided_slice/stack_1", "module_apply_default/InceptionResnetV2/Logits/Flatten/flatten/strided_slice/stack_1"], "attr": {"new_axis_mask": {"i": "0"}, "Index": {"type": "DT_INT32"}, "begin_mask": {"i": "0"}, "ellipsis_mask": {"i": "0"}, "end_mask": {"i": "0"}, "T": {"type": "DT_INT32"}, "shrink_axis_mask": {"i": "1"}}, "name": "module_apply_default/InceptionResnetV2/Logits/Flatten/flatten/strided_slice", "op": "StridedSlice"}, {"input": ["module_apply_default/InceptionResnetV2/Logits/Flatten/flatten/strided_slice", "module_apply_default/InceptionResnetV2/Logits/Flatten/flatten/Reshape/shape/1"], "attr": {"N": {"i": "2"}, "T": {"type": "DT_INT32"}, "axis": {"i": "0"}}, "name": "module_apply_default/InceptionResnetV2/Logits/Flatten/flatten/Reshape/shape", "op": "Pack"}, {"input": ["module_apply_default/InceptionResnetV2/Logits/global_pool", "module_apply_default/InceptionResnetV2/Logits/Flatten/flatten/Reshape/shape"], "attr": {"T": {"type": "DT_FLOAT"}, "Tshape": {"type": "DT_INT32"}}, "name": "module_apply_default/InceptionResnetV2/Logits/Flatten/flatten/Reshape", "op": "Reshape"}, {"input": ["module_apply_default/InceptionResnetV2/Logits/Flatten/flatten/Reshape", "module/InceptionResnetV2/Logits/Logits/weights"], "attr": {"transpose_b": {"b": false}, "transpose_a": {"b": false}, "T": {"type": "DT_FLOAT"}}, "name": "module_apply_default/InceptionResnetV2/Logits/Logits/MatMul", "op": "MatMul"}, {"input": ["module_apply_default/InceptionResnetV2/Logits/Logits/MatMul", "module/InceptionResnetV2/Logits/Logits/biases"], "attr": {"T": {"type": "DT_FLOAT"}, "data_format": {"s": "TkhXQw=="}}, "name": "module_apply_default/InceptionResnetV2/Logits/Logits/BiasAdd", "op": "BiasAdd"}], "library": {}, "versions": {}}, "generatedBy": "1.14.0", "convertedBy": "TensorFlow.js Converter v1.2.10.1", "format": "graph-model"}